best_model_0.pth (torch, 45284 bytes, 25 tensors)

conv1.weight f4 [20, 1, 3]
0	0x3d8e6c65	0.06954268
1	0x3f07cd3d	0.53047544
2	0xbeff3478	-0.49844718
3	0x3e07cde9	0.13262142
4	0xbdab6a20	-0.08369851
5	0x3e0a9e73	0.13537006
6	0x3ebd9fb1	0.37035897
7	0x3e4d36d8	0.20040452
8	0xbc8c526b	-0.017129144
9	0xbed5e1b9	-0.41773775
10	0x3e8afc2f	0.27145526
11	0x3eb56e3a	0.3543566
12	0xb9a6ef57	-0.0003184031
13	0xb997fa5f	-0.00028987505
14	0xb812fb56	-3.5043187e-05
15	0xba27aef7	-0.0006396616
16	0xba3980bb	-0.0007076372
17	0xbbfdb141	-0.0077420776
18	0xbecddb20	-0.40206242
19	0x3ec2ecf0	0.38071394
20	0x3d6f9255	0.058489162
21	0x3ed5eca3	0.41782102
22	0x3e2bdde9	0.16783871
23	0x3ef0839c	0.4697541
24	0xbe170e7c	-0.14751619
25	0x3ec03304	0.37538922
26	0x3ef07099	0.46960905
27	0xbd3d5c3b	-0.046230536
28	0x3f010af0	0.50407314
29	0xbebb53e7	-0.3658745
30	0xb9187039	-0.00014537656
31	0xb82598c2	-3.9481332e-05
32	0xb9138f6e	-0.00014072444
33	0xb8e5498a	-0.00010933269
34	0xb78f884e	-1.71104e-05
35	0xb7de6ed6	-2.6516074e-05
36	0xbadfda3a	-0.0017078586
37	0xbb8afd33	-0.0042416095
38	0xbd9c1cb8	-0.07622665
39	0xbd4181bd	-0.04724287
40	0x3d97bd59	0.07409162
41	0x3e3cf718	0.18453634
42	0x3d5c85cc	0.053838536
43	0xbf106ba5	-0.5641425
44	0xbdd124be	-0.10212086
45	0xbf002751	-0.5005999
46	0xbf1bb2ea	-0.60819876
47	0x3f019f11	0.5063334
48	0xbeb7fb76	-0.35934037
49	0x3f000a9f	0.50016207
50	0xbe2b80cf	-0.16748355
51	0x3e047889	0.12936606
52	0x3ef92a60	0.48665142
53	0x3ec54fc1	0.3853741
54	0xbda4eb95	-0.08052746
55	0x3c8c9e98	0.017165467
56	0x3ea68842	0.3252583
57	0x3ea2d160	0.31800365
58	0x3e83553f	0.25650975
59	0x3e693f2d	0.22778006

conv1.bias f4 [20]
0	0x3f059b64	0.5219023
1	0xbecb6139	-0.39722613
2	0x3ee43302	0.44570166
3	0xbe86198a	-0.2619136
4	0xb7915276	-1.7323746e-05
5	0x3c62790b	0.013822804
6	0xbf377e53	-0.7167713
7	0x3dbfb1e3	0.09360101
8	0xbe135798	-0.14388883
9	0xbc837770	-0.016048163
10	0xb481f31c	-2.4205008e-07
11	0xa4b39235	-7.787656e-17
12	0x3db51a8e	0.088429555
13	0xbf19d899	-0.60096127
14	0xbe541cbb	-0.20714085
15	0xbe8ddeb5	-0.27708974
16	0x3ea646ec	0.32475984
17	0x3e902dd7	0.28159973
18	0x3eaea7b2	0.34112316
19	0x3eeee9bf	0.4666271

conv2.weight f4 [20, 20, 3]
0	0xbc236b99	-0.009974384
1	0x3e339169	0.17535938
2	0xbd851624	-0.064983636
3	0x3d9391b8	0.07205528
4	0x3d626f26	0.05528178
5	0x3cc782d3	0.024354374
6	0x3bbf6f05	0.005842092
7	0x3d0fadb3	0.03507776
8	0xbe301549	-0.1719562
9	0x3d1ba223	0.037996422
10	0x3dc0b93d	0.094103314
11	0xbc140ba3	-0.009035978
12	0x8018114e	-2.21026e-39
13	0x0031cf67	4.574341e-39
14	0x8184aea6	-4.873975e-38
15	0x3b3c553b	0.0028737325
16	0x3c6e348b	0.014538894
17	0x815a788b	-4.0126762e-38
18	0xbe09d364	-0.13459545
19	0x3e005507	0.12532435
20	0xbd7334c4	-0.059376493
21	0xbdc1af45	-0.09457258
22	0x3b96c6e7	0.0046013477
23	0x3d95f4d9	0.073220916
24	0xbdf7d64c	-0.12101421
25	0x3d9d27a0	0.076735735
26	0xbcd34290	-0.025788575
27	0xbd251e65	-0.04031219
28	0x3e1b1902	0.15146258
29	0x3d83c4f2	0.06434049
30	0x01adcf9d	6.3848074e-38
31	0x80a513d0	-1.5159964e-38
32	0x802ff436	-4.403875e-39
33	0x0003803d	3.2151e-40
34	0x000ac0de	9.87543e-40
35	0x8132d2f8	-3.28448e-38
36	0x3c7ba304	0.01535869
37	0x3de6548f	0.11246597
38	0x8033564a	-4.714565e-39
39	0x3db9e198	0.09076232
40	0x3d727b6a	0.059199728
41	0xbd3c2e47	-0.04594257
42	0x3e09d924	0.13461739
43	0x01539f80	3.8869015e-38
44	0xbaea663c	-0.0017883251
45	0x3cc83384	0.024438627
46	0xbe1d09bc	-0.15335745
47	0x3df551eb	0.11978515
48	0x3d8543ac	0.06507048
49	0xbb335b6e	-0.0027367729
50	0xbdd9d166	-0.10635643
51	0x3ce67a07	0.028134359
52	0xbce97b71	-0.028501244
53	0x3e1cf3f0	0.1532743
54	0x3dea9287	0.11453729
55	0x3da00261	0.07812954
56	0x3d951796	0.07279889
57	0x3d21c5d7	0.039495315
58	0xbd85cdb6	-0.06533377
59	0xbcdcaebd	-0.02693879
60	0x3c8873eb	0.016656836
61	0x3e037f1c	0.12841457
62	0x3d11de22	0.035612233
63	0xbd040956	-0.032235466
64	0xbb3c3919	-0.0028720556
65	0xbb0a6be1	-0.002112143
66	0xbda7f95e	-0.0820186
67	0x3e0370a1	0.12835933
68	0xba8a488d	-0.0010550186
69	0xba967158	-0.0011477871
70	0x3da74dd2	0.0816914
71	0xbc27cdde	-0.010241954
72	0x81925240	-5.374995e-38
73	0x81957e80	-5.4915474e-38
74	0x00116b08	1.599599e-39
75	0xbbc4d54d	-0.0060068727
76	0xba11e2d3	-0.00055651105
77	0x00971600	1.3875052e-38
78	0x3c506e81	0.012721659
79	0x3e05a9ac	0.13053006
80	0x3b086920	0.0020814613
81	0xbc3f330c	-0.011669885
82	0xbdcf07f2	-0.10108937
83	0xbcd9da15	-0.026593247
84	0xbd1cfb1e	-0.03832542
85	0x3dcdaf93	0.10043254
86	0xbc620ebb	-0.013797457
87	0x3c4a4ccd	0.012347412
88	0x3cc97c40	0.02459538
89	0xbcbfdc98	-0.023420617
90	0x81984050	-5.5928266e-38
91	0x81549272	-3.904332e-38
92	0x8024225d	-3.318405e-39
93	0x8018098a	-2.207474e-39
94	0x803c80a5	-5.556279e-39
95	0x802fe4d0	-4.398351e-39
96	0xbd19984c	-0.037498757
97	0xba0538db	-0.00050820195
98	0x003c594f	5.542168e-39
99	0xbccca0c4	-0.024979003
100	0x3e13acb7	0.14421354
101	0x3b46a992	0.0030313474
102	0xb9b17634	-0.0003384814
103	0x00020237	1.84466e-40
104	0x3c4237b9	0.011854106
105	0x01b3d767	6.60633e-38
106	0xb9e7184c	-0.00044077856
107	0x0024ec59	3.390863e-39
108	0xbdce2430	-0.10065496
109	0x3e072fa7	0.13201772
110	0x3b22a952	0.002482016
111	0xbdffc117	-0.12488001
112	0x3cd1493b	0.025547614
113	0x3d2c4dea	0.042066492
114	0xbe0229ab	-0.12711208
115	0xbc874ec8	-0.016517058
116	0x3b0adfe9	0.002119059
117	0xbcef0879	-0.029178845
118	0x3cef4d9f	0.029211817
119	0xbd2816cc	-0.041037366
120	0x3d9ac607	0.07557302
121	0xbdb14cf9	-0.086572595
122	0x00170e6d	2.117391e-39
123	0x3dc92bc4	0.09822801
124	0x004468bd	6.282387e-39
125	0x8032a4b8	-4.650865e-39
126	0x3bf2c3fc	0.007408617
127	0xbd654baf	-0.05598038
128	0x80193afa	-2.317044e-39
129	0x002d2a00	4.147664e-39
130	0xbd7f0407	-0.0622597
131	0x8038cf1b	-5.217083e-39
132	0x003f0884	5.788691e-39
133	0x002081f0	2.985349e-39
134	0x003fa657	5.845308e-39
135	0x01845250	4.8607255e-38
136	0x2ac27fe1	3.4550057e-13
137	0x000680b6	5.97186e-40
138	0x011b0780	2.8474385e-38
139	0xbdf48b7f	-0.11940669
140	0x0043b997	6.219555e-39
141	0x3e05100d	0.12994404
142	0xbe152497	-0.14564739
143	0x00291990	3.774425e-39
144	0xbe0cef05	-0.13763054
145	0xbddfde2b	-0.10931047
146	0x801436a2	-1.856308e-39
147	0xbe0f18d7	-0.1397432
148	0xbc48712d	-0.012234014
149	0x80420dc5	-6.066082e-39
150	0x8141cac9	-3.5593993e-38
151	0x00cf47ac	1.9035659e-38
152	0x00175d3c	2.145663e-39
153	0x0000021f	7.61e-43
154	0x000efd2f	1.376522e-39
155	0x8031afcf	-4.563008e-39
156	0x0031efc1	4.585947e-39
157	0x00806b84	1.1793513e-38
158	0x80162f16	-2.037272e-39
159	0x818291c0	-4.79636e-38
160	0xbd880a3a	-0.066425756
161	0x8036a94e	-5.019852e-39
162	0x3c50f60e	0.0127539765
163	0x8025e18c	-3.478824e-39
164	0x801b57eb	-2.511097e-39
165	0x80000f03	-5.385e-42
166	0x80202fc2	-2.955868e-39
167	0x802406a5	-3.308461e-39
168	0x8004ba00	-4.34066e-40
169	0xbdfc7789	-0.12327487
170	0x803361c4	-4.718682e-39
171	0x3c8ed912	0.017437492
172	0xbdb83faf	-0.08996522
173	0x80043c09	-3.88879e-40
174	0x8005dc40	-5.38188e-40
175	0xbc4844ea	-0.012223462
176	0x801a1af3	-2.39739e-39
177	0xbd6df3f8	-0.058093995
178	0xbd7b237e	-0.061313145
179	0x00046091	4.01983e-40
180	0xbdff5aa6	-0.12468462
181	0xbd2f1da4	-0.042752877
182	0xbd30461d	-0.043035615
183	0x3dc97d5b	0.09838363
184	0x3d826483	0.06366827
185	0x3c58350d	0.013196242
186	0x3d4b8693	0.049688887
187	0x3ce6625d	0.028123075
188	0xbabff547	-0.0014645242
189	0xbda898d8	-0.08232278
190	0x3d9e1d22	0.077204004
191	0xbcefbfc8	-0.029266253
192	0x81ab4164	-6.290931e-38
193	0x01942a7a	5.4427565e-38
194	0x01a56408	6.0754965e-38
195	0x3ba58bdd	0.0050520734
196	0xbc4fba30	-0.012678668
197	0x3b9c229f	0.0047648693
198	0xbd708f28	-0.058730274
199	0x3bc3eaf0	0.0059789345
200	0xbd85024f	-0.06494581
201	0x3dcf5157	0.10122936
202	0x3d618e0b	0.055067103
203	0xbc381a0f	-0.011236682
204	0x3db8d354	0.09024683
205	0xbe09b533	-0.13448028
206	0x3e145d5a	0.14488736
207	0x3d9023ec	0.070381016
208	0x3d87059e	0.06592868
209	0x3d6fda25	0.05855765
210	0x0134dc76	3.3218952e-38
211	0x01194dae	2.8157394e-38
212	0x81b25253	-6.5505e-38
213	0x8023d7cf	-3.29166e-39
214	0x80523a37	-7.551394e-39
215	0x01aabeda	6.2721996e-38
216	0x3d03eb81	0.032207016
217	0xbde76730	-0.11298978
218	0x3d0ba0c8	0.03408888
219	0x3c28bfb5	0.010299613
220	0x3dd0a699	0.10188026
221	0x3cb17d2a	0.021666128
222	0x3d64cf24	0.055861607
223	0x3d90e233	0.07074394
224	0xbd76dd31	-0.06026954
225	0x3deb4805	0.11488346
226	0xbdbb4c98	-0.091454685
227	0xbd6dde72	-0.05807347
228	0x3ddc3af3	0.10753431
229	0x3dd0147a	0.101601556
230	0x3dcd4438	0.10022777
231	0x3b63ea79	0.0034777208
232	0xbcb973d7	-0.022638245
233	0x3e0f0a11	0.13968684
234	0x3c0f520b	0.008747588
235	0xbe03331f	-0.1281247
236	0x3e292506	0.1651803
237	0xbde64482	-0.112435356
238	0x3dc2c432	0.095100775
239	0x3dfe131e	0.1240599
240	0x3cd90547	0.026491774
241	0xbde385ce	-0.111095056
242	0x3cb2bbb6	0.021818023
243	0x3c1054d0	0.008809283
244	0xbdc98a69	-0.09840853
245	0xbbe92781	-0.007115305
246	0x3df728de	0.12068342
247	0x3d99dcba	0.075128034
248	0xbdb52b95	-0.08846203
249	0xbdce5223	-0.1007426
250	0xbd199fe5	-0.037506003
251	0xbca62e8b	-0.020285865
252	0x018314c2	4.8151586e-38
253	0x17900032	9.305831e-25
254	0x01557a3b	3.9209617e-38
255	0xb54a49a7	-7.535804e-07

conv2.bias f4 [20]
0	0x3d3f29b5	0.046670634
1	0x3e24dfcf	0.16101001
2	0xbcee7b40	-0.029111505
3	0xbe25656f	-0.16151975
4	0xbe562ca0	-0.2091546
5	0xb88a693c	-6.599954e-05
6	0x3b83b416	0.0040192707
7	0x3b8b4bc3	0.004250975
8	0x3c879ed0	0.01655522
9	0xbdbdcb95	-0.09267346
10	0xbd1b6dd5	-0.03794654
11	0xbd8777a3	-0.06614616
12	0xbc3f6aea	-0.011683205
13	0x3d32092b	0.043465775
14	0x3d56345a	0.05229602
15	0x3b10a6b7	0.0022072026
16	0xbdd5cd9d	-0.10439608
17	0x3bdde6fe	0.006771921
18	0x3dfb59fb	0.12273022
19	0x3d674432	0.05646152

conv3.weight f4 [20, 20, 3]
0	0xbe1f9bd0	-0.15586782
1	0xbbbd35f3	-0.0057742535
2	0x3b07d13b	0.0020724076
3	0x3d297fa9	0.04138151
4	0xbe34fbdb	-0.176742
5	0xbdfbb2e0	-0.12289977
6	0x3e0763da	0.13221684
7	0x3d043be5	0.032283682
8	0xbdeeb275	-0.11655132
9	0x3c0a85e3	0.008454773
10	0xbe0fa53e	-0.14027879
11	0x3c9edcfb	0.019392481
12	0x3cf6000b	0.030029317
13	0xbe11e0e4	-0.14245945
14	0x3e13fb75	0.14451392
15	0x3b444b63	0.002995216
16	0xbbde1b8f	-0.0067781876
17	0xbc09b176	-0.008404126
18	0x3b6278b7	0.0034556815
19	0xb95cc8ec	-0.00021055684
20	0xbd6d752e	-0.05797308
21	0xbc80c493	-0.015718734
22	0xbe005c02	-0.12535098
23	0xbe1d88c3	-0.15384202
24	0x3d33859f	0.043828603
25	0xbde74dc1	-0.11294127
26	0xbda82c46	-0.082115695
27	0xbb34561e	-0.002751715
28	0xbdd4b2ab	-0.10385641
29	0x3db879bb	0.09007593
30	0x3da5cd5c	0.0809581
31	0xbdb6b279	-0.0892076
32	0xbd87a882	-0.06623937
33	0x3de4df55	0.1117541
34	0xbe2f1513	-0.17097883
35	0xbda8d3e2	-0.082435384
36	0xbe08dd1d	-0.13365598
37	0xbe3e3cd4	-0.18577892
38	0x3da0ce88	0.07851893
39	0xbda70b8c	-0.08156499
40	0xbdd93bdd	-0.10607121
41	0xbdbf499d	-0.093402125
42	0xbdffebe6	-0.12496166
43	0xbd9917e4	-0.0747526
44	0xbd7252dc	-0.059161052
45	0x3ca47dfc	0.020079605
46	0xbd073283	-0.033007156
47	0x3dd033e8	0.1016615
48	0xbdf8ff90	-0.1215812
49	0xbe2409d3	-0.16019373
50	0xbe1100d5	-0.14160474
51	0x3c31ed90	0.010859862
52	0x3d829829	0.063766785
53	0xbe0068dd	-0.12540002
54	0xbb967492	-0.004591533
55	0xbe4992f5	-0.19684966
56	0xbceaa399	-0.028642463
57	0xbd9665dc	-0.07343647
58	0xbd08fd59	-0.033444736
59	0x3d841173	0.06448641
60	0x3caf7f27	0.021422936
61	0x3d516c8e	0.051128916
62	0x3dc497c8	0.095992625
63	0xbd8e52d0	-0.06949389
64	0x3d558228	0.05212608
65	0x3d91a0fe	0.07110785
66	0xbd9c9309	-0.07645232
67	0xbdee96a7	-0.116498284
68	0xbd7ba43a	-0.061435916
69	0xbda5eee0	-0.081022024
70	0xbd978b09	-0.07399566
71	0xbcd91c93	-0.026502883
72	0x3d444593	0.047917914
73	0xbd9a6fe2	-0.07540871
74	0x3d1719b9	0.036889765
75	0xba87db4e	-0.001036504
76	0x3c5025a7	0.0127042895
77	0xbbc5b511	-0.0060335477
78	0x3e0aa0f6	0.13537964
79	0xbd65b9f6	-0.05608555
80	0xbd27e8ff	-0.040993687
81	0x3da0ee88	0.07857996
82	0xbda9c612	-0.08289732
83	0xbdadadc9	-0.084804125
84	0xbd8e611d	-0.06952117
85	0xbd86e25c	-0.065861434
86	0x3ca1c445	0.019746909
87	0x3dda4844	0.10658315
88	0x3cfb38bb	0.0306667
89	0xbd8b4e1e	-0.06802009
90	0xbdcc4341	-0.09973765
91	0xbcda6781	-0.026660683
92	0xbd4ee4b5	-0.05051108
93	0x3d103a74	0.035211995
94	0xbbc9a8b0	-0.0061541423
95	0xbdf7fa04	-0.121082336
96	0x3cb31326	0.021859717
97	0xbe46f52d	-0.19429465
98	0x3df03ce6	0.117303655
99	0x3db645e1	0.08900047
100	0xbc8831b6	-0.016625267
101	0xbd3c221f	-0.045930978
102	0x3d3a3920	0.045464635
103	0x3cc72721	0.02431065
104	0xbc5cdc57	-0.0134802675
105	0x3d177e85	0.036985893
106	0xbb3346af	-0.0027355363
107	0x3da532b8	0.080663145
108	0x3d9fc364	0.0780094
109	0xbddeee51	-0.10885299
110	0xbd84f044	-0.064911395
111	0xbc911504	-0.017710216
112	0xbe0ffb78	-0.14060771
113	0x3cfb9238	0.030709371
114	0xbd890093	-0.06689563
115	0xbcec8d43	-0.028875953
116	0xbdc7eae7	-0.09761601
117	0xbcb7ca18	-0.022435233
118	0xbc93f4aa	-0.018061
119	0xbc5eb8bf	-0.013593852
120	0x3e26fef9	0.16308202
121	0x3d3f0de9	0.046644125
122	0x3d2b7a05	0.041864414
123	0x3b7ff39f	0.0039055122
124	0x3dcd9d30	0.10039747
125	0x3cf8d1f3	0.03037355
126	0x3b05eb85	0.002043457
127	0xbde18e62	-0.110134855
128	0xbca81de3	-0.020522064
129	0x3d3ad133	0.045609664
130	0xbde37c7d	-0.11107729
131	0xbccfc031	-0.025360199
132	0xbdedc7f0	-0.11610401
133	0xbdc656f8	-0.09684557
134	0x3d2e76c6	0.04259374
135	0x3bb2d3f0	0.005457394
136	0x3c79b125	0.015239988
137	0xbbbe2ea4	-0.0058039
138	0x3e0a13f2	0.13484171
139	0xbdab86f5	-0.083753504
140	0xbd8827f4	-0.066482455
141	0xbdeff0d1	-0.11715854
142	0xbe0f2522	-0.13979009
143	0x3d6f3526	0.058400296
144	0x3d5db98c	0.05413203
145	0xbe0b2a5b	-0.13590376
146	0xbd8cca44	-0.068745166
147	0x3db8ecf2	0.09029569
148	0xbe139d24	-0.14415413
149	0xbd9f318b	-0.077731214
150	0xbe24f31f	-0.16108368
151	0xbdbce15e	-0.09222673
152	0xbd8177e8	-0.063216984
153	0x3d580b0e	0.052744918
154	0xbd82a655	-0.063793816
155	0xbca0a6ec	-0.019610845
156	0xbdb03926	-0.0860465
157	0xbe75d35d	-0.2400641
158	0x3de6b53e	0.11265038
159	0x3c637bd8	0.013884507
160	0xbddd496c	-0.1080502
161	0xbdd2bd10	-0.10289967
162	0xbd4907d9	-0.04907975
163	0x3d1da15c	0.038483962
164	0xbd518d84	-0.05116035
165	0xbcc10911	-0.023563894
166	0xbd405320	-0.046954274
167	0x3d7c47b0	0.061591804
168	0x3d2f26d6	0.042761646
169	0x3dddf5a1	0.108378656
170	0xbd572ba7	-0.052531864
171	0x3d9c7132	0.07638778
172	0x3b31d0ea	0.002713258
173	0xbdc5c73a	-0.0965714
174	0xbd883a37	-0.066517286
175	0xbdcfcdd2	-0.10146679
176	0x3d3a2ec7	0.045454767
177	0xbc249290	-0.010044709
178	0xbdfcb287	-0.12338739
179	0x3d26fd3d	0.04076885
180	0x3d29dbf3	0.041469526
181	0x3c121551	0.008916215
182	0x3cb3da21	0.021954598
183	0x3d61948b	0.055073302
184	0x3cc11306	0.023568641
185	0xbdd8e4a8	-0.10590488
186	0x3d5ff90c	0.05468087
187	0x3d44f01b	0.048080545
188	0x3dfbfcea	0.12304099
189	0x3d127020	0.035751462
190	0x3e2503f7	0.16114794
191	0x3d6e803d	0.058227766
192	0x3da7a689	0.08186061
193	0x3df68d23	0.120386384
194	0x3e81ccf0	0.25351667
195	0x3a83a090	0.0010042358
196	0x3ca274aa	0.01983102
197	0x3ba0f04b	0.0049114577
198	0xbda0c9d9	-0.078509994
199	0x3d5e6067	0.054291155
200	0x3df78698	0.120862186
201	0x3dfb9188	0.12283617
202	0x3e05c8e4	0.13064915
203	0xbd8c49da	-0.068500236
204	0xbc431048	-0.011905737
205	0xbd8e7803	-0.06956484
206	0x3d2b8bf1	0.041881505
207	0x3d9c6e2d	0.07638202
208	0x3dc79974	0.09746066
209	0x3dfff9a3	0.12498786
210	0x3df245e2	0.11829735
211	0xbc9b818a	-0.018982667
212	0x3b5dfcaa	0.0033872523
213	0xbcd35261	-0.025796117
214	0x3e244f14	0.16045791
215	0x3c8cb483	0.017175918
216	0xbd175e6c	-0.036955282
217	0x3dc4c1b5	0.09607259
218	0x3d6ee94d	0.05832796
219	0x3d60441f	0.054752465
220	0x3dc9c0bd	0.09851215
221	0xbd8a4e97	-0.06753271
222	0x3c555f57	0.013023219
223	0xbd10a254	-0.03531106
224	0x3ddaab20	0.10677171
225	0xbcdd750a	-0.027033348
226	0x3e17170f	0.1475489
227	0xbd84a0f1	-0.0647601
228	0x3dd0f01d	0.10202048
229	0x3d9f9724	0.077925
230	0x3df2d773	0.118575
231	0xbd836bfc	-0.06417081
232	0x3dd39af2	0.10332288
233	0xbd7db903	-0.06194402
234	0xbca6b969	-0.020352082
235	0x3e4e8883	0.20169263
236	0xbe0f6d39	-0.14006509
237	0x3d205efd	0.039153088
238	0x3e1ead04	0.15495688
239	0x3c092123	0.008369717
240	0xbdfdd610	-0.12394345
241	0xbd72ac83	-0.05924655
242	0x3d65e593	0.056127142
243	0xbcc7c93d	-0.02438795
244	0xbd799bf1	-0.060939733
245	0x3df32705	0.11872677
246	0xbd8026f6	-0.06257431
247	0xbe1a2049	-0.15051378
248	0x3e24b9ca	0.16086498
249	0xbd117d3a	-0.035519816
250	0xbe16ff45	-0.14745815
251	0x3dda1b0f	0.10649692
252	0xbd47f355	-0.048816044
253	0xbcc20884	-0.023685701
254	0x3e38af10	0.18035531
255	0xbaa2bbc6	-0.001241558

conv3.bias f4 [20]
0	0x3e1a40c4	0.15063769
1	0x3e3868c8	0.18008721
2	0x3d31a171	0.043366853
3	0x3d65e533	0.056126785
4	0xbcea5bb0	-0.028608173
5	0xbdac9af0	-0.084279895
6	0x3d5be2a1	0.053682927
7	0x3d97b665	0.07407836
8	0x3e19dcfa	0.15025702
9	0x3d4930a1	0.04911864
10	0xbd81f27e	-0.0634508
11	0xbd06c13b	-0.032899123
12	0xbdb0008b	-0.085938536
13	0x3d9bd325	0.07608632
14	0x3e278e47	0.16362868
15	0x3db863fb	0.09003445
16	0x3d970352	0.0737368
17	0x3e06d4c6	0.13167104
18	0xbd39eac1	-0.045389894
19	0xbdcf7c3d	-0.101311184

conv4.weight f4 [20, 20, 3]
0	0x80a81df0	-1.5439103e-38
1	0x80f184d4	-2.2180004e-38
2	0xbd2c96d1	-0.042136017
3	0x01136da1	2.707829e-38
4	0x016418ce	4.1894783e-38
5	0xbd4c09f0	-0.049814165
6	0x80669894	-9.421955e-39
7	0x00809d5d	1.1811395e-38
8	0x3c6b775e	0.014371721
9	0x01371c30	3.3632015e-38
10	0x81605d60	-4.1209296e-38
11	0x3df3122b	0.118687
12	0x8142684a	-3.5706996e-38
13	0x00201d80	2.949318e-39
14	0xbd3d8882	-0.046272762
15	0x8171fdf0	-4.44469e-38
16	0x00da4d84	2.0047946e-38
17	0x3dae5b59	0.08513517
18	0x81067cd0	-2.4701462e-38
19	0x81348ef8	-3.3163354e-38
20	0x3dd4757f	0.10373973
21	0x80bc467f	-1.7290363e-38
22	0x01a14f8a	5.925619e-38
23	0x3d3f0993	0.04663999
24	0x8100ae44	-2.3634916e-38
25	0x00e0b3e3	2.0635682e-38
26	0xbd56f530	-0.052479923
27	0x8129a884	-3.1161302e-38
28	0x80add756	-1.5964789e-38
29	0xbd74ff51	-0.0598138
30	0x80020e81	-1.88874e-40
31	0x01ab0c64	6.283326e-38
32	0xbd4af53a	-0.049550273
33	0x803aee81	-5.412018e-39
34	0x00aab71a	1.5677719e-38
35	0xbc3adaad	-0.011404675
36	0x004c34ef	6.998487e-39
37	0x017bc7b8	4.624471e-38
38	0x3db6be38	0.08923
39	0x007417f4	1.066151e-38
40	0x81936932	-5.415022e-38
41	0x3d442f9d	0.04789697
42	0x813d2838	-3.4742673e-38
43	0x01a8e92c	6.204804e-38
44	0xbd9fd24b	-0.07803782
45	0x809bcdb4	-1.4308294e-38
46	0x00e68d5e	2.1172877e-38
47	0xbd05904d	-0.03260832
48	0x8169fb97	-4.2975848e-38
49	0x0049afbc	6.767033e-39
50	0xbdc1e5f5	-0.09467689
51	0x81414583	-3.5498374e-38
52	0x00249db1	3.362647e-39
53	0xbdb3e682	-0.087842
54	0x812d5dd0	-3.184239e-38
55	0x01bbbb96	6.8962124e-38
56	0x3dec3fb2	0.115355864
57	0x015bc8f8	4.0368135e-38
58	0x0100c6ce	2.3652522e-38
59	0x3cbfa57d	0.02339434
60	0xbb547f9a	-0.003242469
61	0xbbaa374a	-0.0051945793
62	0x3d5ee3a8	0.05441633
63	0xbd80f3b2	-0.06296481
64	0x3d5efc55	0.05443986
65	0x3cffd2f7	0.031228526
66	0xbd48ca82	-0.04902125
67	0xbd51c46c	-0.051212713
68	0x3da4c88f	0.08046066
69	0xbd3c81aa	-0.046022095
70	0xbcaaada0	-0.020834744
71	0x3cc5af34	0.024131395
72	0xbc80e31f	-0.0157333
73	0xbe10ae7d	-0.14129062
74	0x3db9b49f	0.09067654
75	0xbd110481	-0.035404686
76	0xbde167ba	-0.110061124
77	0x3d2bc95f	0.04194009
78	0xbe2e9abc	-0.17051214
79	0xbce39ed2	-0.027785692
80	0xbd0e0837	-0.034675803
81	0x3aa5e20c	0.0012655868
82	0xbe23b371	-0.1598642
83	0x3df2322d	0.118259765
84	0xbdac2bb4	-0.08406773
85	0x3dd39eb7	0.10333007
86	0x3ce3e3f2	0.027818654
87	0xbd77434b	-0.06036691
88	0x3d76d2cc	0.060259625
89	0x3df58b24	0.119894296
90	0xbdd71218	-0.10501498
91	0xbcc028e6	-0.023457002
92	0xbd85afce	-0.06527673
93	0x3d19ec75	0.03757902
94	0xbd4a8a40	-0.04944825
95	0x3c96e9a4	0.018421955
96	0x3da814c6	0.08207087
97	0xbd85d184	-0.065341026
98	0x3e11bdef	0.1423261
99	0xbdcd9cf0	-0.10039699
100	0x3cebd922	0.02879006
101	0x3c7f427e	0.015579818
102	0xbdb9addf	-0.090663664
103	0x3da9a3bd	0.08283184
104	0xbd745cf1	-0.05965895
105	0x3d513507	0.05107596
106	0xbe0a1bdb	-0.13487189
107	0xbde634ae	-0.112405166
108	0xbd826e45	-0.063686885
109	0x3cc19d6b	0.023634633
110	0xbd9029a3	-0.070391916
111	0xbb11b604	-0.0022233734
112	0x3d11aaaf	0.035563167
113	0xbdab7b36	-0.0837311
114	0xbcc30745	-0.023807177
115	0x3bcce6e0	0.0062531084
116	0xbd943d11	-0.0723821
117	0xbd18a205	-0.03726389
118	0xbd4c6166	-0.049897574
119	0xbc86cb45	-0.016454348
120	0xbd9957e5	-0.07487468
121	0x3e26cdff	0.16289519
122	0xbb735a4a	-0.0037132674
123	0xbd75ea74	-0.060038045
124	0xbd9b13f5	-0.07572166
125	0x3c97d042	0.018531922
126	0x3c60a8bd	0.013712105
127	0xbdafb3e5	-0.08579234
128	0xbdb62c6e	-0.08895193
129	0xbc91dfdf	-0.017806945
130	0x3dceba3b	0.100941144
131	0x3d8cd7da	0.06877108
132	0x3de6ff14	0.11279121
133	0xbe1d9f1c	-0.15392727
134	0xbe265bef	-0.16246007
135	0xbd0e63a6	-0.034763
136	0xbd9821f2	-0.074283496
137	0xbc460adb	-0.012087549
138	0xbd151771	-0.03639931
139	0x3e2868b7	0.16446196
140	0xbdb99044	-0.090607196
141	0xbe07dbb4	-0.13267404
142	0x3acb6aca	0.0015519497
143	0xbdc25762	-0.09489323
144	0xbdf72ec8	-0.1206947
145	0x3d1438aa	0.03618685
146	0x3e016f0f	0.12640022
147	0xbd7068cf	-0.058693703
148	0x3dc3230f	0.09528171
149	0x3dcb1e9d	0.099179484
150	0x3cb622bd	0.022233361
151	0xbdf922a2	-0.12164809
152	0x3dcf0b8b	0.101096235
153	0xbd8388ac	-0.064225525
154	0xbd4cd0a3	-0.05000366
155	0xbd955917	-0.07292383
156	0xbdf6a4eb	-0.12043174
157	0x3dd35d79	0.10320563
158	0xbca64952	-0.020298634
159	0x3d3e16a8	0.046408325
160	0xbd9f5799	-0.0778038
161	0xbdba78b1	-0.09105051
162	0x3c8384cb	0.016054532
163	0x3e1f849f	0.15577935
164	0xbd8a226a	-0.06744845
165	0x3d0d759c	0.03453599
166	0xbe16a6c3	-0.14712052
167	0x3c2722d0	0.010201171
168	0xbe026e34	-0.12737352
169	0x3d277209	0.040880237
170	0x3df260a9	0.11834843
171	0xbd33f1f9	-0.043931935
172	0x3dcffb0d	0.10155306
173	0xbda95480	-0.0826807
174	0xbd4bf318	-0.04979238
175	0xbe13e0ef	-0.14441274
176	0xbda1e8c4	-0.07905725
177	0xbe1203d7	-0.14259277
178	0xbe0469e7	-0.12931024
179	0xbd301945	-0.04299285
180	0xbd10d78f	-0.035361823
181	0xbb276968	-0.0025545005
182	0xb9b99807	-0.0003539922
183	0x3dd4b98e	0.10386954
184	0x3c5558f6	0.013021698
185	0x3d4dce22	0.05024541
186	0xbd6b4edd	-0.057448257
187	0x3cf559e6	0.029950093
188	0x3d27291d	0.040810693
189	0x3d239ff3	0.03994746
190	0x3d13d888	0.036095172
191	0xbcda5e14	-0.026656188
192	0xbe0d6de2	-0.13811448
193	0x3da7feac	0.08202872
194	0xb9ae7c68	-0.00033280556
195	0x3d451035	0.04811116
196	0x3d69aa6b	0.05704729
197	0xb99c6c96	-0.00029835541
198	0x3de44478	0.11145872
199	0x3dab759c	0.083720416
200	0x3cb8d5f6	0.022562962
201	0x3c65fbf3	0.01403712
202	0x3bf743b4	0.0075459126
203	0xbd162020	-0.03665173
204	0xbd6cc908	-0.057808906
205	0x3d7e402f	0.06207293
206	0x3d14d67a	0.036337353
207	0x3e067f6f	0.1313455
208	0x3d68dcd0	0.05685121
209	0x3c7c07b3	0.015382695
210	0xbc59bd2d	-0.013289732
211	0xbd53911a	-0.05165205
212	0xb9b187ce	-0.00033861253
213	0xbd9b7336	-0.07590334
214	0x3c94c7e8	0.018161729
215	0xbd780ace	-0.06055718
216	0xbd0bd99e	-0.034143083
217	0x3dcb4bd9	0.09926576
218	0xbda7e5e8	-0.08198148
219	0x3d123ea0	0.035704255
220	0xbd160f89	-0.03663591
221	0x3cc78505	0.02435542
222	0xbc43dce5	-0.011954521
223	0xbdd0f3ec	-0.102027744
224	0x3d1ee9a1	0.038797025
225	0xbe1f7ba5	-0.1557451
226	0x3d8f2575	0.06989566
227	0x3d065523	0.032796036
228	0xba530af8	-0.00080506457
229	0x38f7ba9a	0.00011812635
230	0xbc57e28e	-0.013176573
231	0x3c947cff	0.018126009
232	0x3d550770	0.052009046
233	0xbd52c823	-0.051460396
234	0xbba7fe08	-0.0051267184
235	0x3d1ace37	0.037794318
236	0x3d04f80d	0.032463122
237	0x3daca3e5	0.08429698
238	0xbd8836c8	-0.06651074
239	0xbc343d89	-0.011000999
240	0xbdb74e01	-0.08950425
241	0x3a86eba8	0.001029362
242	0xbe0605f0	-0.13088202
243	0x3d4ee6fb	0.05051325
244	0xbd927d90	-0.071528554
245	0xbd33327d	-0.04374932
246	0x3cf2599c	0.029583745
247	0xbd77eb13	-0.06052692
248	0xbdf8f9b6	-0.121570036
249	0xbd920ce0	-0.07131362
250	0xbd9c8034	-0.0764164
251	0x3c70c3a2	0.01469508
252	0xbd9fe3af	-0.07807099
253	0x3d47a9d6	0.048745953
254	0xbc9d963f	-0.019236682
255	0xbdb39608	-0.087688506

conv4.bias f4 [20]
0	0xbe026365	-0.12733229
1	0x3c578bb5	0.013155867
2	0x3e0e793b	0.13913433
3	0xbe026491	-0.12733676
4	0x3d977654	0.07395616
5	0xbd8dd1f1	-0.06924809
6	0x3e802b49	0.25033024
7	0xbccc5448	-0.024942532
8	0xbd9d8e6a	-0.07693179
9	0x3d9947e4	0.07484415
10	0xbdbc276d	-0.09187207
11	0xbddb9322	-0.10721423
12	0xbdb0079b	-0.08595201
13	0xbd374866	-0.04474678
14	0x3ce2e29c	0.027695946
15	0x3d0421bd	0.032258738
16	0x3d2ae56d	0.041722704
17	0xbad3c4ad	-0.0016156636
18	0x3dd5f93d	0.10447929
19	0x3d8a35ac	0.06748518

conv5.weight f4 [1, 20, 3]
0	0xbe0b7c86	-0.1362172
1	0xbd1c6be6	-0.038188837
2	0xbd3dc3f5	-0.046329457
3	0xbdcaa683	-0.09895041
4	0x3d6a2634	0.05716534
5	0x3d9f9ce1	0.07793594
6	0xbdea15bb	-0.11429926
7	0x3db90232	0.09033622
8	0xbde40bf5	-0.11135093
9	0x3da19a17	0.078907184
10	0xbda941c0	-0.08264494
11	0xbe18c545	-0.14919002
12	0x3e0266c9	0.12734522
13	0xbe2746bf	-0.16335581
14	0x3da27828	0.07933074
15	0xbdce6ead	-0.100797035
16	0x3cb8ffe9	0.022582965
17	0x3d6b62e8	0.05746737
18	0x3e079443	0.13240151
19	0xbdfe25f9	-0.124095865
20	0x3d8786d8	0.06617516
21	0xbcbf8b70	-0.023381919
22	0xbc7f4a7c	-0.015581723
23	0xbdb43ef8	-0.08801073
24	0xbdae8b56	-0.0852267
25	0x3dd12a1b	0.10213109
26	0xbd2d7e82	-0.042356975
27	0x3dd2ea06	0.10298543
28	0xbd5344d5	-0.051579315
29	0x3d3e1a7b	0.046411972
30	0x3e0e10d5	0.13873608
31	0x3c4aae3e	0.012370644
32	0x3dab84c2	0.08374931
33	0xbe01ce73	-0.1267641
34	0xbd9b4b78	-0.07582754
35	0x3ccb5fea	0.024826009
36	0x3dbe4964	0.09291342
37	0xbc5aef7c	-0.013362762
38	0xbe03b177	-0.12860666
39	0xbc4350e7	-0.011921144
40	0xbdb75a31	-0.089527495
41	0xbc6f0e35	-0.01459079
42	0xbdeca44f	-0.11554777
43	0xbdc9bed6	-0.09850852
44	0xbded1aac	-0.11577353
45	0xbdbe8d76	-0.09304325
46	0xbda2737d	-0.07932184
47	0xbe21b6c8	-0.15792382
48	0xbdc725c6	-0.097240016
49	0x3da26521	0.07929445
50	0x3d8ad34e	0.067785844
51	0xbde24dbc	-0.11049983
52	0xbdfa9ed5	-0.12237326
53	0xbd3ac5f5	-0.045598943
54	0x3dfe4b37	0.1241669
55	0x3dc895e7	0.097942166
56	0xbd27a8bb	-0.0409324
57	0xbd1b265e	-0.037878387
58	0xbdc8739f	-0.09787678
59	0xbde24e41	-0.11050082

fc1.weight f4 [1024, 2]
0	0x3d7819d2	0.0605715
1	0xbd09f119	-0.033677194
2	0x06096c30	2.584632e-35
3	0xa88c05a3	-1.5545567e-14
4	0x26062bb8	4.654984e-16
5	0xa7b63440	-5.0571797e-15
6	0xbd69d9c2	-0.057092436
7	0xbe7ff91b	-0.2499737
8	0xbbfc85c8	-0.0077063777
9	0xbe8b2470	-0.27176237
10	0x3ddd97bb	0.10819956
11	0xbeaaca46	-0.33357447
12	0xbe91932b	-0.28432593
13	0xbed32cb2	-0.41245037
14	0xbe411efd	-0.18859477
15	0xbeea31f8	-0.45741248
16	0x3e8756b9	0.26433352
17	0xbe2b3f87	-0.16723453
18	0xba9a54d5	-0.001177455
19	0x3f2178a6	0.6307472
20	0x37d0628b	2.484142e-05
21	0xb73a2a43	-1.1096304e-05
22	0xbe4877e6	-0.19576988
23	0xbdfdfcc5	-0.124017276
24	0xbd7e411e	-0.06207382
25	0xbf03c5f2	-0.51473916
26	0x3e79a854	0.24380618
27	0x3ed49a1f	0.41523835
28	0xbec460a4	-0.3835498
29	0x3eb94f43	0.36193284
30	0x80e8cdd3	-2.1379671e-38
31	0xa3ec3d42	-2.5613115e-17
32	0x3ec5eaf5	0.3865582
33	0xbd3f51bc	-0.046708807
34	0x3e95c292	0.29250008
35	0x3ede16d9	0.43376806
36	0xbef8ba8c	-0.48579824
37	0x3dfb6f88	0.12277132
38	0x3ebef6c5	0.37297645
39	0x3e90d1bf	0.28285024
40	0x81b9b4b6	-6.8217575e-38
41	0xb112fadb	-2.138839e-09
42	0x3e8f3c64	0.27975762
43	0x3e23f4df	0.1601138
44	0xbd3cc455	-0.046085674
45	0x3eff7209	0.4989169
46	0x2ff5317a	4.4600396e-10
47	0x36c28895	5.797551e-06
48	0x3b4779a9	0.0030437505
49	0x3d95ab2b	0.07308038
50	0x308fa29f	1.0450839e-09
51	0x37124d63	8.720296e-06
52	0x3e8d266e	0.27568382
53	0x3e909d86	0.2824518
54	0x3ca30704	0.019900806
55	0x3e10b20c	0.1413042
56	0x3f0014f9	0.50032
57	0x3e85c3cf	0.26125953
58	0xbc89ace0	-0.016806066
59	0xbe4d065a	-0.20021954
60	0xbd6915bb	-0.05690549
61	0xbee7ba33	-0.45259246
62	0xbece3fb8	-0.4028299
63	0x3ecdecda	0.40219766
64	0x3ed20b73	0.4102436
65	0xbe6d884d	-0.23196526
66	0x371a9e4e	9.2159735e-06
67	0xb8161af4	-3.578789e-05
68	0xbeaf4af3	-0.3423687
69	0xbdf4d6c4	-0.11955026
70	0x8688b562	-5.142403e-35
71	0xb01a18b5	-5.6059984e-10
72	0x3e0a9992	0.13535145
73	0x3ebfbca1	0.374486
74	0xbd87735e	-0.066138014
75	0x3d974284	0.07385734
76	0xbcf0dbf8	-0.029401764
77	0xbcb3bd04	-0.021940716
78	0x3eac48e1	0.33649352
79	0x3ef603b8	0.48049712
80	0x819710d8	-5.549281e-38
81	0x0e067edf	1.6577861e-30
82	0x9a8c7792	-5.809582e-23
83	0x2bd5add3	1.5182806e-12
84	0xb6251fc4	-2.4605406e-06
85	0xb4aa84a1	-3.1761468e-07
86	0xbec5abd0	-0.38607645
87	0x3f05257a	0.5201031
88	0x3e29fede	0.1660113
89	0x3f16dc41	0.5892983
90	0x38e52072	0.00010925614
91	0xb7ffbff1	-3.0487749e-05
92	0x3ed76e43	0.4207631
93	0xbef77708	-0.48333
94	0x8a81a696	-1.2484911e-32
95	0xa757596a	-2.9885715e-15
96	0xa6b9f4b4	-1.2903281e-15
97	0x1033ce71	3.5460562e-29
98	0xbee3d6f8	-0.44499946
99	0x3f1adc9b	0.6049287
100	0xbd8e4c9c	-0.06948206
101	0x3e3ef14b	0.18646733
102	0x3e274b6b	0.16337363
103	0xbd57294b	-0.052529614
104	0xbe563f89	-0.20922674
105	0xbf04a338	-0.5181155
106	0x3ec45d68	0.38352513
107	0xbd3cf559	-0.04613242
108	0xbd5493b4	-0.051898673
109	0xbdc20643	-0.094738506
110	0x2a4f5196	1.8413599e-13
111	0xb295d997	-1.7444831e-08
112	0xbedd7f87	-0.43261358
113	0xbe8b4e9f	-0.2720842
114	0x3d8645db	0.065562926
115	0xbc5f4b8b	-0.013628851
116	0xbd51ac7c	-0.051189885
117	0x3f0e5fc3	0.5561487
118	0x3d25bccd	0.040463258
119	0x3eb17ad2	0.34664017
120	0xbd92fa10	-0.07176602
121	0x3ec8a13a	0.39185506
122	0xbe49e191	-0.19714953
123	0xbbc3aedb	-0.005971772
124	0x2ddad0b6	2.4876417e-11
125	0x368fa143	4.2805054e-06
126	0x3c9b85c7	0.018984688
127	0x3f08df39	0.5346561
128	0x3e4815b5	0.1953953
129	0x3dbb55af	0.09147202
130	0x81a55255	-6.072957e-38
131	0x0411ad44	1.7124228e-36
132	0x3561b4c8	8.4082103e-07
133	0xa388dc49	-1.4838444e-17
134	0x3e502073	0.20324878
135	0x3da272fb	0.07932087
136	0x3dcd9839	0.100388
137	0xbd3268d6	-0.04355701
138	0xbe09306b	-0.13397376
139	0xbefbc07e	-0.49170297
140	0x00c4cf1a	1.8074051e-38
141	0xa60f67c6	-4.975373e-16
142	0x3e015b9c	0.12632602
143	0xbe5ee62c	-0.21767491
144	0x3d40e1a7	0.0470902
145	0xbe6b8a65	-0.23002012
146	0x3ec755ba	0.38932592
147	0xbea7eb24	-0.32796586
148	0xbe301d97	-0.17198788
149	0xbe9182f6	-0.28420228
150	0xbf044c40	-0.5167885
151	0x3c40902f	0.011753126
152	0x3ea2fce6	0.3183357
153	0x3e1a8f3e	0.15093705
154	0xb734e96a	-1.0783182e-05
155	0xb8223f26	-3.868262e-05
156	0x3e22bb4b	0.15891759
157	0x3e98a11a	0.2981041
158	0xbe9f4113	-0.31104335
159	0xbf038c91	-0.5138636
160	0xbddba13b	-0.10724112
161	0x3ea9a4d3	0.33133563
162	0x3e7e6daa	0.24846521
163	0x3db95c4f	0.090508096
164	0xbf071df8	-0.52780104
165	0x3ecc937e	0.39956278
166	0xbe4c876a	-0.19973531
167	0xbf2e5259	-0.680944
168	0x3e99e1ca	0.30055076
169	0xbce9b64e	-0.028529312
170	0xbe1f6eac	-0.15569562
171	0x3e6362ca	0.22205654
172	0xb8f14727	-0.00011505029
173	0xb8ad12e1	-8.252799e-05
174	0xbeca34b8	-0.39493346
175	0x3dd9bc96	0.10631673
176	0x3d958fcc	0.07302818
177	0xbe6df60e	-0.23238394
178	0x818c9eaa	-5.165555e-38
179	0x26d86fbb	1.5018295e-15
180	0xbd1c0c73	-0.03809781
181	0xbde7b605	-0.11314014
182	0xbe8ac66b	-0.27104506
183	0x3e9785d8	0.29594302
184	0x3da2c5e2	0.079478994
185	0xbcaa8b8d	-0.020818496
186	0x3d65d18f	0.056108054
187	0x3f283cdc	0.65717864
188	0xbd86f282	-0.065892234
189	0x3e685216	0.22687563
190	0xbee37bf4	-0.44430506
191	0xbed3e304	-0.41384137
192	0x3d314b4a	0.043284692
193	0xbc558661	-0.013032527
194	0x3f15554a	0.58333266
195	0xbde878ab	-0.113511406
196	0xab89bdd6	-9.787126e-13
197	0xb57eea55	-9.496337e-07
198	0x2f5c4a37	2.003525e-10
199	0x35e1bac3	1.6818161e-06
200	0x3e2b216d	0.1671197
201	0x3cfa29e8	0.03053756
202	0x3ef330e5	0.4749824
203	0x3e832cf8	0.25620246
204	0x37eacd4f	2.7990578e-05
205	0xb81bf490	-3.7182646e-05
206	0xbdb5d5ba	-0.08878656
207	0xbe835417	-0.25650093
208	0x3ea50dac	0.32236993
209	0xbec9e105	-0.3942949
210	0x3e6ed4ff	0.23323439
211	0x3bb6017a	0.0055543752
212	0xbe16a932	-0.1471298
213	0xbe0541ae	-0.13013336
214	0x3d16e002	0.036834724
215	0x3f2e58d0	0.6810427
216	0x3732f896	1.0667505e-05
217	0x376fb811	1.4288366e-05
218	0xbe766381	-0.24061395
219	0x3e8fd0c0	0.2808895
220	0x36ac9428	5.143247e-06
221	0xb72502f9	-9.8354585e-06
222	0xb6f66153	-7.3427013e-06
223	0xb6b2e105	-5.331009e-06
224	0x2e529c90	4.7887527e-11
225	0x36859203	3.980707e-06
226	0xb476f43b	-2.2999386e-07
227	0xb64ab16c	-3.0203619e-06
228	0x8098fd92	-1.404996e-38
229	0x1fca167a	8.558751e-20
230	0x81af45a9	-6.4384805e-38
231	0x21a569a8	1.1208802e-18
232	0x3d4774de	0.048695438
233	0xbd1cf8b3	-0.038323116
234	0x29dd278d	9.8212325e-14
235	0x30005d88	4.6699045e-10
236	0xbd238959	-0.039925907
237	0xbd45e17a	-0.048310734
238	0x38c71ac9	9.4940486e-05
239	0xb95adf45	-0.00020873274
240	0x17577d1d	6.962816e-25
241	0x29d0f105	9.278866e-14
242	0x3da4962e	0.08036457
243	0xbdcba0a7	-0.099427514
244	0x3e263e32	0.16234663
245	0x3d3d0507	0.046147373
246	0xb89b456b	-7.403906e-05
247	0xb606d1a5	-2.0089585e-06
248	0x3ee06cf4	0.43833125
249	0xbf16cbca	-0.5890471
250	0x3ea6d6a0	0.3258562
251	0x3ec6873a	0.38775045
252	0xbe64c384	-0.22340208
253	0x3ee874a9	0.45401505
254	0x3d7ccf11	0.06172091
255	0x3f12a689	0.5728536

fc1.bias f4 [1024]
0	0x3b718e5c	0.0036858534
1	0xaf141ca8	-1.3470702e-10
2	0xa7aaa4ff	-4.7363368e-15
3	0x3d98e450	0.07465422
4	0x3ece6e13	0.40318355
5	0x3e36abca	0.1783897
6	0x3e957336	0.2918946
7	0x3eb38509	0.35062435
8	0x3e658e3a	0.22417536
9	0x3deb0a4c	0.11476573
10	0xb8544b9b	-5.0615152e-05
11	0x3ec2a9b3	0.38020095
12	0x3e75b616	0.23995242
13	0xbe871d18	-0.26389384
14	0x3e447dfd	0.19188686
15	0xad4ce37a	-1.1646567e-11
16	0xbe30bc38	-0.172593
17	0x3ef8a4df	0.48563287
18	0x3e8df448	0.27725434
19	0xbee65004	-0.44982922
20	0xb29af0bc	-1.8037433e-08
21	0xbe99d2b1	-0.30043557
22	0x3dcb3762	0.09922673
23	0xb82c2174	-4.103915e-05
24	0xbd3c4a5c	-0.045969352
25	0xb858a885	-5.165536e-05
26	0x3edd85af	0.43266055
27	0x3e6e5efb	0.2327842
28	0xbdc3c74b	-0.095594965
29	0x3ddae42a	0.1068805
30	0x3eed29bc	0.46320903
31	0x3dbad9cf	0.09123575
32	0x3e9fe421	0.31228736
33	0xb8c3235a	-9.304909e-05
34	0x3ed8e89c	0.42364967
35	0xb5d23d29	-1.5664019e-06
36	0xbe38d07c	-0.1804828
37	0x3dd7e63f	0.10541963
38	0x3ce161a2	0.027512375
39	0x3e46128f	0.19343017
40	0xa6001137	-4.443225e-16
41	0xb0b0f49a	-1.2875205e-09
42	0xb70d0454	-8.405263e-06
43	0x3c91f146	0.017815243
44	0xbe9122ce	-0.28346866
45	0xb8e9915e	-0.000111373825
46	0x3ebb6b8d	0.36605492
47	0xad9e8cf1	-1.8025111e-11
48	0xae357b67	-4.126424e-11
49	0xbdd0de31	-0.1019863
50	0xbe0d2eab	-0.13787334
51	0x3f03fdd4	0.51559186
52	0x3eaa3baf	0.3324866
53	0x3eded011	0.43518117
54	0x3d306727	0.043067124
55	0xb4e3a920	-4.24051e-07
56	0x3efea105	0.49732223
57	0xbd17aa36	-0.03702756
58	0xbe4a68bf	-0.1976652
59	0xbe731b1b	-0.23740809
60	0xbe7e7018	-0.24847448
61	0x3d7b32d5	0.061327774
62	0xb80bf90e	-3.3372133e-05
63	0xbe50ac44	-0.20378214
64	0x3e4753f7	0.19465624
65	0xa42f4ae8	-3.8010524e-17
66	0xb59a4934	-1.1495199e-06
67	0xbd51ae39	-0.051191542
68	0xbc0e0cbf	-0.008670031
69	0x3ebe6c11	0.37191823
70	0xb0374610	-6.6674577e-10
71	0x3d785b70	0.060634077
72	0x3e3cf012	0.18450955
73	0x3f155305	0.583298
74	0x3edba8a7	0.4290211
75	0x3eaa4362	0.33254534
76	0xbc30a77a	-0.010782117
77	0xb77f70de	-1.5225463e-05
78	0x3ca2160e	0.019785907
79	0x3ef97567	0.48722383
80	0xbe7b4edf	-0.24541806
81	0x3ec1abf0	0.3782649
82	0x3da0b9d9	0.078479476
83	0x3f279304	0.65458703
84	0xbe0b77dc	-0.13619941
85	0x3da61cef	0.081109874
86	0xb8e5cf54	-0.00010958189
87	0x3efc3aa4	0.4926349
88	0x3e059aef	0.13047384
89	0xac5824c0	-3.0715847e-12
90	0x3ec58e97	0.3858535
91	0xbd87042e	-0.06592594
92	0xbc8ff806	-0.017574321
93	0xbe8e3c7c	-0.2778052
94	0x3e845702	0.25847632
95	0x3f0f5fc7	0.5600552
96	0xbc563be1	-0.0130758
97	0xbe706a08	-0.23477948
98	0xb6c084b5	-5.737495e-06
99	0xb7b7f006	-2.192707e-05
100	0xbe04b2da	-0.12958851
101	0x3e9e7856	0.30951184
102	0xb8efffc0	-0.00011444045
103	0x3dc5eee6	0.09664707
104	0x3e5e0e69	0.21685185
105	0xbe0cf784	-0.13766295
106	0x3e15142e	0.14558479
107	0xbee10079	-0.43945673
108	0xb82d8d88	-4.1378225e-05
109	0x3f04fabb	0.51945084
110	0xb7bcea76	-2.2520526e-05
111	0xb76ac0ba	-1.39923595e-05
112	0xb7ffd1de	-3.0496096e-05
113	0xb6dc32be	-6.562418e-06
114	0xa70c6ca0	-1.9487789e-15
115	0xa78db545	-3.9331894e-15
116	0xbbed23df	-0.007236942
117	0xb2bb2b7e	-2.1789443e-08
118	0x3cf178c4	0.02947653
119	0xb8178bf7	-3.6131558e-05
120	0xaddd622d	-2.516839e-11
121	0x3d92e6f7	0.07172959
122	0xbe093b84	-0.1340161
123	0xb81abcb3	-3.68922e-05
124	0x3ea7f207	0.3280184
125	0xbe952e41	-0.2913685
126	0x3e8dc1a7	0.27686808
127	0x3e3404c6	0.17579946
128	0xb753f786	-1.2634211e-05
129	0x3d17eba3	0.037089955
130	0xbc090cc1	-0.008364857
131	0xb184d29b	-3.8656487e-09
132	0xb96e82b2	-0.00022746137
133	0xada8f9db	-1.9210347e-11
134	0xaf764b10	-2.2400237e-10
135	0xa649dab6	-7.003229e-16
136	0xba8c3d42	-0.0010699409
137	0x3ee8ac03	0.45443735
138	0xbe578238	-0.21045768
139	0xbe8f7511	-0.28019002
140	0x3e3296ac	0.1744029
141	0x3d9dfe9a	0.07714577
142	0xbc69f5f9	-0.014279836
143	0x3df33924	0.11876133
144	0xbe125de2	-0.14293626
145	0xb47e51df	-2.3685378e-07
146	0x3eafa348	0.3430426
147	0x3e47a927	0.1949812
148	0xb07f0a59	-9.2783164e-10
149	0xb75ff3d0	-1.3348603e-05
150	0x3f0776e0	0.52915764
151	0x3e2d2c22	0.16911367
152	0xbdf7d52f	-0.121012084
153	0x390edf53	0.0001362537
154	0x3d87ea02	0.0663643
155	0xbf18fcd1	-0.5976077
156	0x3d1a3e92	0.037657328
157	0x3ece47e8	0.40289235
158	0xb3916b2a	-6.771582e-08
159	0xb4dcd6df	-4.1134533e-07
160	0x3ea6a829	0.3255017
161	0x3ec782c5	0.38966957
162	0xbcacc76d	-0.021091187
163	0x3e7bbdec	0.24584168
164	0x3ed8e497	0.423619
165	0xbd6ee816	-0.058326803
166	0xbeac2ab4	-0.3362633
167	0xbd821ce0	-0.06353164
168	0x3e86b94a	0.2631324
169	0x3ed08877	0.40729114
170	0xb459de52	-2.029058e-07
171	0xbe48bc46	-0.1960307
172	0xbe65b5a5	-0.22432573
173	0x3d46d3b1	0.04854173
174	0x3f130086	0.57422674
175	0xbdcf7881	-0.10130406
176	0xbe7dad9a	-0.24773255
177	0x3e8a294e	0.26984638
178	0xbe3ee1da	-0.18640843
179	0xab258bfd	-5.881405e-13
180	0x3e4d95a7	0.20076619
181	0x3e3a8994	0.18216544
182	0xbe2db7aa	-0.16964594
183	0xbe844eb5	-0.258413
184	0x3e6f2e96	0.23357615
185	0x3da5dce7	0.080987744
186	0xb77dfd7a	-1.5138992e-05
187	0x3ed62641	0.4182606
188	0xbec5a3c1	-0.38601497
189	0x3ea8ee3f	0.32994267
190	0x3de59082	0.11209203
191	0xbc819739	-0.015819179
192	0x3f1d386b	0.6141421
193	0x3f1ed3bd	0.62041837
194	0xa547cefb	-1.7330626e-16
195	0x3e2b2514	0.16713363
196	0x3ea0d80b	0.31414828
197	0xbe12c68c	-0.14333552
198	0x3ebddad2	0.3708101
199	0xbee3a5be	-0.4446239
200	0x9f4577d9	-4.1815508e-20
201	0xafd73c32	-3.9151044e-10
202	0xa50bdac9	-1.2130455e-16
203	0x39647223	0.00021786294
204	0xbdc4077b	-0.09571739
205	0x9e9e758e	-1.677752e-20
206	0xb858a23e	-5.1649513e-05
207	0xbecd7d88	-0.40134835
208	0x3dbb1a27	0.091358475
209	0xbe26b9f5	-0.16281874
210	0x3e28c8e5	0.16482885
211	0x3e868b0c	0.2627796
212	0x3d3edc13	0.046596598
213	0x3e58e8bf	0.21182536
214	0x3e150a2d	0.14554663
215	0xb91d4c9c	-0.00015001226
216	0xae197e36	-3.490027e-11
217	0x3eaf3b0d	0.3422474
218	0x3e9f6a36	0.3113572
219	0xba4f18aa	-0.00079000986
220	0x3deb70e0	0.114961386
221	0x3ef6b12a	0.4818204
222	0x3f192ead	0.59836847
223	0x3df631ac	0.12021193
224	0xbb546621	-0.0032409506
225	0xbd90fdb6	-0.070796415
226	0xb6e07725	-6.6895905e-06
227	0xb7bec9a8	-2.2743669e-05
228	0x3e9a3559	0.30118826
229	0x3eb7f8a0	0.35931873
230	0x3df03835	0.11729471
231	0xbe15f332	-0.14643553
232	0xbd9cc236	-0.0765423
233	0x3f10894d	0.56459504
234	0xaf364ea1	-1.6580738e-10
235	0x3ed444e1	0.414588
236	0xb82fb1cf	-4.188885e-05
237	0xbebda67f	-0.3704109
238	0x3e528539	0.20558633
239	0xbe776e30	-0.24163127
240	0x3ee2cb3b	0.44295678
241	0x3bb7782f	0.005599044
242	0x3ebeebf3	0.3728939
243	0xb70b7a71	-8.313554e-06
244	0x9dd26807	-5.56941e-21
245	0xbe5eeca7	-0.21769963
246	0xbe07237e	-0.13197133
247	0x3e84f3b4	0.2596718
248	0xb826bec4	-3.975515e-05
249	0xbdf2f939	-0.11863942
250	0xbd186f89	-0.037215743
251	0xbdb82182	-0.08990766
252	0xad307977	-1.0031412e-11
253	0xbe3eaa01	-0.18619539
254	0x3de6454d	0.11243687
255	0x3d8f2789	0.069899626

fc2.weight f4 [2, 1024]
0	0x3c7bde1d	0.01537278
1	0xaa3f012e	-1.6964617e-13
2	0x27bd2a0d	5.250363e-15
3	0xbd52c221	-0.051454667
4	0xbc4ec1b5	-0.012619426
5	0xbc309ac8	-0.01077909
6	0xbd4ef6f3	-0.050528478
7	0xbc90bf55	-0.01766936
8	0x3bc0115f	0.005861446
9	0x3d326ff4	0.043563798
10	0xb795b7f4	-1.7847844e-05
11	0x3b98a74a	0.0046586143
12	0xbd13abba	-0.036052443
13	0x3cadff24	0.021239825
14	0x3c7119c6	0.0147156175
15	0x17503c5b	6.7284604e-25
16	0x3c978f17	0.018500848
17	0x3c66c223	0.014084372
18	0xbcbd637e	-0.02311873
19	0x3cc41e76	0.023940306
20	0xb1fd6778	-7.375032e-09
21	0x3cd873db	0.026422432
22	0x3c35480d	0.0110645415
23	0xb0f6ca38	-1.795633e-09
24	0x3c540a97	0.012941978
25	0xb3106def	-3.3627597e-08
26	0x3cd25efd	0.02568006
27	0x3b270beb	0.0025489281
28	0x3c2e2bff	0.010630607
29	0xbcbe115e	-0.02320164
30	0xbc32407c	-0.010879632
31	0x3ce48a6f	0.027898042
32	0x3c2b37ed	0.010450345
33	0xb8bd8eeb	-9.038843e-05
34	0x3ca4a655	0.020098845
35	0x2f8fdcd7	2.6168465e-10
36	0x3bf6de21	0.007533804
37	0xbc265aed	-0.010153514
38	0x3c73a233	0.014870214
39	0xbb9b0736	-0.004731084
40	0x91ab4a06	-2.7024663e-28
41	0xad9d7071	-1.7898768e-11
42	0xb6ff9e3b	-7.6180127e-06
43	0x3cda08ab	0.026615461
44	0x3d56654d	0.0523427
45	0xb542d9c6	-7.2587534e-07
46	0xbc875647	-0.016520632
47	0x316d0311	3.4489782e-09
48	0xad2a56e3	-9.682674e-12
49	0x3ce89189	0.02838971
50	0x3c709ea5	0.014686261
51	0xbbdcc3c0	-0.0067372024
52	0xbad297e5	-0.0016066997
53	0xbca6801e	-0.020324763
54	0xbbe9705a	-0.007123989
55	0xb52f4f11	-6.5307637e-07
56	0xbc847d19	-0.016172932
57	0x3bcfdcfb	0.0063434816
58	0x3d1a988a	0.03774313
59	0x3c5bb9a9	0.013410964
60	0x3c821f5d	0.015884096
61	0xbb9da3f5	-0.004810805
62	0x3375d7fc	5.7239944e-08
63	0x3d2bbf22	0.041930325
64	0x3c04770c	0.008085024
65	0x2399b947	1.6666761e-17
66	0x2d994db2	1.742859e-11
67	0x3c8aa6c9	0.016925232
68	0x3d1f5d50	0.03890735
69	0xbca0628d	-0.019578243
70	0xad964427	-1.7083291e-11
71	0xbc58db24	-0.013235841
72	0xbbe9cbdb	-0.007134897
73	0xbc89f49f	-0.016840277
74	0xbb9377a7	-0.0045003477
75	0xbccb68ee	-0.024830308
76	0x3d0de970	0.03464645
77	0xb5030f10	-4.882322e-07
78	0x3c27da07	0.010244853
79	0xbd6fb057	-0.05851778
80	0x3b5d5f0d	0.0033778579
81	0x3cd81fdc	0.02638238
82	0x3d2fc831	0.042915527
83	0xbd559ef8	-0.052153558
84	0x3d1baf1b	0.03800879
85	0xbca01151	-0.019539507
86	0x385e8945	5.3056767e-05
87	0xbc349197	-0.011021039
88	0xbcac0c5b	-0.021001985
89	0xa968b0ce	-5.1667702e-14
90	0x3bc339e4	0.005957829
91	0x3c91fe7e	0.017821547
92	0x3cb07e21	0.021544518
93	0x3d3230b3	0.043503474
94	0xbc7675e3	-0.015042755
95	0xbd17d8f5	-0.03707214
96	0x3c261e43	0.010139051
97	0x3d30e24a	0.043184556
98	0xb6929002	-4.367904e-06
99	0x3392dbcc	6.8386356e-08
100	0x3bc9f838	0.006163623
101	0x3ce52b7c	0.027974837
102	0xb8df408b	-0.00010645491
103	0xbd377794	-0.044791773
104	0x3b66b776	0.0035204566
105	0x3d0f947b	0.03505371
106	0x3b95ca37	0.004571225
107	0x3b5165cb	0.0031951542
108	0xb8010bcc	-3.0766983e-05
109	0x3a687659	0.0008867733
110	0x3707e93a	8.100929e-06
111	0xb707e20f	-8.09926e-06
112	0xb3f116e3	-1.12266e-07
113	0x360849a2	2.030844e-06
114	0x159107b1	5.857717e-26
115	0xaa42f1ab	-1.7314507e-13
116	0x3b8e1b1a	0.004336727
117	0x2e570328	4.8888144e-11
118	0x3c29f7f6	0.01037406
119	0xb74cf4a2	-1.2216306e-05
120	0xa6680880	-8.050269e-16
121	0x3bd7620a	0.0065729665
122	0x3d128870	0.03577465
123	0xb818c598	-3.6423648e-05
124	0xbd575611	-0.052572314
125	0x3ce4a801	0.027912142
126	0x3d1557de	0.03646075
127	0x3d06eb40	0.032939196
128	0x3593513e	1.0975998e-06
129	0x3d1fc9da	0.03901086
130	0x3d97a959	0.074053474
131	0xae4ca3dd	-4.652977e-11
132	0xb820f60c	-3.837612e-05
133	0xa43eb879	-4.1355937e-17
134	0x30963441	1.0928788e-09
135	0x0d5637ce	6.6011014e-31
136	0x3d0c2a09	0.034219775
137	0x3cc1edbc	0.02367293
138	0x3cd720c2	0.026260737
139	0x3caab75a	0.020839382
140	0x3ad0b524	0.0015923125
141	0x3b797ca3	0.0038068674
142	0x3c237195	0.009975811
143	0xbc7e3593	-0.015515703
144	0xb9a86930	-0.00032121828
145	0xb4a50d0a	-3.0743132e-07
146	0x3d124692	0.035711832
147	0xbb8467e8	-0.004040707
148	0xa32d507d	-9.395393e-18
149	0x370b00de	8.2852475e-06
150	0x3bf3cc73	0.0074401437
151	0xbd621802	-0.055198677
152	0x3cbed3e5	0.023294399
153	0x390ac40c	0.00013233739
154	0x3c86c454	0.016451038
155	0x3cc9f884	0.024654634
156	0x3d04c685	0.032415885
157	0x3c29c2bb	0.010361369
158	0x0b33f524	3.465857e-32
159	0xaff94e20	-4.5348347e-10
160	0x3c90e9ed	0.01768967
161	0x3c794dfe	0.015216349
162	0x3cc063bd	0.023485059
163	0xbcff8f99	-0.031196402
164	0xbd19ac15	-0.037517626
165	0x3c914db1	0.017737241
166	0x3cbcea63	0.023060983
167	0x3c51de66	0.012809372
168	0xbb3302b4	-0.0027314844
169	0x3cb52305	0.022111425
170	0xb3cb858c	-9.477216e-08
171	0x3ce6dee1	0.028182449
172	0x3ce3ef7f	0.027824162
173	0xbd48f9e1	-0.049066428
174	0xbca8b38f	-0.020593433
175	0x3c8dc82a	0.01730736
176	0x3d62b327	0.055346634
177	0xbcd38a66	-0.02582283
178	0x3d32727d	0.043566216
179	0x0ca52fbc	2.5451004e-31
180	0x3c56ebec	0.013117772
181	0x3b90dc0a	0.004420762
182	0x3d00f177	0.03148028
183	0x3b4d7c36	0.0031354553
184	0xb959e0ef	-0.00020778527
185	0xbc2d2813	-0.0105686365
186	0xb74da16d	-1.2256537e-05
187	0xbb9edd68	-0.004848171
188	0x3c46edea	0.012141684
189	0xbbfb7154	-0.007673422
190	0xbd99b548	-0.0750528
191	0x3b71a9d0	0.0036874898
192	0xbbe4aeee	-0.006978861
193	0xbc841790	-0.016124517
194	0xad2e0d9a	-9.893775e-12
195	0xbd5daed2	-0.0541218
196	0xbc880f1e	-0.016608771
197	0x3c8186bd	0.015811319
198	0x3af72b3b	0.0018857488
199	0x3cbc2268	0.022965625
200	0x9e5dfbf2	-1.1751744e-20
201	0xa491a8f2	-6.316993e-17
202	0x87edac7e	-3.5761178e-34
203	0x3c3a7e32	0.011382626
204	0x3c8aff1b	0.016967347
205	0x9acff8ec	-8.601535e-23
206	0xb4a30cd1	-3.037044e-07
207	0x3d787cc4	0.06066586
208	0xbd4aa1b1	-0.049470607
209	0x3cd46038	0.025924787
210	0xbcb70d6d	-0.02234527
211	0x3c551df8	0.013007633
212	0xbbe552ae	-0.0069983816
213	0x3a621959	0.0008624993
214	0xbc28a73e	-0.01029378
215	0x36809010	3.8314683e-06
216	0xaac90493	-3.5707946e-13
217	0xbc03d559	-0.0080464715
218	0xbccec64d	-0.025241042
219	0xb9b75e7a	-0.0003497487
220	0x3c8114e9	0.015757041
221	0x3cddafd3	0.027061379
222	0xbd62fca4	-0.055416718
223	0xbce41268	-0.027840808
224	0x3d0f06b0	0.034918487
225	0xbb71bafd	-0.0036885135
226	0x314cf759	2.9826508e-09
227	0xb6021668	-1.9384552e-06
228	0x3c2f9c10	0.010718361
229	0x3b9ca551	0.0047804494
230	0x3cf0d4b3	0.029398298
231	0x3c58d928	0.013235368
232	0x3cc06cc7	0.02348937
233	0x3c64c624	0.013963256
234	0xa66a0a15	-8.119872e-16
235	0xbcd52e68	-0.026023105
236	0xb701bf70	-7.733572e-06
237	0x3d1340a4	0.035950318
238	0xbce76ea8	-0.028251007
239	0xbc0f4e36	-0.008746674
240	0x3cd16dc3	0.025565034
241	0x3cb7fd98	0.02245979
242	0x3c4723b1	0.012154506
243	0x3394be99	6.9264566e-08
244	0x9de943d6	-6.1744727e-21
245	0x3d0a0a34	0.033701137
246	0x3c06fad3	0.008238512
247	0xbd0a656e	-0.033788137
248	0x37d5a9ef	2.547071e-05
249	0x3d0bce01	0.034132008
250	0x3c435f1e	0.011924533
251	0xbb95044c	-0.0045476314
252	0x121e66bb	4.9982634e-28
253	0x3d2457c8	0.040122777
254	0xbcd1dd1e	-0.025618132
255	0x3bb2a06c	0.0054512527

fc2.bias f4 [2]
0	0xbb95d4f0	-0.0045725033
1	0xbcb4a832	-0.022052858

norm3.weight f4 [20]
0	0x3f82cbda	1.021846
1	0x3f835ca3	1.0262645
2	0x3f83ac73	1.0287002
3	0x3f81faeb	1.0154699
4	0x3f83499d	1.025684
5	0xbce5cebd	-0.028052682
6	0x3f827062	1.0190547
7	0x3f81cf88	1.0141459
8	0x3f805524	1.0025983
9	0x3f836daa	1.0267842
10	0x3f81ffc6	1.0156181
11	0x3f7e00e7	0.99220127
12	0x3f84ab5c	1.0364795
13	0x3f82c397	1.0215939
14	0x3f84f0ae	1.038595
15	0x3f77036e	0.9648961
16	0x3f7c0b49	0.9845472
17	0x3f835ff8	1.0263662
18	0x3f813ba1	1.0096322
19	0x3f7f574c	0.9974258

norm3.bias f4 [20]
0	0xbc2e3122	-0.010631831
1	0x3d34b6f6	0.044119798
2	0x3c2e8397	0.010651491
3	0x3ca686d1	0.020327957
4	0x3b8be226	0.0042689024
5	0x3c5fd78d	0.013662231
6	0x3cc6c7b3	0.024265146
7	0xbc5a1245	-0.01331002
8	0x3c162c8b	0.009165893
9	0x3bfa2eed	0.0076349885
10	0x3aaa694c	0.0013001352
11	0xbc1503a2	-0.009095104
12	0x3b9244f3	0.004463786
13	0xbc57ac56	-0.013163647
14	0x3c34cb12	0.011034744
15	0x3c5bfb37	0.0134265935
16	0xbca4d4a4	-0.020120926
17	0xbb968f93	-0.004594752
18	0xbcb91651	-0.02259365
19	0x3cadb1eb	0.021203002

norm3.running_mean f4 [20]
0	0x4185d96b	16.731161
1	0x40c1e81e	6.0595846
2	0x418c7908	17.559097
3	0x42074f75	33.827595
4	0x418af700	17.370605
5	0x3a193ac3	0.0005845243
6	0x4137f948	11.49836
7	0x4216a790	37.663635
8	0x41f06c21	30.052797
9	0x41937a0c	18.434593
10	0x411869d9	9.525842
11	0x413d7b28	11.842567
12	0x4024be26	2.5741057
13	0x417871d3	15.527789
14	0x40477aa8	3.1168613
15	0x4128e68e	10.556288
16	0x41875677	16.91722
17	0x42219750	40.397766
18	0x4161b479	14.106561
19	0x4201f140	32.485596

norm3.running_var f4 [20]
0	0x43310c6b	177.04851
1	0x422c934e	43.143852
2	0x43a1b8c9	323.44363
3	0x43f5b021	491.376
4	0x42b72a0e	91.58214
5	0x363c5aa3	2.806694e-06
6	0x431d1524	157.08258
7	0x4486170b	1072.7201
8	0x44aa18b7	1360.7723
9	0x4269f5fa	58.49021
10	0x436feff5	239.93733
11	0x43199869	153.59535
12	0x4130e7bc	11.056576
13	0x42c5cb38	98.89691
14	0x4140a447	12.040107
15	0x42ff1c2c	127.55502
16	0x42b8df1c	92.43576
17	0x44b33f0a	1433.97
18	0x436dd533	237.83281
19	0x43fe5dd3	508.733

norm4.weight f4 [20]
0	0x3f7b50e7	0.9817032
1	0x3f807076	1.003432
2	0x3f8327c5	1.0246512
3	0x3f6bd313	0.9211895
4	0x3f8442ff	1.0332946
5	0x3f77d039	0.968021
6	0x3f80009e	1.0000188
7	0x3f83e343	1.030373
8	0x3f844b1c	1.0335422
9	0x3f812166	1.0088317
10	0x3f756cae	0.9586896
11	0x3f78ef97	0.97240585
12	0x3f835868	1.0261354
13	0x3f78bf1a	0.971666
14	0x3f836353	1.0264686
15	0x3f822c13	1.01697
16	0x3f864986	1.0491188
17	0x3f80b317	1.0054654
18	0x3f81fe2c	1.0155692
19	0x3f816887	1.0110024

norm4.bias f4 [20]
0	0xbd1bf2d2	-0.03807337
1	0xbd02e960	-0.031960845
2	0xbd2136ce	-0.039358906
3	0x3c979c4b	0.018507143
4	0xbd27f2bc	-0.041002974
5	0xbd022d2f	-0.03178137
6	0xbc9fc186	-0.019501459
7	0xbd30f122	-0.043198712
8	0xbd5bda19	-0.05367479
9	0xbd1709cd	-0.03687458
10	0xbcfeda08	-0.031109825
11	0xbc973f8e	-0.018462922
12	0x3c23d3fc	0.0099992715
13	0x3c6efa42	0.014586033
14	0xbcde845f	-0.027162729
15	0x3c468a90	0.012117997
16	0xbd4811cb	-0.048845094
17	0xbd894123	-0.06701877
18	0xbd82f445	-0.06394247
19	0xbd4ee15f	-0.0505079

norm4.running_mean f4 [20]
0	0x4154b21c	13.293484
1	0x40a0f7d1	5.030251
2	0x415befb1	13.746018
3	0x41cc7dd8	25.561447
4	0x415c99c9	13.787545
5	0x3a0c735b	0.00053577655
6	0x4132232a	11.133585
7	0x41e344f0	28.40866
8	0x41b76633	22.924902
9	0x417a6ea3	15.652011
10	0x40e9dd99	7.3083005
11	0x410e9bf6	8.913076
12	0x3ffcaf72	1.9741042
13	0x41459210	12.34816
14	0x40258b43	2.5866249
15	0x410815ce	8.505323
16	0x41545606	13.271002
17	0x41f69b58	30.825851
18	0x412a5145	10.644841
19	0x41c45c9b	24.545218
