best_model.pth (torch, 45218 bytes, 25 tensors)

conv1.weight f4 [20, 1, 3]
0	0x3d935867	0.07194596
1	0x3f079f76	0.52977693
2	0xbf00a4e5	-0.5025161
3	0x3e16c60b	0.14723985
4	0xbda9c037	-0.08288615
5	0x3e0b06a9	0.1357676
6	0x3ebdc66f	0.37065455
7	0x3e490497	0.19630657
8	0xbc844be7	-0.016149474
9	0xbed8d5c1	-0.4235058
10	0x3e8ecec9	0.2789214
11	0x3eb35424	0.35025132
12	0xb710800c	-8.612882e-06
13	0xba54e5d6	-0.00081214064
14	0xb9a77c23	-0.0003194521
15	0x0002d0d8	2.5859e-40
16	0x801298a2	-1.707793e-39
17	0xb9849060	-0.0002528457
18	0xbec9c466	-0.39407653
19	0x3ed64180	0.41846848
20	0x3daccb14	0.084371716
21	0x3ed6b504	0.4193498
22	0x3e33b166	0.17548141
23	0x3ef080e1	0.46973327
24	0xbe246260	-0.16053152
25	0x3ebfab62	0.37435442
26	0x3ef071a6	0.46961707
27	0xbd3a3097	-0.045456495
28	0x3f02cc9b	0.51093453
29	0xbeba36b9	-0.36369875
30	0xba09a653	-0.00052509195
31	0xb99b5397	-0.00029626183
32	0xba512bb8	-0.0007979232
33	0xba81c260	-0.0009899847
34	0xba4ef172	-0.00078942545
35	0xba8ade18	-0.0010594754
36	0xbb1257b6	-0.0022330112
37	0xbb82dd5e	-0.003993674
38	0xbda2aafc	-0.07942769
39	0xbd4e8651	-0.050421063
40	0x3da33085	0.07968239
41	0x3e3e3555	0.18575032
42	0x3d52c298	0.05145511
43	0xbf0eef1d	-0.5583361
44	0xbddf2877	-0.1089639
45	0xbefad238	-0.4898851
46	0xbf1708c1	-0.5899773
47	0x3f0309df	0.5118694
48	0xbeb364ca	-0.35037833
49	0x3f01dc48	0.5072675
50	0xbe2e1502	-0.17000201
51	0x3e0987bf	0.1343069
52	0x3efa0926	0.48835105
53	0x3ec54a3f	0.38533208
54	0xbd9cdc7b	-0.07659241
55	0x3c60be72	0.013717281
56	0x3ea946ae	0.33061737
57	0x3ea5fb8c	0.32418478
58	0x3e854346	0.26027888
59	0x3e6cede9	0.2313763

conv1.bias f4 [20]
0	0x3f022f75	0.50853664
1	0xbed051e4	-0.40687478
2	0x3eeb8120	0.45996952
3	0xbe8913e9	-0.26773003
4	0xafbd9e2d	-3.449129e-10
5	0xafc66152	-3.608514e-10
6	0xbf28fb48	-0.66008425
7	0x3daf64a3	0.08564117
8	0xbde8353b	-0.11338278
9	0x3d1dce44	0.03852679
10	0xa4dd2ea4	-9.5922484e-17
11	0xb6091df7	-2.0432033e-06
12	0x3d913e13	0.07091918
13	0xbf147d4f	-0.58003706
14	0xbe5894dc	-0.21150535
15	0xbe68c00a	-0.22729507
16	0x3eb1067e	0.34575266
17	0x3e972bd6	0.29525632
18	0x3eae2db3	0.3401924
19	0x3ef5dac2	0.4801846

conv2.weight f4 [20, 20, 3]
0	0xbab95c34	-0.0014141859
1	0x3e20968e	0.15682432
2	0xbd747c0c	-0.059688613
3	0x3d8dd731	0.0692581
4	0x3d6f016b	0.05835096
5	0x3cf15532	0.02945957
6	0x3bc1bd81	0.005912483
7	0x3d05bee5	0.032652754
8	0xbe2e4dbc	-0.17021841
9	0x3d3dcb0f	0.04633623
10	0x3dc7f4f0	0.09763515
11	0xbc318f0d	-0.010837329
12	0x8018114e	-2.21026e-39
13	0x003414dc	4.782929e-39
14	0x8024791d	-3.349525e-39
15	0x801741f9	-2.135883e-39
16	0x0018df25	2.284101e-39
17	0x0015dda5	2.008056e-39
18	0xbdf76a0c	-0.12080774
19	0x3df7a358	0.12091702
20	0xbd7990f0	-0.06092924
21	0xbdc5eec7	-0.09664684
22	0x3bf557a6	0.007487255
23	0x3d94cb44	0.07265332
24	0xbdeab778	-0.11460775
25	0x3da24293	0.07922854
26	0xbce0d35a	-0.02744453
27	0xbcfdae75	-0.030966977
28	0x3e0aad5c	0.13542694
29	0x3d86a46a	0.06574328
30	0x80336501	-4.719844e-39
31	0x800e1a7e	-1.2952e-39
32	0x0009ddfa	9.0615e-40
33	0x0003803d	3.2151e-40
34	0x000ac0de	9.87543e-40
35	0x0037604a	5.085494e-39
36	0x3c0e018f	0.008667364
37	0x3dbcd580	0.092204094
38	0x8033564a	-4.714565e-39
39	0x3dc3127a	0.095250085
40	0x3d750790	0.059821665
41	0xbd4214f5	-0.047383267
42	0x3ddeac4d	0.108727075
43	0xb9d394cc	-0.00040355918
44	0xbd82e1fa	-0.06390758
45	0x3cd45e0e	0.025923755
46	0xbe18e304	-0.1493035
47	0x3dfe7c3e	0.12426041
48	0x3da77347	0.08176284
49	0xbc703bc0	-0.014662683
50	0xbddaaf8c	-0.10678014
51	0x3cf995bd	0.030466909
52	0xbce97796	-0.028499406
53	0x3e1b7377	0.15180765
54	0x3dec4f7b	0.11538597
55	0x3da94b16	0.08266275
56	0x3d9173b4	0.07102147
57	0x3d2015d5	0.03908332
58	0xbd8446b8	-0.06458801
59	0xbce46e63	-0.027884668
60	0x3c6d6da0	0.014491469
61	0x3e00251d	0.12514158
62	0x3d30a16f	0.043122705
63	0xbcc71321	-0.024301114
64	0xba858065	-0.0010185359
65	0x3b98dbb5	0.004664863
66	0xbd9c03cc	-0.07617912
67	0x3e0331d5	0.12811978
68	0xbb6a1c57	-0.0035722458
69	0x3b8155f9	0.0039470163
70	0x3da16243	0.0788007
71	0xbd40a3d8	-0.047031254
72	0x81925240	-5.374995e-38
73	0x000f1c76	1.387742e-39
74	0x00116b08	1.599599e-39
75	0x8036ebb0	-5.043666e-39
76	0x001b0afb	2.483497e-39
77	0x0013327c	1.762985e-39
78	0x3c6fc484	0.014634255
79	0x3e00c885	0.12576492
80	0xbc170097	-0.009216449
81	0xbb941f30	-0.0045203194
82	0xbdc5a5d0	-0.09650767
83	0xbcf50f80	-0.029914618
84	0xbd23c9da	-0.039987423
85	0x3dcb05b8	0.099132
86	0xbd34f154	-0.04417546
87	0x3c1dcd57	0.009631476
88	0x3cab1129	0.020882206
89	0xbd4936ec	-0.049124643
90	0x800bcadc	-1.082963e-39
91	0x000346b4	3.0087e-40
92	0x8024225d	-3.318405e-39
93	0x8018098a	-2.207474e-39
94	0x803c80a5	-5.556279e-39
95	0x802fe4d0	-4.398351e-39
96	0xbcc4c001	-0.024017336
97	0x0101f787	2.387115e-38
98	0x003c594f	5.542168e-39
99	0xbc6ac2e1	-0.014328689
100	0x3e176f79	0.14788617
101	0x3c2e945b	0.010655488
102	0x3b134c7f	0.0022476015
103	0x00020237	1.84466e-40
104	0x3ca1da65	0.019757459
105	0x3cf3f4b8	0.029779777
106	0x3bf4bfd8	0.0074691586
107	0x0024ec59	3.390863e-39
108	0xbdd07e4f	-0.101803415
109	0x3e02a999	0.12760009
110	0xbbf7018a	-0.0075380253
111	0xbdfdc860	-0.12391734
112	0x3cc0a424	0.023515768
113	0x3d4ba1a4	0.0497147
114	0xbdeaf70f	-0.11472904
115	0xbc489b2c	-0.012244027
116	0xba506f36	-0.0007951142
117	0xbcbfb205	-0.023400316
118	0x3ced01bd	0.028931493
119	0xbd386644	-0.045019403
120	0x3da18684	0.07886985
121	0xbd8b8ae1	-0.068135984
122	0x00170e6d	2.117391e-39
123	0x3de2e9fa	0.11079784
124	0x004468bd	6.282387e-39
125	0x8032a4b8	-4.650865e-39
126	0x3c8fd8fb	0.017559519
127	0xbd1b681b	-0.03794108
128	0x80193afa	-2.317044e-39
129	0xbc169986	-0.009191876
130	0xbd319485	-0.04335453
131	0x8038cf1b	-5.217083e-39
132	0x003f0884	5.788691e-39
133	0x002081f0	2.985349e-39
134	0x003fa657	5.845308e-39
135	0x003873a4	5.184272e-39
136	0x802d484d	-4.158534e-39
137	0x000680b6	5.97186e-40
138	0xbc250444	-0.010071818
139	0xbdcd0427	-0.100105576
140	0x0043b997	6.219555e-39
141	0x3e0fb514	0.1403392
142	0xbe03617b	-0.12830155
143	0x00291990	3.774425e-39
144	0xbe1af5e6	-0.15132865
145	0xbdb9bca1	-0.09069181
146	0x801436a2	-1.856308e-39
147	0xbe15de10	-0.14635491
148	0x3be9977b	0.0071286536
149	0x80420dc5	-6.066082e-39
150	0x802d3a12	-4.153429e-39
151	0x801d51c4	-2.692561e-39
152	0x00175d3c	2.145663e-39
153	0x0000021f	7.61e-43
154	0x000efd2f	1.376522e-39
155	0x8031afcf	-4.563008e-39
156	0x0031efc1	4.585947e-39
157	0x801743c2	-2.136523e-39
158	0x80162f16	-2.037272e-39
159	0xb9856308	-0.0002544152
160	0xbd3636d6	-0.04448589
161	0x8036a94e	-5.019852e-39
162	0x3cd664fe	0.026171204
163	0x8025e18c	-3.478824e-39
164	0x801b57eb	-2.511097e-39
165	0x80000f03	-5.385e-42
166	0x80202fc2	-2.955868e-39
167	0x802406a5	-3.308461e-39
168	0x3d570dae	0.05250328
169	0xbdd76e32	-0.10519065
170	0x803361c4	-4.718682e-39
171	0x3cbe4595	0.023226539
172	0xbd921bc7	-0.07134204
173	0x80043c09	-3.88879e-40
174	0x8005dc40	-5.38188e-40
175	0xbb894e7b	-0.004190264
176	0x801a1af3	-2.39739e-39
177	0xbd46fe7a	-0.04858253
178	0xbd30b5ae	-0.043142013
179	0x00046091	4.01983e-40
180	0xbdf2a401	-0.118476875
181	0xbcb5ff03	-0.022216326
182	0xbcffa624	-0.031207152
183	0x3dbfbb18	0.09361857
184	0x3d4a8b72	0.04944939
185	0x39d00f42	0.0003968422
186	0x3d43486d	0.047676492
187	0x3cfa5cf1	0.030561896
188	0xbb92bb0f	-0.0044778655
189	0xbda80e38	-0.08205837
190	0x3da43225	0.08017377
191	0xbd06e797	-0.032935705
192	0x00471313	6.527163e-39
193	0x003fe2f2	5.867049e-39
194	0x80214cd8	-3.058138e-39
195	0x8028a9b6	-3.7343e-39
196	0x003780e7	5.097194e-39
197	0x0009567f	8.57548e-40
198	0xbd5ebd50	-0.05437976
199	0x3c54d89c	0.012991097
200	0xbd818363	-0.06323888
201	0x3dbd9618	0.09257144
202	0x3d466fdb	0.048446517
203	0xbc9e86af	-0.019351332
204	0x3db95d81	0.090510376
205	0xbe08a49f	-0.13344048
206	0x3e1119b3	0.1416996
207	0x3d9aae7c	0.075528115
208	0x3db18e31	0.08669699
209	0x3d8bee43	0.06832554
210	0x0007dadb	7.21359e-40
211	0x001d772b	2.705979e-39
212	0x0020c2d7	3.008631e-39
213	0x0005a863	5.19583e-40
214	0x001eb908	2.821442e-39
215	0x8046036b	-6.429711e-39
216	0x3cc5b3b0	0.024133533
217	0xbdb0cf95	-0.08633343
218	0x3ce0660b	0.027392408
219	0x3bb8f101	0.0056439643
220	0x3dce480f	0.10072338
221	0x3c7137a4	0.014722738
222	0x3d4671ab	0.048448246
223	0x3d838a79	0.06422896
224	0xbd95a26d	-0.07306371
225	0x3dedfbfe	0.11620329
226	0xbdb37d6a	-0.08764155
227	0xbd8b1038	-0.06790203
228	0x3de8b087	0.11361795
229	0x3ded6657	0.115917854
230	0x3ddb8aab	0.10719808
231	0x3b8d0080	0.004303038
232	0xbc908eaf	-0.017646162
233	0x3e0cd287	0.13752185
234	0x3b4f4c3b	0.003163113
235	0xbe0a2ab3	-0.13492851
236	0x3e1f00b2	0.15527609
237	0xbdec0213	-0.11523833
238	0x3dc21c10	0.09478009
239	0x3df4fe7d	0.11962602
240	0x3cdcbb65	0.026944825
241	0xbdcdc1c1	-0.10046721
242	0x3cfe0b58	0.031011268
243	0x3c4c5856	0.012472233
244	0xbdcfb9f4	-0.101428896
245	0xbc59c055	-0.013290484
246	0x3dfc75ce	0.12327157
247	0x3d990212	0.07471098
248	0xbdb60cef	-0.08889186
249	0xbdd7b23d	-0.10532043
250	0xbd04f2e7	-0.032458212
251	0xbc95489f	-0.018223105
252	0x8006d8c8	-6.2878e-40
253	0x80111ed6	-1.572265e-39
254	0x00326a2d	4.629864e-39
255	0x802175c3	-3.072816e-39

conv2.bias f4 [20]
0	0x3d440065	0.04785194
1	0x3e222e6c	0.15838021
2	0xbd05c0fc	-0.032654747
3	0xbe0f9d3e	-0.14024827
4	0xbe3affb2	-0.18261603
5	0xba85bf63	-0.0010204132
6	0xbb9e4856	-0.0048304005
7	0x3c093bae	0.008376045
8	0x3ba00a1c	0.0048840176
9	0xbe004bb7	-0.12528883
10	0xbd05aed0	-0.032637417
11	0xbd3f85cf	-0.04675847
12	0xbc0cc6d7	-0.008592329
13	0x3d01208e	0.031525187
14	0x3d6d6ec2	0.057966955
15	0xbc5ee242	-0.013603749
16	0xbdd412c8	-0.10355145
17	0xbc4a45a2	-0.012345703
18	0x3e045668	0.12923586
19	0x3d4b9fb7	0.049712863

conv3.weight f4 [20, 20, 3]
0	0xbdffde8e	-0.12493621
1	0xbc10b7d6	-0.008832892
2	0xbbedff7a	-0.007263121
3	0x3d1ab1d3	0.037767243
4	0xbe35645e	-0.17714068
5	0xbdd97135	-0.10617296
6	0x3dfdf06c	0.123993725
7	0x3d1097de	0.03530108
8	0xbdd27e88	-0.1027804
9	0x3c7bcdfb	0.015368934
10	0xbddbb051	-0.10726989
11	0x3d262df9	0.040571187
12	0x3d331290	0.043718874
13	0xbdca9eae	-0.09893547
14	0x3e21fa33	0.158181
15	0x3a44c3fd	0.0007506011
16	0xba98d532	-0.0011660217
17	0xbae901e2	-0.001777705
18	0xbba74ddc	-0.005105717
19	0xbb9b7aab	-0.004744848
20	0xbd49bc4b	-0.049251836
21	0xbcaf0f69	-0.021369653
22	0xbdf81182	-0.12112714
23	0xbe09c602	-0.1345444
24	0x3d1cf18d	0.0383163
25	0xbdfd22a4	-0.12360123
26	0xbd8be58e	-0.068308935
27	0x3cf91e4a	0.03040995
28	0xbdefcd95	-0.117091335
29	0x3ddab486	0.10678963
30	0x3d7bb4d0	0.061451733
31	0xbda3866e	-0.07984625
32	0xbd97de5f	-0.07415461
33	0x3dcc8284	0.099858314
34	0xbe1a946d	-0.15095682
35	0xbd609ffc	-0.054840073
36	0xbdf1def4	-0.11810103
37	0xbe1f084e	-0.15530512
38	0x3db44ea9	0.08804066
39	0xbd87d2d0	-0.06632006
40	0xbd86bbe1	-0.06578804
41	0xbdbb49f6	-0.09144966
42	0xbe106b66	-0.14103469
43	0xbd55d98c	-0.052209422
44	0xbd08950b	-0.033345263
45	0x3d098591	0.033574644
46	0xbd2be6a9	-0.04196802
47	0x3df4e5e4	0.11957911
48	0xbde3055a	-0.11085005
49	0xbe1274d8	-0.14302385
50	0xbe0d687f	-0.13809393
51	0x3be84faf	0.007089577
52	0x3d72bc03	0.059261333
53	0xbde54770	-0.11195266
54	0xb951df81	-0.00020015055
55	0xbe44433e	-0.19166276
56	0xbc83fa6a	-0.016110618
57	0xbda3dfe0	-0.08001685
58	0xbcc8bdd7	-0.024504585
59	0x3dadd496	0.08487813
60	0x3c9f4e60	0.019446552
61	0x3d4de017	0.050262537
62	0x3db210a0	0.08694577
63	0xbd8909a2	-0.066912904
64	0x3d3ce02a	0.046112217
65	0x3daf461a	0.08558293
66	0xbd85f302	-0.06540491
67	0xbe007fc1	-0.12548734
68	0xbd6adb30	-0.05733794
69	0xbd9ad262	-0.075596586
70	0xbd96c04b	-0.07360896
71	0xbca1a822	-0.019733492
72	0x3d4f607b	0.05062912
73	0xbd86f1b5	-0.06589071
74	0x3d1df4ac	0.038563415
75	0x3abfd727	0.0014636264
76	0x3abb415b	0.0014286445
77	0x39c9d226	0.0003849428
78	0x3e14d0f6	0.14532837
79	0xbd7d259d	-0.06180345
80	0xbd26e8b8	-0.04074928
81	0x3db24dd3	0.0870625
82	0xbdafe245	-0.08588079
83	0xbd9f7327	-0.077856354
84	0xbd899c76	-0.06719296
85	0xbd8e6282	-0.069523826
86	0x3ce49aaa	0.02790578
87	0x3db97ae6	0.09056644
88	0x3cd7af73	0.026328778
89	0xbd7f27c4	-0.062293783
90	0xbdb6e743	-0.089308284
91	0xbcbe637d	-0.0232408
92	0xbd553959	-0.052056644
93	0x3d1d6c00	0.038433075
94	0x3bd38e72	0.00645619
95	0xbde29718	-0.11063975
96	0x3d01da4a	0.031702317
97	0xbe2ca561	-0.16859962
98	0x3deb1fb8	0.11480659
99	0x3db544ab	0.08850988
100	0xbc535191	-0.012897865
101	0xbd1355a5	-0.03597035
102	0x3d1a1896	0.037621103
103	0x3d2f4220	0.04278767
104	0x3b58229b	0.003297961
105	0x3d0cfb99	0.03441963
106	0xbc887b58	-0.016660377
107	0x3dafb072	0.08578576
108	0x3da77b7c	0.0817785
109	0xbdfcdd5a	-0.12346907
110	0xbd7e2259	-0.062044475
111	0xbc743434	-0.014905024
112	0xbe143f7e	-0.14477345
113	0x3d18e7de	0.0373305
114	0xbd8cc781	-0.0687399
115	0xbce611a9	-0.028084593
116	0xbdb1fa16	-0.08690278
117	0xbc8cac65	-0.017172048
118	0xbc864432	-0.01638994
119	0xbbc6875e	-0.0060586175
120	0x3e1f5e7a	0.15563384
121	0x3d519d07	0.051175144
122	0x3cc6c8be	0.024265643
123	0x3c82c4e3	0.015963024
124	0x3dcefa78	0.10106367
125	0x3d50d1b3	0.050981235
126	0x3b5c8ff4	0.0033655139
127	0xbdd839e9	-0.105579205
128	0xbc956853	-0.018238222
129	0x3d5ce494	0.053928927
130	0xbdd38568	-0.103281796
131	0xbc94e022	-0.018173281
132	0xbe06e523	-0.13173346
133	0xbda13517	-0.07871454
134	0x3d17afa9	0.037032757
135	0x3adc6bfb	0.0016816849
136	0xba847b96	-0.0010107632
137	0xbb09d956	-0.0021034083
138	0x3e0c9eed	0.137325
139	0xbdbab919	-0.09117336
140	0xbd91258e	-0.07087241
141	0xbdd4bd16	-0.10387628
142	0xbe01e095	-0.12683327
143	0x3d8df12a	0.06930764
144	0x3d938c76	0.07204525
145	0xbe0de5b1	-0.13857152
146	0xbd82f34a	-0.0639406
147	0x3d6256a8	0.055258423
148	0xbe181724	-0.14852577
149	0xbda11b64	-0.078665525
150	0xbe10aac4	-0.14127642
151	0xbd9cb2e1	-0.07651306
152	0xbd947376	-0.07248585
153	0x3d4c6710	0.049902976
154	0xbd142686	-0.03616955
155	0xbc3c7052	-0.011501389
156	0xbdc7cb82	-0.09755613
157	0xbe51521a	-0.20441476
158	0x3de17c3a	0.110100225
159	0x3d0c2d98	0.03422317
160	0xbdbd036f	-0.092291705
161	0xbdd1d6ec	-0.10246071
162	0xbd4da415	-0.05020531
163	0x3d8e01ec	0.0693396
164	0xbd377385	-0.044787902
165	0xbcefa858	-0.029255077
166	0xbd45159b	-0.048116308
167	0x3d8d0276	0.06885235
168	0x3d3beee5	0.045882124
169	0x3dbb51e8	0.09146482
170	0xbd7d2ddf	-0.061811324
171	0x3daa1a6b	0.0830582
172	0x3bb44aab	0.005502065
173	0xbdbe8c62	-0.0930412
174	0xbd661aa1	-0.05617774
175	0xbdb4a3fa	-0.088203385
176	0x3d6ded40	0.058087587
177	0xbb541e7a	-0.0032366798
178	0xbddcd7a6	-0.10783319
179	0x3d537125	0.051621575
180	0x3d61da65	0.055139918
181	0x3c5c21c7	0.0134357875
182	0xba549aa5	-0.0008110202
183	0x3d2e31c0	0.042527914
184	0x3d146696	0.036230646
185	0xbdbe0687	-0.09278589
186	0x3d64f1b1	0.055894557
187	0x3d2b5e67	0.041838076
188	0x3dee0175	0.11621372
189	0x3ce5d5fd	0.02805614
190	0x3e1cd586	0.15315828
191	0x3d3cb4d8	0.046070904
192	0x3dbe3f64	0.092894346
193	0x3dd39154	0.103304535
194	0x3e60c1e1	0.21948959
195	0x3aa2a855	0.0012409786
196	0x397be61c	0.00024022948
197	0xba302fd1	-0.00067209924
198	0xbda6fe90	-0.08154023
199	0x3d82cce3	0.06386735
200	0x3de2684b	0.110550486
201	0x3df29f7f	0.11846828
202	0x3df643f8	0.12024683
203	0xbd922b58	-0.071371734
204	0xbc8f113d	-0.017464275
205	0xbd8c25a0	-0.06843114
206	0x3d32371e	0.043509595
207	0x3da5adc8	0.08089787
208	0x3dd54d51	0.104151376
209	0x3dcd12af	0.10013329
210	0x3df3fa89	0.1191302
211	0xbcc7da1e	-0.024395999
212	0x3c782e47	0.015147752
213	0xbcf26e7c	-0.029593699
214	0x3e1baa37	0.1520165
215	0x3bb5e99c	0.00555153
216	0xbd09c354	-0.033633545
217	0x3df43e6e	0.1192597
218	0x3d2e8df2	0.04261584
219	0x3d3c2771	0.04593605
220	0x3db2feee	0.0874003
221	0xbd84b95b	-0.06480666
222	0x3c4f2f7e	0.0126456
223	0xbd2c46c0	-0.04205966
224	0x3dcc34a8	0.09970981
225	0xbcf05e23	-0.029341763
226	0x3df9c22c	0.121952385
227	0xbd96db51	-0.0736605
228	0x3dda5033	0.10659828
229	0x3d9d6f0f	0.07687198
230	0x3dd6298c	0.10457143
231	0xbd8f92e5	-0.0701044
232	0x3ddad6a5	0.106854714
233	0xbd8e6e5c	-0.06954643
234	0xbcef6aab	-0.029225668
235	0x3e4d50a1	0.20050289
236	0xbe0b10eb	-0.13580672
237	0x3d0e376b	0.03472082
238	0x3e19bfae	0.15014526
239	0x3b48eac2	0.0030657505
240	0xbdf3689b	-0.11885186
241	0xbd61046d	-0.05493586
242	0x3d4d1c42	0.050075777
243	0xbc948f13	-0.01813463
244	0xbd7a3c8a	-0.06109289
245	0x3de49c57	0.11162632
246	0xbd8c6733	-0.06855621
247	0xbe07fabc	-0.13279241
248	0x3e1a4720	0.15066195
249	0xbd02f8be	-0.0319755
250	0xbe09e5cf	-0.13466571
251	0x3dc02dd4	0.09383741
252	0xbd45fe53	-0.048338246
253	0xbcc181ac	-0.023621403
254	0x3e27282f	0.16323923
255	0x3b9e43d4	0.004829863

conv3.bias f4 [20]
0	0x3e1c6fac	0.15276974
1	0x3e356349	0.17713656
2	0x3cf374b6	0.029718738
3	0x3d5ddccb	0.054165643
4	0xbd5903b6	-0.052982055
5	0xbdb4e0a4	-0.08831909
6	0x3cb7db53	0.02244345
7	0x3d94443a	0.07239576
8	0x3e0bb5cf	0.13643573
9	0x3ca3ef79	0.02001165
10	0xbd5b50ad	-0.053543735
11	0xbd115caf	-0.03548878
12	0xbdb63f71	-0.08898819
13	0x3d9dd97e	0.07707499
14	0x3e23072a	0.15920702
15	0x3d929e20	0.07159066
16	0x3d90d4f7	0.0707187
17	0x3df02f1d	0.11727736
18	0xbd33a64b	-0.04385976
19	0xbdd51e36	-0.10406153

conv4.weight f4 [20, 20, 3]
0	0x3d45e944	0.048318163
1	0x3d4fca1b	0.050729852
2	0xbd5a0690	-0.053228915
3	0xbd5a4ece	-0.05329781
4	0x3cf708d0	0.03015557
5	0xbd696500	-0.056981087
6	0x3d2a6e23	0.04160894
7	0x3d10a914	0.035317495
8	0x3be3fcaa	0.00695761
9	0xbd6a92d1	-0.05726892
10	0x3b66b121	0.0035200792
11	0x3df2fe8b	0.118649565
12	0xbcb490f1	-0.02204177
13	0xbb953700	-0.0045536757
14	0xbd20d150	-0.039262116
15	0xb98ec8fa	-0.0002723409
16	0x3aa8f0c9	0.0012889142
17	0x3d3650b3	0.044510555
18	0x3d418410	0.047245085
19	0x3d7fe421	0.06247342
20	0x3ddae275	0.106877245
21	0x3d3ea55a	0.04654441
22	0x3cc4752f	0.023981659
23	0x3d279139	0.04090998
24	0xbcaf5972	-0.021404956
25	0xbd4e76fb	-0.050406437
26	0xbd77afc1	-0.060470346
27	0x3c0812d3	0.008305269
28	0x3d3dc9a1	0.046334866
29	0xbd8881a8	-0.06665355
30	0xbc463a7a	-0.012098903
31	0xbc4bc4d8	-0.012437068
32	0xbd6df8ac	-0.05809848
33	0x3d180fd7	0.03712448
34	0xbd286048	-0.041107446
35	0xbc324d26	-0.010882651
36	0x3d2ad787	0.04170945
37	0xbc5f6663	-0.013635251
38	0x3d8806fd	0.06641958
39	0x3d0ab135	0.033860404
40	0xbcc6b110	-0.024254352
41	0x3d31427d	0.0432763
42	0x3d7b4a2e	0.06135004
43	0x3cc72a04	0.024312027
44	0xbda5eae4	-0.081014425
45	0x3d2109c0	0.03931594
46	0xbd4e35ef	-0.050344404
47	0xbcec4acd	-0.028844262
48	0x3d91efd8	0.07125825
49	0xbc487be6	-0.012236571
50	0xbdc71f2b	-0.09722742
51	0x3d7ce55d	0.061742175
52	0x3d1847ba	0.03717778
53	0xbdc65ee2	-0.09686066
54	0xbbfa281c	-0.007634176
55	0xbc68725d	-0.014187423
56	0x3dd92d88	0.106043875
57	0xbd7c6391	-0.06161839
58	0xbbfc6e6f	-0.0077035944
59	0x3c6657b1	0.014058993
60	0xbba29cb7	-0.0049625295
61	0xbc01c726	-0.007921016
62	0x3d42356e	0.047414236
63	0xbd87a23a	-0.06622739
64	0x3d5aa067	0.053375628
65	0x3ce9ef01	0.028556349
66	0xbd65f318	-0.056140035
67	0xbd36ad3c	-0.044598803
68	0x3da0a26f	0.07843482
69	0xbd1ba598	-0.03799972
70	0xbc9c7f18	-0.019103572
71	0x3cb586d4	0.022159018
72	0xbc88d7e1	-0.016704502
73	0xbe1d979d	-0.15389867
74	0x3db64708	0.08900267
75	0xbbc2d521	-0.005945817
76	0xbdbfefc2	-0.09371902
77	0x3c37b1c7	0.011211819
78	0xbe2968e6	-0.16543922
79	0xbcb82b56	-0.022481602
80	0xbd1c6f22	-0.038191922
81	0xb9a7527e	-0.00031914184
82	0xbe1b4201	-0.15161897
83	0x3df33a18	0.11876315
84	0xbdb56e6a	-0.088589504
85	0x3de2e20a	0.1107827
86	0x3ccf5589	0.025309341
87	0xbd52e669	-0.051489267
88	0x3d5cff7f	0.053954598
89	0x3de6031f	0.11231064
90	0xbdf2bf15	-0.11852852
91	0xbbdcd65a	-0.00673942
92	0xbd8a2fe0	-0.06747413
93	0x3d298c31	0.041393463
94	0xbd14e196	-0.036347948
95	0x3c3ba08a	0.01145185
96	0x3db56555	0.08857218
97	0xbd5d572b	-0.054038208
98	0x3df94a02	0.12172319
99	0xbdb63b73	-0.08898058
100	0x3c8ddc14	0.017316855
101	0x3c0a862e	0.0084548425
102	0xbdc37d9c	-0.095454425
103	0x3db0d6f0	0.08634746
104	0xbd8126cd	-0.06306229
105	0x3d4bb87f	0.049736496
106	0xbe09868e	-0.13430235
107	0xbdd7bd39	-0.10534138
108	0xbd7cf81c	-0.061760053
109	0x3cd490a3	0.025947874
110	0xbd98eefd	-0.074674584
111	0xbb6ec73b	-0.0036434669
112	0x3d2a784c	0.04161863
113	0xbdb736bf	-0.08945989
114	0xbc6c9d59	-0.0144418115
115	0x3bc7ebf2	0.006101125
116	0xbd866119	-0.06561489
117	0xbd1b9d69	-0.037991915
118	0xbd2e8d62	-0.042615302
119	0xbc96f42b	-0.018426975
120	0xbd81d957	-0.063402824
121	0x3e14544e	0.14485285
122	0xbc0401b6	-0.008057049
123	0xbd4a4a78	-0.049387425
124	0xbd9b6dc9	-0.07589299
125	0x3c878c96	0.016546529
126	0x3cc5300c	0.024070762
127	0xbd9a17b5	-0.07524053
128	0xbdbbef55	-0.09176508
129	0xbc0406f9	-0.008058303
130	0x3dd428cd	0.10359345
131	0x3d7189b2	0.058969207
132	0x3de467eb	0.11152633
133	0xbe2a678c	-0.16641062
134	0xbe1b9cf8	-0.15196598
135	0x3a7fceb8	0.00097582815
136	0xbd64807c	-0.055786595
137	0xbd137885	-0.03600361
138	0xbc912a05	-0.017720232
139	0x3e24670c	0.16054934
140	0xbdb6af65	-0.089201726
141	0xbdfdddd3	-0.12395825
142	0x3ccb95eb	0.02485176
143	0xbdc9101b	-0.09817525
144	0xbde58ae7	-0.11208134
145	0x3d5cbd0a	0.05389122
146	0x3e0081e7	0.12549554
147	0xbd20646e	-0.039158277
148	0x3d8e25d5	0.0694081
149	0x3dc07cdb	0.09398814
150	0x3cd57109	0.026054876
151	0xbdcdd334	-0.100500494
152	0x3dd70c3f	0.10500383
153	0xbd6fe62c	-0.05856912
154	0xbd2d0d68	-0.042249113
155	0xbd98d56d	-0.07462583
156	0xbdc79e7a	-0.09747024
157	0x3dcbea35	0.09956781
158	0xbce4fe8d	-0.02795341
159	0x3d65121d	0.055925477
160	0xbd99717d	-0.07492349
161	0xbdc0ac0b	-0.094078146
162	0x3caf5d19	0.021406697
163	0x3e298b2e	0.16556999
164	0xbd81e395	-0.06342236
165	0x3d0d2cb4	0.03446646
166	0xbe13ac50	-0.14421201
167	0x3b6f7acb	0.0036541696
168	0xbdf9c173	-0.12195101
169	0x3cf12805	0.029438028
170	0x3deade54	0.11468187
171	0xbd072626	-0.032995366
172	0x3ddf6971	0.10908783
173	0xbdb2a166	-0.087221906
174	0xbd19c774	-0.03754373
175	0xbe0b95ce	-0.13631365
176	0xbdb7b92e	-0.08970867
177	0xbe06b2b7	-0.13154112
178	0xbdecb037	-0.11557048
179	0xbd3c3394	-0.045947626
180	0xbd4a153e	-0.049336664
181	0x3c9743f3	0.018465018
182	0xbab98281	-0.0014153273
183	0x3dbacad5	0.091207184
184	0x3cef6d82	0.029227022
185	0x3d8378ff	0.064195625
186	0xbd8b2cf7	-0.06795686
187	0x3d097e88	0.033567935
188	0x3d5a94c2	0.053364523
189	0x3d08da25	0.033411164
190	0x3d10607c	0.035248265
191	0xbd353f6f	-0.044249948
192	0xbdf5835a	-0.11987944
193	0x3dddfe35	0.10839502
194	0xbad65711	-0.0016352852
195	0x3cf30d25	0.029669354
196	0x3d47d200	0.048784256
197	0xbaeb9ca7	-0.0017975763
198	0x3dcc3e92	0.09972872
199	0x3dc7e615	0.097606815
200	0x3d0818c1	0.033226732
201	0xba11ee1b	-0.00055667915
202	0xba822d27	-0.0009931669
203	0xbd57618d	-0.052583266
204	0xbd90e532	-0.070749655
205	0x3d961898	0.0732891
206	0x3d4641e3	0.04840268
207	0x3df9698a	0.12178333
208	0x3db53aa7	0.08849078
209	0x3cd0d9c1	0.025494458
210	0xbcd72f3f	-0.026267646
211	0xbd39cb39	-0.045359824
212	0xbb5df435	-0.0033867483
213	0xbd9a4437	-0.07532542
214	0x3d1d5cc4	0.038418546
215	0xbd9d6d4e	-0.07686864
216	0xbd08222a	-0.033235706
217	0x3dcf5e05	0.10125355
218	0xbdc9a167	-0.09845238
219	0x3cd20da8	0.025641277
220	0xbd054972	-0.032540746
221	0x3d04831d	0.032351602
222	0xbcbb44ba	-0.02285992
223	0xbd9fb6a5	-0.077985086
224	0x3d4c5cba	0.04989312
225	0xbe0e3e3b	-0.13890927
226	0x3d786f1c	0.060652837
227	0x3d35aa57	0.0443519
228	0x39a671c2	0.00031746743
229	0x3ca7f195	0.020500937
230	0xbcca04c9	-0.024660485
231	0x3c185f14	0.009300012
232	0x3d7c6c27	0.06162658
233	0xbd892500	-0.0669651
234	0xbcd3aa93	-0.025838172
235	0x3d11b2b0	0.0355708
236	0x3d2bc559	0.041936252
237	0x3d8c63e5	0.06854991
238	0xbd8a25f7	-0.067455225
239	0xbcc6f19f	-0.024285136
240	0xbdb2551a	-0.08707638
241	0xbc8411cc	-0.016121767
242	0xbde463f7	-0.11151879
243	0x3d5861d4	0.05282767
244	0xbd943a60	-0.07237697
245	0xbcd5d8db	-0.026104381
246	0x3d048602	0.032354362
247	0xbd593708	-0.053030998
248	0xbdd9004d	-0.105957605
249	0xbd8c5d57	-0.06853741
250	0xbd93aab9	-0.07210297
251	0x3caf312a	0.021385748
252	0xbd904462	-0.07044293
253	0x3d39fc75	0.045406777
254	0xbd2f4be5	-0.042796988
255	0xbda3e4b2	-0.080026045

conv4.bias f4 [20]
0	0xbdf12417	-0.11774462
1	0x3c8ac19c	0.016938023
2	0x3e0dd2bd	0.13849922
3	0xbdecab57	-0.11556118
4	0x3d64ce87	0.055861022
5	0xbd8e4145	-0.06946043
6	0x3e584457	0.2111982
7	0xbce318e9	-0.027721839
8	0xbdb43533	-0.087992094
9	0x3d83f269	0.064427204
10	0xbdccb423	-0.09995296
11	0xbdf5c193	-0.11999812
12	0xbdc0226b	-0.09381565
13	0xbd74d2d9	-0.059771392
14	0x3c4b363c	0.012403067
15	0x3ce70626	0.028201174
16	0x3d1b8af1	0.0379743
17	0xbb870a84	-0.0041211266
18	0x3dd9534d	0.106115915
19	0x3d7dfc1f	0.06200802

conv5.weight f4 [1, 20, 3]
0	0xbe0b3652	-0.1359494
1	0xbd1956ef	-0.037436422
2	0xbd3ace05	-0.04560663
3	0xbdc82b8b	-0.0977393
4	0x3d5b9f4c	0.053618714
5	0x3d7a0dd9	0.061048362
6	0xbdf021dc	-0.11725208
7	0x3db39bd0	0.08769953
8	0xbdd3e4b9	-0.1034636
9	0x3d904e97	0.0704624
10	0xbdaddd6b	-0.08489498
11	0xbe144fcd	-0.14483567
12	0x3dfb70aa	0.12277348
13	0xbe340b1b	-0.17582361
14	0x3db22db5	0.08700124
15	0xbdc7e7e2	-0.09761025
16	0x3cbbddb5	0.022932867
17	0x3d532d33	0.051556777
18	0x3de0ba28	0.109730065
19	0xbdee5999	-0.11638183
20	0x3d881c06	0.0664597
21	0xbce864ce	-0.02836838
22	0xbc2b223c	-0.010445174
23	0xbd9b9f9f	-0.07598805
24	0xbdb2cd0e	-0.08730517
25	0x3dd2c120	0.10290742
26	0xbd26458f	-0.04059368
27	0x3dcbe2b1	0.09955347
28	0xbd38650c	-0.04501824
29	0x3d390d2f	0.04517859
30	0x3e08e10a	0.13367096
31	0x3cb091a3	0.02155382
32	0x3dbe88cb	0.09303435
33	0xbe040c94	-0.12895423
34	0xbd9d86d5	-0.07691733
35	0x3c904040	0.017608762
36	0x3dbd75da	0.09250994
37	0xbcceb1c6	-0.025231253
38	0xbe07e77e	-0.13271901
39	0xbcb4bb54	-0.022061981
40	0xbdb50f3d	-0.08840797
41	0xbc82a13d	-0.015946025
42	0xbde797e9	-0.113082714
43	0xbdbba97b	-0.09163185
44	0xbdf6a91a	-0.12043972
45	0xbdce4e40	-0.10073519
46	0xbd9d0259	-0.076664634
47	0xbe1b1ff2	-0.15148905
48	0xbdcab275	-0.09897319
49	0x3d931983	0.071826
50	0x3d816d1d	0.0631964
51	0xbde4ff22	-0.11181475
52	0xbdf8f78b	-0.1215659
53	0xbd1494d5	-0.03627475
54	0x3df523ec	0.11969742
55	0x3dcaea7d	0.09908006
56	0xbd222755	-0.03958829
57	0xbd2aa57a	-0.041661717
58	0xbdc14f14	-0.09438911
59	0xbdcbd097	-0.09951895

fc1.weight f4 [1024, 2]
0	0x3e003f56	0.1252416
1	0xbc751300	-0.014958143
2	0x1ccaca47	1.3419526e-21
3	0xaf50b93b	-1.8983297e-10
4	0xb6cd177f	-6.1122114e-06
5	0xb608e9cf	-2.0401674e-06
6	0xbd5a869e	-0.053351037
7	0xbe88b7e8	-0.2670281
8	0xba54bb6c	-0.0008115086
9	0xbe8980c3	-0.2685605
10	0x3e095623	0.13411765
11	0xbecbb0f8	-0.39783454
12	0xbe950581	-0.29105762
13	0xbed6731c	-0.41884696
14	0xbe566019	-0.20935096
15	0xbef3fd81	-0.47654346
16	0x3e9011c8	0.28138566
17	0xbe2c91ff	-0.16852568
18	0xbb5cff88	-0.0033721644
19	0x3f23a6cf	0.63926405
20	0xaec62a6e	-9.0115346e-11
21	0x32c5be4b	2.3020354e-08
22	0xbe5d16fe	-0.21590802
23	0xbdea03b9	-0.11426491
24	0xbd6d9ceb	-0.058010977
25	0xbf08ee05	-0.5348819
26	0x3e807ddd	0.25096026
27	0x3ed52a96	0.41634053
28	0xbecce379	-0.40017298
29	0x3ebc2989	0.3675044
30	0xb7eaaabc	-2.7974478e-05
31	0xba3d1845	-0.0007213394
32	0x3ec8a93a	0.3919161
33	0xbd3f87fa	-0.046760537
34	0x3eb484ab	0.35257468
35	0x3ef6be51	0.48192075
36	0xbf060cac	-0.52363086
37	0x3e07816f	0.13232969
38	0x3ec6a7de	0.38799948
39	0x3e96e55a	0.29471856
40	0x14bbe7d5	1.8973616e-26
41	0xb3c9cbe4	-9.3968794e-08
42	0x3e96498a	0.2935298
43	0x3e29fa84	0.1659947
44	0xbd4fb894	-0.050713137
45	0x3f041779	0.51598316
46	0xb64ad241	-3.022273e-06
47	0xb91f790f	-0.0001520852
48	0x3c71231a	0.0147178415
49	0x3dc8dc8d	0.09807692
50	0x398697e2	0.00025671633
51	0xb9f74704	-0.00047164422
52	0x3e902200	0.2815094
53	0x3e924d54	0.28574622
54	0x3cc1da85	0.023663769
55	0x3e205c96	0.15660319
56	0x3f05b317	0.52226394
57	0x3e87bd79	0.26511744
58	0xbc8e994c	-0.017407082
59	0xbe4b85e4	-0.19875294
60	0xbd53f52b	-0.051747482
61	0xbee9120a	-0.45521575
62	0xbedaa85e	-0.4270658
63	0x3ed3d11f	0.41370484
64	0x3ee8901a	0.4542244
65	0xbe717788	-0.23580754
66	0x170c8250	4.5400917e-25
67	0xb4ee9c34	-4.4444607e-07
68	0xbec3d181	-0.38245776
69	0xbde422f4	-0.11139479
70	0x99807837	-1.3283444e-23
71	0xaf3f0289	-1.737225e-10
72	0x3e112d85	0.1417752
73	0x3ec22eac	0.37926233
74	0xbd896640	-0.06708956
75	0x3db12684	0.086499244
76	0xbd3d27df	-0.046180602
77	0x3d7ff123	0.062485825
78	0x3ebc4454	0.3677088
79	0x3f00fae1	0.5038281
80	0x09cbd1b5	4.906768e-33
81	0xac85f208	-3.8069582e-12
82	0xb50c291d	-5.221389e-07
83	0xb8eb285d	-0.000112131915
84	0x39904cbd	0.00027522995
85	0xba1ad7d2	-0.00059067935
86	0xbecb56e6	-0.39714736
87	0x3f067022	0.5251485
88	0x3e2a4049	0.16626085
89	0x3f17c446	0.59283864
90	0x1f0b4628	2.9492427e-20
91	0x213b3818	6.3432304e-19
92	0x3ee3bc05	0.44479385
93	0xbefbf921	-0.49213508
94	0x802718b3	-3.590445e-39
95	0x99e5dd46	-2.3767417e-23
96	0x800d5645	-1.224809e-39
97	0xaea15b1f	-7.337619e-11
98	0xbee8d5f3	-0.4547573
99	0x3f1bfa86	0.60929143
100	0xbdeee91c	-0.11665556
101	0x3e5aa020	0.21350145
102	0x3e33249c	0.17494434
103	0xbd3f3151	-0.04667789
104	0xbe5f2630	-0.21791911
105	0xbf065583	-0.5247423
106	0x3ee30b63	0.44344625
107	0xbd04a437	-0.03238317
108	0xbd7f68ec	-0.06235592
109	0xbde1a9e9	-0.11018736
110	0x3a1e2fbd	0.0006034335
111	0x3a54b3dd	0.000811396
112	0xbeeba8a6	-0.46027106
113	0xbe8a07c3	-0.26959047
114	0x3e30c0d5	0.1726106
115	0xbdcfc537	-0.101450376
116	0xbd4dc46c	-0.05023615
117	0x3f0ee5d4	0.5581944
118	0x3d477f7e	0.04870557
119	0x3ebf4ceb	0.3736337
120	0xbda754d3	-0.08170476
121	0x3ec97e37	0.39354107
122	0xbeaa217a	-0.33228666
123	0x3c806043	0.015670901
124	0x81200d93	-2.9397098e-38
125	0x2bff85c2	1.8155965e-12
126	0x3c957ca0	0.018247902
127	0x3f099223	0.5373861
128	0x3e7f6faa	0.2494494
129	0x3ded6c25	0.115928926
130	0x0008a030	7.92148e-40
131	0xa9982677	-6.7568286e-14
132	0xab5f5d72	-7.9355196e-13
133	0xb7c27ad6	-2.3183802e-05
134	0x3e5437cf	0.20724414
135	0x3d8ce1f5	0.068790354
136	0x3dcdbd01	0.10045815
137	0xbd37a953	-0.044839215
138	0xbe197881	-0.14987375
139	0xbf03f394	-0.51543546
140	0xa2df9c53	-6.0609786e-18
141	0xa5109106	-1.2539145e-16
142	0x3e1f7337	0.15571295
143	0xbe8ab284	-0.27089322
144	0x3d9a8bb7	0.0754618
145	0xbe6b97c3	-0.23007111
146	0x3edaf03e	0.42761415
147	0xbea78f7b	-0.32726654
148	0xbe688f46	-0.22710904
149	0xbe923c30	-0.28561544
150	0xbf0ed529	-0.55794007
151	0x3c9be9cb	0.01903238
152	0x3ea695a4	0.32536042
153	0x3e1c1f24	0.15246254
154	0x303612f8	6.623817e-10
155	0x2f1fa3fe	1.4519227e-10
156	0x3e479062	0.19488671
157	0x3eaa9138	0.33313918
158	0xbea45f06	-0.32103747
159	0xbf04aafc	-0.518234
160	0xbe50f6b2	-0.20406607
161	0x3ec47da0	0.38377094
162	0x3e8c714d	0.27430192
163	0x3dcdca52	0.10048355
164	0xbf0a94e2	-0.5413343
165	0x3ecd2d3e	0.4007358
166	0xbe50ee98	-0.20403516
167	0xbf2f1568	-0.6839204
168	0x3e9af8f7	0.3026807
169	0xbcf60e9e	-0.030036267
170	0xbe559f4b	-0.20861547
171	0x3e887a47	0.2665579
172	0x350693aa	5.013377e-07
173	0x3949e8a7	0.00019255524
174	0xbed2581b	-0.41082844
175	0x3dec7f58	0.115477264
176	0x3d984a9f	0.07436108
177	0xbe73e678	-0.23818386
178	0xa3a773e5	-1.815526e-17
179	0xa5850f4a	-2.3082183e-16
180	0xbd10a95e	-0.03531777
181	0xbdda4df9	-0.10659403
182	0xbe9dd205	-0.30824295
183	0x3e9fbfed	0.31201115
184	0x3da873ad	0.082251884
185	0xbc9cc713	-0.019137895
186	0x3d696cc5	0.056988496
187	0x3f2928ee	0.6607808
188	0xbd85409c	-0.06506464
189	0x3e74245b	0.23841994
190	0xbeecbeab	-0.46239218
191	0xbed25a76	-0.4108464
192	0x3d4889be	0.048959486
193	0xbc3fa3af	-0.01169674
194	0x3f16f1a4	0.58962464
195	0xbde9ed86	-0.11422257
196	0xa0ff42e1	-4.3242937e-19
197	0xa1436010	-6.619571e-19
198	0x801b0371	-2.480793e-39
199	0xa0e26d35	-3.8358156e-19
200	0x3e96110e	0.29309887
201	0x3d745ccc	0.05965881
202	0x3ef7f6c1	0.48430446
203	0x3e8450ba	0.2584284
204	0xb4872176	-2.5170056e-07
205	0xb8db4b33	-0.00010456741
206	0xbdb103bc	-0.086432904
207	0xbe8fe213	-0.28102168
208	0x3eb4d7e8	0.35320973
209	0xbece5c8e	-0.4030499
210	0x3e70350b	0.23457734
211	0x3b4042c4	0.002933667
212	0xbe407aa7	-0.18796788
213	0xbdea1e8a	-0.11431606
214	0x3d04f51a	0.03246031
215	0x3f2e5d71	0.6811133
216	0xa8f9553b	-2.7681516e-14
217	0xb1d86e08	-6.2989365e-09
218	0xbe8456be	-0.2584743
219	0x3e955bbd	0.29171553
220	0x0024303f	3.323385e-39
221	0xaaba90b6	-3.314065e-13
222	0x34b3d3f4	3.3495564e-07
223	0xb45c2997	-2.0504227e-07
224	0x80285f4b	-3.707605e-39
225	0x82035298	-9.648063e-38
226	0xb60f64ee	-2.136741e-06
227	0xba0be475	-0.0005336472
228	0x0015acea	1.990575e-39
229	0xae0ccb94	-3.2013128e-11
230	0x39619b3e	0.00021515504
231	0xb9b24a5c	-0.00034006208
232	0x3d8eaf1f	0.069669954
233	0xbd4c5575	-0.049886186
234	0x0026cd1c	3.563328e-39
235	0x91841b06	-2.0842582e-28
236	0xbdb75e07	-0.08953481
237	0xbd0440af	-0.03228825
238	0x801c4bfa	-2.598649e-39
239	0x9f9c9ab3	-6.63245e-20
240	0x3282752d	1.5187277e-08
241	0xb4847177	-2.4669473e-07
242	0x3e0c4740	0.13699055
243	0xbdc2e34a	-0.09516008
244	0x3e2ab014	0.16668731
245	0x3d3e7235	0.046495635
246	0x8036723e	-5.000099e-39
247	0xabdee632	-1.5837941e-12
248	0x3ee740a7	0.45166513
249	0xbf175a51	-0.59122187
250	0x3eb291f8	0.3487699
251	0x3ec6c561	0.38822463
252	0xbe84b1c5	-0.25916877
253	0x3efacffa	0.489868
254	0x3d851f0e	0.06500064
255	0x3f175a86	0.591225

fc1.bias f4 [1024]
0	0x3d424fda	0.047439434
1	0xb33103fc	-4.1214648e-08
2	0xb8e1e0b0	-0.000107706874
3	0x3d9515f5	0.072795786
4	0x3ede041b	0.43362507
5	0x3e47b955	0.19504292
6	0x3e94ae98	0.29039454
7	0x3eb5c631	0.3550277
8	0x3e7311c5	0.23737247
9	0x3df79081	0.12088109
10	0xb6cfbef5	-6.191311e-06
11	0x3ed3631a	0.41286546
12	0x3e73c4d5	0.23805554
13	0xbe89c995	-0.26911607
14	0x3e4c1051	0.19928099
15	0xba96765c	-0.0011479366
16	0xbe35ab6a	-0.1774117
17	0x3f0712cd	0.5276306
18	0x3e924382	0.2856713
19	0xbeec5b62	-0.4616347
20	0xb6d41191	-6.3201373e-06
21	0xbea1359f	-0.31486222
22	0x3de1b5fe	0.110210404
23	0xb9d45690	-0.00040500285
24	0xbd637fad	-0.055541683
25	0xbabe82c9	-0.0014534827
26	0x3ee1c78d	0.44097558
27	0x3e83a51b	0.25711903
28	0xbdc7c110	-0.097536206
29	0x3de2897c	0.11061379
30	0x3ef4985a	0.47772485
31	0x3dd061ab	0.10174879
32	0x3eab257d	0.3342704
33	0xb704b966	-7.91098e-06
34	0x3ee8c292	0.45460945
35	0xb3207460	-3.7358745e-08
36	0xbe352441	-0.17689611
37	0x3dee8904	0.116472274
38	0x3dfb5e77	0.12273877
39	0x3e51220b	0.20423143
40	0xb0ac6f93	-1.2546358e-09
41	0xb9f859f0	-0.00047369255
42	0xba215a8a	-0.0006155154
43	0x3cb408f6	0.02197693
44	0xbe9069b1	-0.28205636
45	0xa1dbcaf7	-1.4893742e-18
46	0x3ebe7a86	0.37202853
47	0xa39e1eb0	-1.7143391e-17
48	0xb2dc5518	-2.5650067e-08
49	0xbdc853c6	-0.097816035
50	0xbe257bc2	-0.16160491
51	0x3f06aa5a	0.52603686
52	0x3eae10d1	0.33997205
53	0x3eef5e4f	0.4675164
54	0x3d1f9e83	0.038969528
55	0xbaf2904f	-0.0018506142
56	0x3f02df93	0.511224
57	0xbda294f6	-0.07938568
58	0xbe4b86f8	-0.19875705
59	0xbe83bf62	-0.2573195
60	0xbe877ec5	-0.26463905
61	0x3db17f64	0.08666876
62	0xb0e090dc	-1.6339317e-09
63	0xbe509de2	-0.20372728
64	0x3e6fde2c	0.23424596
65	0xb313d065	-3.441564e-08
66	0xb93e6c5b	-0.00018160178
67	0xbd81e475	-0.06342403
68	0xbbfd2c11	-0.0077262004
69	0x3ec142ee	0.37746376
70	0xa496c593	-6.5386834e-17
71	0x3da7bde5	0.081905164
72	0x3e668d45	0.22514828
73	0x3f1b4863	0.6065733
74	0x3f060203	0.5234682
75	0x3eaf3ce1	0.34226134
76	0xbbfac2b6	-0.007652606
77	0xb0a95889	-1.2321532e-09
78	0x3d2fdef4	0.042937234
79	0x3efb26fd	0.49053183
80	0xbe8e14de	-0.27750295
81	0x3ecdf2b4	0.4022423
82	0x3da7c2e8	0.08191472
83	0x3f2926b3	0.66074675
84	0xbe12bb8e	-0.14329359
85	0x3df62126	0.12018041
86	0xba5e5752	-0.00084816397
87	0x3f01261a	0.50448763
88	0x3e040f4b	0.12896459
89	0xa3d94e1b	-2.3560266e-17
90	0x3ecd9d18	0.40158916
91	0xbd67a0ce	-0.05654984
92	0xbc883f78	-0.016631827
93	0xbe8e0f47	-0.2774603
94	0x3e888833	0.26666412
95	0x3f12ce54	0.5734608
96	0xbc2db24a	-0.010601589
97	0xbe74947c	-0.23884767
98	0xa192edea	-9.95632e-19
99	0xa99d6485	-6.989638e-14
100	0xbe2f9fcc	-0.17150801
101	0x3ea1c5c9	0.3159621
102	0xb7443d40	-1.1696771e-05
103	0x3db781fb	0.08960339
104	0x3e696a89	0.22794546
105	0xbe1402af	-0.14454149
106	0x3e429082	0.19000438
107	0xbee7d10e	-0.45276684
108	0xb5b66b25	-1.359124e-06
109	0x3f09efbe	0.5388144
110	0xb46eed21	-2.2251744e-07
111	0xb5876016	-1.0086248e-06
112	0xa8f2aae9	-2.6941518e-14
113	0xb923c597	-0.000156185
114	0xb39f8100	-7.4274794e-08
115	0xba495017	-0.0007679476
116	0x3b00f745	0.0019678634
117	0xa56ee681	-2.0721307e-16
118	0x3da0e99c	0.078570575
119	0xa802939d	-7.248458e-15
120	0xb8afcdfe	-8.383019e-05
121	0x3dddda5e	0.10832666
122	0xbe0b51ac	-0.13605374
123	0xb3bd6b1c	-8.8204814e-08
124	0x3eaa22eb	0.33229765
125	0xbe9e785d	-0.30951205
126	0x3e9d1a4d	0.30684128
127	0x3e40b1c7	0.18817817
128	0xbcb9332e	-0.022607412
129	0x3d35d035	0.044388015
130	0xbc01a6b3	-0.007913279
131	0xba3a279d	-0.000710124
132	0xb30e10a2	-3.307708e-08
133	0xa182844f	-8.844164e-19
134	0xb9e7ba32	-0.0004419848
135	0xb5dd0725	-1.6467862e-06
136	0xbb14e9ab	-0.0022722285
137	0x3eef6af5	0.4676129
138	0xbe52e481	-0.2059498
139	0xbe91c32a	-0.2846921
140	0x3e4e7a87	0.20163928
141	0x3dec99a4	0.11552742
142	0x3d1cceb4	0.038283065
143	0x3dec84e2	0.11548783
144	0xbe39f210	-0.18158746
145	0xb83667e0	-4.3488923e-05
146	0x3eb37521	0.350503
147	0x3e643886	0.22287187
148	0xac1af0f2	-2.2018468e-12
149	0xb95b71a6	-0.00020927805
150	0x3f0b06f2	0.5430747
151	0x3e218f35	0.15777285
152	0xbe00203c	-0.12512296
153	0x3af0e99c	0.0018380168
154	0x3e2783bd	0.16358848
155	0xbf19e91e	-0.60121334
156	0x3d2cabdb	0.04215608
157	0x3ed45c74	0.41476786
158	0xaa4a0eef	-1.7946385e-13
159	0xba5f2124	-0.0008511713
160	0x3eaba996	0.3352782
161	0x3ecfd5f5	0.40592924
162	0xbc9e7b4d	-0.019345904
163	0x3e851c6f	0.25998256
164	0x3ed9abfd	0.4251403
165	0xbd828aae	-0.06374107
166	0xbeae81f6	-0.34083527
167	0xbd36812e	-0.04455679
168	0x3e8b1cc2	0.27170378
169	0x3ed5d7d4	0.41766226
170	0xa3925712	-1.5866227e-17
171	0xbe5478b4	-0.2074917
172	0xbe6a72df	-0.22895382
173	0x3d20a7ae	0.03922241
174	0x3f153c9a	0.58295596
175	0xbdd4ade6	-0.10384731
176	0xbe81ff84	-0.25390255
177	0x3e998ac1	0.29988673
178	0xbe3efd21	-0.18651249
179	0xa241e8d4	-2.6279636e-18
180	0x3e92661f	0.28593537
181	0x3e42da47	0.19028579
182	0xbe2df83b	-0.16989224
183	0xbeaca76e	-0.3372149
184	0x3e7c1ac0	0.2461958
185	0x3e0b7f9f	0.13622902
186	0xa16891db	-7.8797696e-19
187	0x3ed7321b	0.42030415
188	0xbece9be1	-0.403533
189	0x3ed95068	0.42444158
190	0x3dda5f60	0.106627226
191	0xbbb36759	-0.0054749665
192	0x3f21319b	0.62966317
193	0x3f230c3a	0.6369053
194	0xa0d206e4	-3.5579944e-19
195	0x3e2a9ee4	0.16662174
196	0x3ea56a89	0.32307842
197	0xbe12145d	-0.1426558
198	0x3ecd6483	0.40115747
199	0xbee6ed6e	-0.4510302
200	0xb998290a	-0.00029022276
201	0xa35cc943	-1.1968843e-17
202	0xb9a7b314	-0.00031986146
203	0x3cda0305	0.026612768
204	0xbde30021	-0.11084009
205	0xa589ab99	-2.388199e-16
206	0xac1817ac	-2.161364e-12
207	0xbecee14f	-0.40406272
208	0x3dc0b250	0.094090104
209	0xbe26e89b	-0.1629967
210	0x3e2f5115	0.17120774
211	0x3ea36584	0.31913388
212	0x3e04d374	0.12971288
213	0x3e74398e	0.2385008
214	0x3e174a71	0.14774491
215	0xaeec5687	-1.0747408e-10
216	0xb16dce22	-3.4605212e-09
217	0x3eb42ab8	0.35188842
218	0x3ea71d63	0.32639608
219	0x3c784800	0.015153885
220	0x3e00c4f2	0.12575129
221	0x3f0200dc	0.5078256
222	0x3f1863f1	0.595275
223	0x3e02279e	0.12710425
224	0xbadf33a1	-0.0017028936
225	0xbd869fc3	-0.06573441
226	0xb4f8a17f	-4.6311104e-07
227	0xaaca0d5d	-3.589168e-13
228	0x3ea372f0	0.31923628
229	0x3ec9eb12	0.39437157
230	0x3dfdbb89	0.12389285
231	0xbe1589e6	-0.14603385
232	0xbd960377	-0.073248796
233	0x3f16044e	0.5860032
234	0xa2cef2ec	-5.6093615e-18
235	0x3ee447da	0.44586068
236	0xaaaca690	-3.0668914e-13
237	0xbec79549	-0.38981083
238	0x3e5140f2	0.20434931
239	0xbe7d5b1b	-0.24741785
240	0x3eeaaa57	0.45833084
241	0x3cd5a9e3	0.026081985
242	0x3ec4314f	0.3831887
243	0xb458822d	-2.0163925e-07
244	0xb814e701	-3.550109e-05
245	0xbe635745	-0.2220126
246	0xbe1445d9	-0.1447977
247	0x3e94f698	0.29094386
248	0xba7f3d5b	-0.00097366207
249	0xbdfe1ad1	-0.124074586
250	0xbd1bed4d	-0.038068105
251	0xbda8d18f	-0.08243095
252	0xb443d99b	-1.8239955e-07
253	0xbe3f90ff	-0.18707655
254	0x3dec43c9	0.115363665
255	0x3e0c2d3a	0.13689128

fc2.weight f4 [2, 1024]
0	0x3c63d0a2	0.013904722
1	0xb24a8eb2	-1.1790393e-08
2	0xba167e02	-0.00057408225
3	0xbd3e0567	-0.04639187
4	0xbbde7a2e	-0.0067894673
5	0xbbe3aef9	-0.0069483486
6	0xbd37a276	-0.04483267
7	0xbc32c168	-0.010910369
8	0x3c26e525	0.010186468
9	0x3d2cee84	0.042219654
10	0x31812c08	3.7594e-09
11	0x3be241cf	0.0069048177
12	0xbcf69b49	-0.030103343
13	0x3c85942c	0.016306005
14	0x3c61c8b1	0.013780759
15	0xba5d84ff	-0.0008450299
16	0x3c703823	0.014661822
17	0x3c63a094	0.013893265
18	0xbcc39239	-0.023873435
19	0x3c9206af	0.017825453
20	0xb561edd1	-8.41651e-07
21	0x3c9afb07	0.018918527
22	0x3c1f8da4	0.00973836
23	0xb91674bc	-0.00014348602
24	0x3c28f33b	0.010311897
25	0xba6396b4	-0.00086818193
26	0x3cd6c613	0.026217496
27	0x3b4e777c	0.0031504324
28	0x3c080e5e	0.008304207
29	0xbca1311e	-0.019676741
30	0xbb5b9a45	-0.00335087
31	0x3cd3c787	0.025851978
32	0x3c676b22	0.014124664
33	0x1a9d1814	6.497258e-23
34	0x3cb5031f	0.022096215
35	0xb3042eba	-3.0776143e-08
36	0x3b943298	0.004522633
37	0xbc3ab449	-0.011395522
38	0x3c9a2cf5	0.018820265
39	0xbbbda37d	-0.0057873116
40	0xae52765d	-4.78536e-11
41	0xb9e3c2c5	-0.0004344193
42	0x38dbdb3b	0.000104835686
43	0x3cc35ccd	0.023847962
44	0x3d482a94	0.04886873
45	0x207af4b0	2.1256784e-19
46	0xbc48223a	-0.0122151915
47	0x9ebb9df1	-1.9864718e-20
48	0xb226ff86	-9.720571e-09
49	0x3cc9f3cd	0.024652386
50	0x3bdeb804	0.0067968387
51	0xbba9abca	-0.0051779496
52	0x3b5bafee	0.003352161
53	0xbc9b818c	-0.018982671
54	0x3a90fd72	0.0011061861
55	0x399228e2	0.0002787775
56	0xbc3f7d1a	-0.011687541
57	0x3b905909	0.004405145
58	0x3d0acc79	0.033886407
59	0x3c0b6f3b	0.008510406
60	0x3c21e309	0.00988079
61	0xbbc1d010	-0.0059146956
62	0x26822de0	9.032997e-16
63	0x3d1da50d	0.038487483
64	0x3c166dc2	0.009181442
65	0xb1343325	-2.622252e-09
66	0x3725d9c4	9.885469e-06
67	0x3c691353	0.014225799
68	0x3d165280	0.036699772
69	0xbc4e2354	-0.012581665
70	0x23104c8a	7.8224634e-18
71	0xbc575b3e	-0.013144312
72	0xba15e265	-0.00057176343
73	0xbc5e6ab6	-0.013575247
74	0x3b14a0f9	0.0022678955
75	0xbcc91f4e	-0.02455106
76	0x3d09d5b0	0.033651054
77	0xb182818e	-3.7982266e-09
78	0x3c1686aa	0.00918738
79	0xbd4a3eb8	-0.04937622
80	0xbb80f535	-0.003935481
81	0x3ce2fe8c	0.027709268
82	0x3d24ae08	0.04020503
83	0xbd306a97	-0.043070402
84	0x3d0e4eb3	0.034743022
85	0xbca84fe4	-0.020545907
86	0xb9cd47ba	-0.00039154087
87	0xbc2ff2c8	-0.010739036
88	0xbc8f1708	-0.017467037
89	0x26057aad	4.63099e-16
90	0x3c077527	0.008267677
91	0x3c62a264	0.013832662
92	0x3c9bf25a	0.01903646
93	0x3d23291e	0.039834134
94	0xbc811e76	-0.015761595
95	0xbcef6cdb	-0.029226711
96	0x3c3ed7f1	0.011648164
97	0x3d206a0f	0.039163645
98	0x1fb7970d	7.775341e-20
99	0x2a02ee4f	1.1629e-13
100	0x3b703959	0.0036655276
101	0x3cea31a8	0.028588131
102	0x39227352	0.00015492484
103	0xbd1aa23c	-0.037752375
104	0x3bd86a8a	0.0066044973
105	0x3d04824a	0.032350816
106	0x3c4d3825	0.012525593
107	0xbb467a12	-0.0030285162
108	0xb5e4f4d7	-1.7058582e-06
109	0x3a921804	0.0011146073
110	0x2f3e4078	1.7303303e-10
111	0xb4993893	-2.8539634e-07
112	0x952a1b98	-3.4352994e-26
113	0xba18fd3f	-0.00058360765
114	0xb1e80217	-6.7523263e-09
115	0xba1fc2cd	-0.0006094396
116	0x3b2bb54f	0.0026200598
117	0xa199b4c2	-1.0415529e-18
118	0x3c965d45	0.018355021
119	0xa7719f96	-3.353198e-15
120	0xb913b351	-0.00014085813
121	0x3c216dc4	0.00985283
122	0x3d09d33b	0.03364871
123	0xb0e8426f	-1.6899103e-09
124	0xbd47cc11	-0.048778597
125	0x3ccb41d4	0.024811663
126	0x3d121f11	0.03567416
127	0x3d02d00c	0.03193669
128	0x3b42f820	0.0029749945
129	0x3d1f2768	0.03885594
130	0x3d9059a8	0.070483506
131	0xba326513	-0.00068052224
132	0xb4aa0532	-3.1668748e-07
133	0xa6176a4b	-5.2532703e-16
134	0xb9cf9da1	-0.0003959956
135	0xb562a7c4	-8.443569e-07
136	0x3d033cc9	0.03204039
137	0x3cc5c17e	0.024140116
138	0x3cbee39c	0.023301892
139	0x3c8393ba	0.016061652
140	0x3bad6c7d	0.005292474
141	0x3b1747b1	0.0023083503
142	0x3c03c2dc	0.008042064
143	0xbc6c5241	-0.014423908
144	0xbb61f1d2	-0.0034476412
145	0xb96635c0	-0.00021954533
146	0x3d111a44	0.03542544
147	0xbbbce6c8	-0.005764816
148	0x1c817a0c	8.568052e-22
149	0xb9bcb522	-0.0003599311
150	0x3bf640fd	0.0075150714
151	0xbd3ae127	-0.04562488
152	0x3c8df203	0.017327314
153	0xbc2af742	-0.010434927
154	0x3cb55073	0.022133088
155	0x3cd10255	0.025513807
156	0x3cf3e01e	0.029769953
157	0x3c2ba99c	0.01047745
158	0xb3687679	-5.412446e-08
159	0xba561523	-0.0008166602
160	0x3c93fee9	0.018065887
161	0x3c8833f8	0.016626343
162	0x3cabf9c6	0.020993125
163	0xbcbb22f3	-0.022843814
164	0xbcfd0703	-0.030887133
165	0x3c46096a	0.012087205
166	0x3ca4fbbe	0.020139571
167	0x3c2b50c2	0.010456266
168	0xba66326a	-0.0008781316
169	0x3cc1d64c	0.023661755
170	0x240b9abe	3.0271892e-17
171	0x3cd3538e	0.025796678
172	0x3cbd36a8	0.023097351
173	0xbd29dcad	-0.04147022
174	0xbc9df401	-0.01928139
175	0x3c5b1b55	0.013373216
176	0x3d5c10e7	0.053727057
177	0xbcb54ba8	-0.022130802
178	0x3d204a66	0.039133452
179	0x21151b7a	5.051953e-19
180	0x3c7d9520	0.015477449
181	0x3b3d6f31	0.0028905387
182	0x3ce60e86	0.028083097
183	0xba984960	-0.0011618547
184	0xbaa39393	-0.0012479894
185	0xbb9459bb	-0.0045272983
186	0xa173893a	-8.251322e-19
187	0x3b6c74bc	0.0036080321
188	0x3c4fac1d	0.012675312
189	0xbad06f87	-0.0015902378
190	0xbd8ae78b	-0.067824446
191	0x3a296e15	0.0006463242
192	0xbbd17ff2	-0.006393426
193	0xbc8633d3	-0.016382134
194	0xa066e262	-1.9556662e-19
195	0xbd3ed40e	-0.04658895
196	0xbc1c323b	-0.00953346
197	0x3c60ecbd	0.013728318
198	0x3c03a7e5	0.008035635
199	0x3cb373e1	0.021905841
200	0xb99ef5f6	-0.00030319364
201	0x218f8769	9.7259e-19
202	0xb984e81a	-0.0002534993
203	0x3c18e725	0.009332453
204	0x3c56c38f	0.013108148
205	0xa0d27f2c	-3.565954e-19
206	0xab5ed21b	-7.9161824e-13
207	0x3d639f61	0.055571917
208	0xbd2fb006	-0.04289248
209	0x3cc28c3c	0.02374851
210	0xbcb1df3e	-0.021712895
211	0x3ca413fc	0.02002906
212	0xbbda087c	-0.0066538434
213	0x3c0f533a	0.00874787
214	0xbc1589f0	-0.009127125
215	0xad84613d	-1.5049845e-11
216	0xb130b388	-2.5713423e-09
217	0xbb4d98c6	-0.0031371578
218	0xbca11ef6	-0.019668084
219	0xbb8f5827	-0.0043745223
220	0x3c729c81	0.014807821
221	0x3ce24839	0.02762233
222	0xbd3e4d0c	-0.046460196
223	0xbcc151b6	-0.023598533
224	0x3cfd256d	0.030901635
225	0xbc0152b0	-0.007893249
226	0xb17685e1	-3.5873813e-09
227	0x901282c9	-2.8894176e-29
228	0x3c7cdc4c	0.015433382
229	0x3b8aface	0.004241324
230	0x3ce49cc5	0.027906785
231	0x3c3419d8	0.01099249
232	0x3c9e8e4f	0.019354967
233	0x3c7cf1af	0.015438481
234	0xa265c356	-3.1138697e-18
235	0xbcd759be	-0.02628791
236	0x2adaf3f4	3.8893856e-13
237	0x3d1b1a56	0.037866913
238	0xbc980cfa	-0.018560875
239	0xbc9129c6	-0.017720114
240	0x3cd0a901	0.025471212
241	0x3cb1aad6	0.021687906
242	0x3c527069	0.0128441835
243	0xb419dd3c	-1.432972e-07
244	0xb9c62da4	-0.00037799508
245	0x3cf69b25	0.030103276
246	0x3aaafbfa	0.0013045066
247	0xbcd9c903	-0.026585108
248	0xb9c1c822	-0.0003696094
249	0x3d07f2d3	0.03319056
250	0x3bec38aa	0.0072089033
251	0xbc0decd4	-0.008662421
252	0x0e48a384	2.4730633e-30
253	0x3d2392c5	0.039934892
254	0xbccd0ffb	-0.025032034
255	0x3c4d3003	0.012523654

fc2.bias f4 [2]
0	0xbb47b151	-0.003047068
1	0xbcc13efc	-0.023589604

norm3.weight f4 [20]
0	0x3f80463b	1.0021433
1	0x3f816679	1.0109397
2	0x3f8225b7	1.016776
3	0x3f7f278d	0.99669725
4	0x3f8075f8	1.0036001
5	0x80121f17	-1.664192e-39
6	0x3f8027f9	1.0012199
7	0x3f7d62ae	0.989787
8	0x3f7d5b9d	0.98967916
9	0x3f7fbbe4	0.99896073
10	0x3f7d4dc3	0.9894678
11	0x3f778803	0.9669191
12	0x3f830c0a	1.0238049
13	0x3f8174cc	1.0113769
14	0x3f82ad70	1.0209179
15	0x3f73f749	0.952992
16	0x3f7b23e3	0.98101634
17	0x3f7fc1dd	0.99905187
18	0x3f7f456b	0.997153
19	0x3f7a079d	0.97667867

norm3.bias f4 [20]
0	0xbc2d0e9c	-0.010562565
1	0x3c9db3e2	0.019250814
2	0x3c2a3971	0.010389672
3	0x3c138b02	0.00900531
4	0x3b8c7135	0.0042859563
5	0x3a577da3	0.00082203205
6	0x3c7b6099	0.015342855
7	0xbc8ff31e	-0.017571982
8	0x3bcd49f7	0.006264921
9	0xbb0344f3	-0.002003011
10	0xbc201eff	-0.009773015
11	0xbc80bc67	-0.015714837
12	0x3ac2f88c	0.0014875098
13	0xbc8d01de	-0.017212804
14	0xbb815ab8	-0.003947582
15	0x3c109a39	0.008825832
16	0xbd0680ce	-0.03283768
17	0xbc95bd52	-0.018278752
18	0xbcb4c876	-0.022068243
19	0x3c25c3db	0.010117496

norm3.running_mean f4 [20]
0	0x4179300f	15.574233
1	0x40d5d5ff	6.6823726
2	0x41912b81	18.146242
3	0x4203b4cb	32.926556
4	0x418a3dfb	17.280264
5	0x00000004	6e-45
6	0x41455767	12.333838
7	0x421baed4	38.92073
8	0x41fb067d	31.378168
9	0x41614040	14.078186
10	0x4104dda1	8.304109
11	0x413f572b	11.958781
12	0x401409b2	2.3130918
13	0x416caa4d	14.791577
14	0x406a4b35	3.6608403
15	0x41203c3a	10.014704
16	0x4187cc25	16.97468
17	0x421979f1	38.369083
18	0x4179dc10	15.616226
19	0x420134bd	32.301502

norm3.running_var f4 [20]
0	0x43136c0d	147.42207
1	0x426234b5	56.55147
2	0x43d5b14a	427.38507
3	0x43f1599c	482.70007
4	0x42baedc8	93.46442
5	0x00000004	6e-45
6	0x4334ba8c	180.7287
7	0x4492506e	1170.5134
8	0x44cfc2b8	1662.085
9	0x42dd709c	110.71994
10	0x432a07d8	170.03064
11	0x430151e5	129.3199
12	0x41151178	9.316765
13	0x42b106db	88.51339
14	0x41a3dad5	20.481852
15	0x430436b0	132.21362
16	0x42937093	73.71987
17	0x44a50e94	1320.4556
18	0x439fc733	319.55624
19	0x43fd5463	506.65927

norm4.weight f4 [20]
0	0x3f78b7a7	0.9715523
1	0x3f7e1c60	0.99262047
2	0x3f81f553	1.0152992
3	0x3f6f2864	0.93421006
4	0x3f835c7c	1.0262599
5	0x3f75e13f	0.96046823
6	0x3f800400	1.0001221
7	0x3f82db44	1.0223165
8	0x3f8170de	1.0112569
9	0x3f80c41c	1.0059848
10	0x3f749a22	0.9554769
11	0x3f77f89e	0.96863735
12	0x3f82a71f	1.0207251
13	0x3f776e7d	0.96652967
14	0x3f8239aa	1.0173848
15	0x3f81c473	1.0138077
16	0x3f8437c3	1.0329517
17	0x3f7f9845	0.9984172
18	0x3f821433	1.0162414
19	0x3f7faa67	0.9986939

norm4.bias f4 [20]
0	0xbc80645e	-0.015672859
1	0xbcc5e74b	-0.02415814
2	0xbce3e69e	-0.027819928
3	0x3cc028de	0.023456987
4	0xbd43e9b0	-0.047830284
5	0xbcea7fd4	-0.028625406
6	0xbb49c4f5	-0.0030787562
7	0xbd11f97a	-0.03563831
8	0xbce28432	-0.027650926
9	0xbca7c665	-0.020480344
10	0xbc859389	-0.016305702
11	0xbc80376a	-0.015651423
12	0x3b60eef6	0.003432212
13	0x3c304fd0	0.010761216
14	0xbca51660	-0.02015227
15	0x3c697070	0.014247999
16	0xbd1bf4bd	-0.038075197
17	0xbd26425f	-0.04059064
18	0xbd7333e6	-0.059375666
19	0xbd26c13a	-0.04071162

norm4.running_mean f4 [20]
0	0x4144fe08	12.312019
1	0x40b08b72	5.517022
2	0x4161f95e	14.123381
3	0x41c6e7ff	24.86328
4	0x41564d9f	13.39395
5	0x3a61dc5d	0.00086159055
6	0x413121f9	11.070794
7	0x41ea7f47	29.312147
8	0x41bf6e8d	23.92898
9	0x413fb823	11.982455
10	0x40cee4c0	6.4654236
11	0x410fb0f3	8.9807005
12	0x3fe59707	1.7936715
13	0x413a338b	11.637584
14	0x403cbe76	2.9491248
15	0x40fe7e90	7.9529495
16	0x4154d5f8	13.302238
17	0x41e8e51a	29.111866
18	0x413d11d8	11.816856
19	0x41c33bb8	24.40416
