best_model_1.pth (torch, 45284 bytes, 25 tensors)

conv1.weight f4 [20, 1, 3]
000000 36 4d 6e 3d ac 55 09 3f ce d3 f9 be 13 64 dc 3d
       0.058179103 0.5364635 -0.48794407 0.10761275
000010 28 1b 94 bd 16 bf 02 3e 70 ca bc 3e 6c ed 55 3e
       -0.07231742 0.12768206 0.36873198 0.2089135
000020 d0 5a 62 bc 9a 06 d6 be eb 63 8c 3e 56 d2 b0 3e
       -0.013815597 -0.41801912 0.2741998 0.34535474
000030 8e 27 c6 b8 15 4c c8 b8 f8 32 c4 b8 6e 55 4c ba
       -9.4487434e-05 -9.5509145e-05 -9.355502e-05 -0.00077947124
000040 00 31 d6 ba 4b ec b3 bc 49 c8 c3 be 4b 3f b2 3e
       -0.0016341507 -0.02196326 -0.38238743 0.34813914
000050 5b 6c 69 3d 07 83 d7 3e c9 8b 22 3e 85 38 ec 3e
       0.0569881 0.42092153 0.15873636 0.4613687
000060 57 cb 12 be f5 c6 bb 3e 44 29 ed 3e c8 5b 48 bd
       -0.1433538 0.3667523 0.46320546 -0.048915654
000070 43 57 f8 3e fa 3c be be f4 3a a0 81 a1 54 b1 81
       0.48504075 -0.37155896 -5.885931e-38 -6.514097e-38
000080 49 8a 48 b9 58 fc 99 ba 3e cd 79 bb 79 72 88 bd
       -0.00019125002 -0.0011748178 -0.0038116719 -0.06662459
000090 03 21 9b ba 95 bc da bb 6e c7 0e be 84 da 22 bd
       -0.00118354 -0.0066753128 -0.13943264 -0.039759174
0000a0 b4 4b 8a 3d 7c 61 49 3e 34 c7 52 3d 28 e1 11 bf
       0.067527205 0.19666094 0.051459506 -0.56984186
0000b0 57 a3 93 bd 81 b5 08 bf 9a 91 24 bf 4c d8 f5 3e
       -0.07208889 -0.53401953 -0.6428467 0.48016584
0000c0 6e be e1 be 1a d0 fb 3e a5 44 25 be 0e 80 01 3e
       -0.440906 0.49182206 -0.16139467 0.12646505
0000d0 39 e7 eb 3e 0b ff be 3e 74 e1 e6 bd e8 24 50 3c
       0.46074846 0.37303957 -0.112734705 0.012704112
0000e0 44 3f 96 3e df c4 a5 3e 64 c8 85 3e 94 fd 6d 3e
       0.29345143 0.32376763 0.26129448 0.23241264

conv1.bias f4 [20]
000000 41 11 03 3f 5f 8c c6 be 29 15 db 3e 3f 82 75 be
       0.511982 -0.3877897 0.4278958 -0.23975466
000010 c5 d0 24 b6 9f 09 01 3d d0 8e 46 bf 60 a1 b1 3d
       -2.4559424e-06 0.031503316 -0.77561665 0.08673358
000020 6b 16 54 be c0 dc 68 bd 2f 11 06 b9 12 73 88 3d
       -0.20711677 -0.05685115 -0.00012785637 0.06662573
000030 df e8 0e 3e 31 06 12 bf fa 94 61 be d9 51 b5 be
       0.13956021 -0.570407 -0.22029486 -0.35414007
000040 53 5d 8d 3e ec 71 81 3e 71 7d c0 3e 5f 3d e6 3e
       0.27610263 0.25282228 0.37595704 0.44968697

conv2.weight f4 [20, 20, 3]
000000 fe 42 61 bc de a6 29 3e d1 41 64 bd 73 dc b3 3d
       -0.013748882 0.16567561 -0.05572683 0.08782282
000010 ef 1a ee 3c 21 e1 54 bd 26 64 63 3c 8e b6 08 3d
       0.029065577 -0.051972512 0.013878858 0.033377223
000020 55 98 2e be 3e a9 2d 3d 7b 5f e0 3c 6c ff bc bb
       -0.17050298 0.04239773 0.027389279 -0.0057677533
000030 00 ac e8 00 c0 a0 87 01 00 36 23 81 78 b2 d9 3a
       2.1367537e-38 4.9821833e-38 -2.9977115e-38 0.0016608974
000040 c9 85 58 bc 8b 78 5a 81 2b d6 ec bd ea b0 ad 3d
       -0.013215491 -4.0126762e-38 -0.11564287 0.08481009
000050 b4 63 30 bd f5 c3 ae bd 4c 1e 16 bc 87 86 75 3d
       -0.043063834 -0.085334696 -0.009162497 0.05994275
000060 6d 8d f1 bd d5 93 a5 3c 29 ac da bc 9e 98 65 bd
       -0.11794553 0.020212093 -0.02669342 -0.05605375
000070 23 93 07 3e 27 b4 a1 3d d9 52 3e 81 2a be 66 01
       0.13239722 0.078956895 -3.495693e-38 4.2380764e-38
000080 00 de eb 80 dd 25 55 3b 70 ec fa 3a 56 f7 a3 81
       -2.166098e-38 0.003252379 0.001914395 -6.0231653e-38
000090 c0 52 10 3c b1 17 95 3d 4a 56 33 80 bb 8a bb 3d
       0.008808792 0.072799094 -4.714565e-39 0.0915732
0000a0 83 bc be bc c9 43 54 bd 12 54 34 3e 80 9f 53 01
       -0.023283249 -0.051822457 0.17610195 3.8869015e-38
0000b0 8e 8e 35 80 51 34 e9 3c 5e ef 5c be 38 0f 83 3d
       -4.91842e-39 0.02846733 -0.21575686 0.06399387
0000c0 57 b7 a9 3d f7 fe 01 bd 76 e9 b1 bd 8e be ea 3c
       0.082869224 -0.031737294 -0.08687107 0.028655317
0000d0 59 f2 4f bd 3a ba 1c 3e 04 e6 e9 3d 91 79 8b 3c
       -0.05076823 0.15305415 0.11420825 0.01702574
0000e0 b4 c9 71 3d 4c 2f 3f 3d e4 81 99 bd 9e 60 00 bd
       0.05903025 0.046675965 -0.07495478 -0.03134214
0000f0 43 40 4c 3d 08 6c 08 3e 88 18 f5 3c 4d 78 a6 bd
       0.049865972 0.1332246 0.029918924 -0.08128414
000100 25 d1 5f bc 44 d8 9e bc cf 83 cb bd 4e 82 f7 3d
       -0.013660704 -0.019390233 -0.0993725 0.120854005
000110 38 b0 a9 bb 20 a2 1f ba a6 3c b7 3d 92 43 3e bc
       -0.0051784776 -0.0006089527 0.08947115 -0.01161279
000120 80 36 9c 81 80 36 9c 81 01 09 58 00 d8 e9 01 bd
       -5.7383553e-38 -5.7383553e-38 8.084754e-39 -0.03171715
000130 67 8d 29 bc 00 16 97 00 3a 28 9c 3c 09 91 10 3e
       -0.010348654 1.3875052e-38 0.01906215 0.14117827
000140 d6 4a c8 ba ea f9 1c bd 71 fc e8 bd 12 05 ce bc
       -0.0015281092 -0.038324274 -0.113762744 -0.025148902
000150 36 cd 17 bc c5 13 cf 3d 2e c3 59 bc 77 40 65 3d
       -0.009265235 0.101111926 -0.013291163 0.05596968
000160 e4 89 fb 3c 1d f6 e3 bc ca 7b 65 81 84 be b3 81
       0.0307054 -0.027827317 -4.2149472e-38 -6.602759e-38
000170 a6 71 9a 80 be d2 26 bd 0d 95 6c bc 68 4b b3 01
       -1.4183436e-38 -0.040728323 -0.014439833 6.586242e-38
000180 52 73 a7 bd 95 49 c4 bc f6 2c 6b 81 69 f2 34 bd
       -0.081762925 -0.023960868 -4.319494e-38 -0.044176493
000190 43 e0 0b 3e 79 33 b2 3b 98 d0 15 81 37 02 02 00
       0.13659768 0.005438265 -2.7516637e-38 1.84466e-40
0001a0 c7 d0 a7 3a 67 d7 b3 01 37 4c ff bb 59 ec 24 00
       0.0012803309 6.60633e-38 -0.007791068 3.390863e-39
0001b0 0b c7 b2 bd 75 7f 11 3e 41 76 04 bb 61 99 e4 bd
       -0.08729371 0.14208777 -0.0020212086 -0.11162067
0001c0 4e f9 c1 3c 99 f4 2b 3d 27 bd 23 be e6 ee af bc
       0.023678448 0.041981313 -0.15990125 -0.02147622
0001d0 58 77 a0 3b 06 8b 33 bd 34 e0 af 3c 56 11 2b bd
       0.0048970394 -0.043833755 0.021469213 -0.04176458
0001e0 42 6b 76 3d db 01 d3 bd 1d 33 df 3a 4f 7c 7d 80
       0.060160883 -0.10303088 0.0017028783 -1.152403e-38
0001f0 08 17 92 bd 6a f2 46 bc f1 00 b6 bc 33 65 9a bd
       -0.07133299 -0.012142757 -0.022217246 -0.075388335
000200 6a 2d 94 3a b8 21 10 3c b8 47 e6 bd af 24 8d 3b
       0.0011305038 0.008797102 -0.11244148 0.0043073515
000210 8e c9 ff 80 c0 8b a4 01 c0 8b a4 01 50 52 84 01
       -2.3490356e-38 6.0444617e-38 6.0444617e-38 4.8607255e-38
000220 4d 0b 11 bc 18 08 42 3a 03 40 01 3c a1 f6 46 01
       -0.008852792 0.0007401719 0.007888797 3.6543804e-38
000230 54 f4 93 3b c1 2e c8 3d b6 1e 40 be d9 ca 0d 3b
       0.00451521 0.097745426 -0.18761715 0.00216358
000240 36 18 cc 3b 40 8f 22 be cb 1a 67 3b d6 eb b1 bc
       0.006228472 -0.15874958 0.0035263773 -0.0217189
000250 e9 35 ce 80 b5 8f 32 3b 00 78 85 00 05 2a ba 00
       -1.8937452e-38 0.00272463 1.2257169e-38 1.7096476e-38
000260 dc 4b e7 00 13 17 06 81 40 1a 39 ba bb 9f dd 3a
       2.1241213e-38 -2.4628468e-38 -0.00070611015 0.0016908565
000270 d4 29 dd 80 0d 87 0a bb 35 4b 65 3b d3 f2 e5 3b
       -2.031065e-38 -0.0021137625 0.0034987454 0.0070174723
000280 88 01 0d be d5 4a 80 3b 33 c5 a5 81 8c e1 25 80
       -0.13770115 0.0039151707 -6.0894394e-38 -3.478824e-39
000290 eb 57 1b 80 03 0f 00 80 08 4b 0d bd 62 b4 30 ba
       -2.511097e-39 -5.385e-42 -0.034495384 -0.00067407463
0002a0 da e7 ea 3b 85 17 13 be 1b c3 7e 3b 44 0f 01 bb
       0.007168752 -0.1436444 0.0038873616 -0.0019692937
0002b0 ef 0b 0f be 6c a2 3a 3b a4 ba 9a 3c dc d6 55 bd
       -0.13969396 0.0028478159 0.018887825 -0.05220686
0002c0 12 d2 65 3b c8 be ae bd 1e 34 dd bd 6a b6 0d 3b
       0.0035067839 -0.085324824 -0.10800956 0.002162362
0002d0 c0 11 08 be 27 7c 85 bd 27 1d 5f bd 4b 2f c6 3d
       -0.13288021 -0.06517821 -0.05447116 0.09676989
0002e0 73 9e b7 3d 3c 9d 5a 3d bc 0b 80 3d 7c c8 7f 3c
       0.08965769 0.053372607 0.06252238 0.015611764
0002f0 ed 3e 9b ba 29 c4 a9 bd 6c 76 a6 3d 30 a8 3c bd
       -0.0011844315 -0.08289368 0.08128056 -0.046058834
000300 00 11 92 01 00 5f a6 00 80 27 3f 81 86 67 9c 3c
       5.3656324e-38 1.5278772e-38 -3.51095e-38 0.019092333
000310 fd cd 9c bc 0a b1 a2 3c 15 bc 76 bd 56 77 89 bc
       -0.019141192 0.01985981 -0.060237963 -0.016780537
000320 98 36 b0 bd 1c 1d f7 3d 69 25 89 3d 5d 71 00 bc
       -0.08604163 0.12066099 0.066965885 -0.007839528
000330 9b 91 ba 3d 96 32 06 be e2 5c 06 3e 7e 08 7f 3d
       0.09109803 -0.13105235 0.1312137 0.06226396
000340 f3 5c 48 3d 54 7f 1d 3d 92 c5 b2 01 22 58 a1 00
       0.04891677 0.038451508 6.567037e-38 1.4817131e-38
000350 52 d4 33 01 18 92 01 3d 88 96 0c bd d2 36 02 3d
       3.302944e-38 0.031633466 -0.034323245 0.031790562
000360 d9 3c 8c 3d 5e 21 e4 bd 38 82 8c 3d 53 a0 97 3c
       0.06847543 -0.11139177 0.06860775 0.018509066
000370 e6 64 e3 3d d4 99 4d 3c 8f 08 82 3d 4d 7d c4 3d
       0.11103229 0.0125488825 0.06349289 0.09594212
000380 b7 06 4b bd ff 85 dd 3d 5b 0a 52 bd 81 16 ef ba
       -0.04956695 0.10816573 -0.051279407 -0.001824096
000390 58 85 d6 3d a1 2b a2 3d bb 97 a0 3d 07 6f a1 3a
       0.10474652 0.07918478 0.0784144 0.0012316414
0003a0 8c 13 0c bd d5 0a 00 3e 76 41 22 3c 6f c7 dd bd
       -0.03419833 0.12504132 0.009903302 -0.108290546
0003b0 5a 77 22 3e 29 a8 d3 bd 4d 59 c0 3d 8b ba f3 3d
       0.15865842 -0.103348084 0.09392033 0.119008146
0003c0 5a 0c 90 3c 43 bd ef bd 27 85 bf 3b d8 41 25 3c
       0.017584015 -0.11706021 0.0058447304 0.010086499
0003d0 13 94 be bd ca 9b 66 3b 76 1c f3 3d 3b b2 9a 3d
       -0.09305587 0.0035188072 0.11870663 0.07553526
0003e0 90 41 b4 bd 26 40 c1 bd 37 05 52 bd 44 60 dc bc
       -0.088015676 -0.094360635 -0.051274505 -0.026901372
0003f0 c0 df 9f 01 00 e9 84 00 00 ff bd 01 1d 5d 17 01
       5.872844e-38 1.220587e-38 6.979354e-38 2.7801125e-38

conv2.bias f4 [20]
000000 4a af 4e 3d 1e f6 2c 3e f1 6f 37 bd d2 dc 35 be
       0.050460137 0.16890761 -0.04478449 -0.17760018
000010 31 56 78 be 78 f7 44 b8 8f 0d 30 3d a7 a5 19 bc
       -0.2425163 -4.6960515e-05 0.04298168 -0.0093778735
000020 37 01 e5 3c ea 6c 36 bd 88 06 67 bd 3d d3 90 bd
       0.02795468 -0.044537462 -0.056402713 -0.070715405
000030 b2 1b b6 bd 7f 5c 9f 3d 6a 80 7b 3d bb cb b2 bb
       -0.08892001 0.07781314 0.061401762 -0.0054564155
000040 ff 5f a1 bd a0 1b 1d 3d 20 e5 bf 3d 57 4b 87 3d
       -0.07879638 0.038356423 0.09369874 0.06606167

conv3.weight f4 [20, 20, 3]
000000 f8 a7 24 be fa e1 cd bc 50 18 b7 3c 29 bb 3d 3d
       -0.160797 -0.025132168 0.02235046 0.046321068
000010 95 46 39 be 02 47 06 be b9 58 01 3e 48 08 02 3d
       -0.18093331 -0.13113025 0.12631501 0.03174618
000020 9e 06 ce bd a8 03 a8 3c 4e 2f 13 be 0e 68 28 3d
       -0.10059856 0.020509556 -0.14373514 0.04111486
000030 19 3c 85 b9 26 5f 20 be c4 e5 19 3e 60 85 22 3d
       -0.00025412513 -0.15661296 0.15029055 0.039677978
000040 19 4b 8b 3d 84 a4 98 3c a1 17 60 3d 95 78 a1 bc
       0.06801433 0.018633135 0.054710034 -0.019710818
000050 dd b1 fe bc 65 a6 27 3c 8f 34 fc bd b1 8b 0b be
       -0.031090671 0.010232543 -0.12314712 -0.13627507
000060 4a c0 8f 3d 3f cf dc bd 79 7c 7f bd ff 49 61 bd
       0.07019098 -0.107817166 -0.062374566 -0.05500221
000070 25 a1 98 bd ee c5 85 3d 4c 90 fb 3d 8a 17 00 be
       -0.07452611 0.06531893 0.12283382 -0.1250898
000080 16 43 7d bd 5c bd 0a 3e f6 e5 32 be f8 94 b2 bd
       -0.061831556 0.13548797 -0.17470536 -0.0871982
000090 6d 69 2e be a8 68 52 be 4a fe 62 3d 4d a0 94 bd
       -0.17032404 -0.20547736 0.05541829 -0.072571374
0000a0 54 1b 08 be ac 75 39 bd a3 6c 11 be f2 7b ee bd
       -0.13291675 -0.045278236 -0.14201598 -0.116447344
0000b0 c4 94 3d be c8 b1 41 3d d4 1f b4 bc 22 a0 80 3d
       -0.18513781 0.047288686 -0.021987833 0.06280543
0000c0 c1 ab c1 bd bb 21 55 be dd 60 fa bd 64 a9 fe 3c
       -0.094565876 -0.20813648 -0.122255065 0.031086631
0000d0 18 8b 4a 3d bd 07 c4 bd 25 64 de 3c 3d 26 20 be
       0.049449056 -0.095717885 0.027147362 -0.15639587
0000e0 5d 9a 41 bc 5d 12 43 bd 2b 30 2b bd 08 60 a0 3d
       -0.011816588 -0.047624934 -0.041793983 0.078308165
0000f0 f3 5a 93 3c e8 cb 92 3d 57 c8 02 3e 08 d8 00 bd
       0.017987704 0.07167798 0.12771736 -0.031456023
000100 71 b6 44 3d ea 0a 89 3d bd 79 dd bd 86 fd a4 bd
       0.048025552 0.06691535 -0.10814235 -0.08056168
000110 a5 c4 f3 bc eb 2a a6 bd 55 b7 cb bc 68 d5 73 bb
       -0.029756853 -0.08113655 -0.024867693 -0.0037206057
000120 5c 68 32 3d 44 72 4d bd 3b b0 4d 3d 99 3d 57 bd
       0.043556556 -0.0501578 0.050216895 -0.05254898
000130 0d 1c 1b 3e 80 11 d7 b9 c9 9b ca 3d 4e 7d 5e bd
       0.1514742 -0.00041021034 0.09892995 -0.05431872
000140 69 be 8c bc 34 aa 92 3d 0e 7b 3d bd 1e 8e 7d bd
       -0.017180638 0.0716137 -0.046259932 -0.06190311
000150 76 be 8d bd 83 34 64 bd f6 6a 32 3d af 78 31 3e
       -0.06921093 -0.05571414 0.043559037 0.17331193
000160 ef 57 6f 3d 6d ff 8f bd 71 9d ae bd 55 f0 aa bb
       0.05843347 -0.070311405 -0.08526123 -0.005216638
000170 6d 45 56 bd e8 58 68 3d 59 71 4a bc 09 02 03 be
       -0.052312303 0.056725413 -0.012356126 -0.12793745
000180 97 77 8e 3c 02 c1 7f be 97 8b 0e 3e 0f eb d6 3d
       0.01739101 -0.2497597 0.13920437 0.104940526
000190 c5 33 52 3c a2 d1 4a bc 4c ff 00 3e d1 ae c5 bb
       0.012829726 -0.012379082 0.12597388 -0.0060328026
0001a0 a7 e1 e7 bd 07 d9 30 3d 82 95 64 3d 14 ef b5 3d
       -0.11322337 0.043175723 0.055806644 0.08883491
0001b0 01 fe 1f 3d 4d 13 88 bd d0 f5 31 bd c8 f1 91 bc
       0.039060596 -0.06644306 -0.043447316 -0.017815486
0001c0 66 82 00 be a7 c2 59 3d 0e ad 44 bd 35 f1 da 3c
       -0.12549743 0.05316415 -0.0480166 0.026726345
0001d0 39 fe a5 bd 0f 2c d0 bc 4a 84 7e 3c 23 01 74 3c
       -0.0810513 -0.025411634 0.01553447 0.014892849
0001e0 77 41 35 3e af 5a 1d 3d c4 08 0e 3d 52 9c 0b bc
       0.17700754 0.03841656 0.03467633 -0.008521156
0001f0 28 82 5c 3d 23 b0 ed 3c 38 e3 a3 3a 23 eb ef bd
       0.053835064 0.029014653 0.001250363 -0.11714771
000200 85 55 bb bc 8b 56 0d 3d a1 71 11 be f7 6d b3 bc
       -0.022867927 0.034506362 -0.14203502 -0.021903021
000210 99 48 5b bd f2 e4 12 be b5 66 fa 3c 68 ba fd 3b
       -0.05353603 -0.14345148 0.030566553 0.0077431686
000220 4c 12 3e 3e 9c 3f db bc 42 2b 16 3e ec 68 c0 bd
       0.18561667 -0.02676373 0.14664939 -0.09395012
000230 07 2b 8e bd 55 c5 00 be 68 b0 1c be 97 1d 5b 3d
       -0.069418006 -0.12575276 -0.15301669 0.053495016
000240 e9 59 10 3d 8b 68 0c be 23 33 a1 bd 16 38 23 3e
       0.035241995 -0.13711755 -0.07871082 0.15939364
000250 0a b6 46 be 3d fc b8 bd b2 3b 3e be e8 29 90 bd
       -0.1940538 -0.09032486 -0.1857746 -0.07039243
000260 8d 99 a9 bd c9 32 ce 3d ab c2 dc bd e1 a6 14 bd
       -0.082812406 0.1006828 -0.107793175 -0.03629196
000270 18 f7 8c bd 05 c8 8b be 67 84 db 3d 48 d5 05 bd
       -0.06883067 -0.2730104 0.10718613 -0.032674104
000280 83 60 0f be c7 e4 98 bd c2 76 98 3c a9 22 f6 bb
       -0.1400166 -0.07465511 0.018611316 -0.007511456
000290 ec 2d 35 be 5b 4c 2d bd 5f e9 2a bd 89 9e 44 3d
       -0.17693299 -0.042309146 -0.041726466 0.048002753
0002a0 70 cb 0d 3d 46 65 d5 3d d9 5b 85 bd 0e 13 a9 3d
       0.03461784 0.10419707 -0.06511659 0.082555875
0002b0 40 2a 89 bc a2 b6 c9 bd 08 3e a9 bd 74 57 ab bd
       -0.01674378 -0.098492876 -0.08263785 -0.0836629
0002c0 52 d8 31 3d 91 2d d6 bc 25 87 12 be 5d f5 1b 3d
       0.04341919 -0.026144775 -0.14309366 0.038075794
0002d0 68 cd ac ba f1 ba 97 bc eb ba 89 3d e7 3b 80 3d
       -0.0013183774 -0.018521758 0.06725105 0.062614255
0002e0 3e bf 4a 3c ec a4 15 be 5a d2 c9 3c cb 9a 2a 3d
       0.012374697 -0.14613694 0.024636436 0.04165153
0002f0 39 a6 fb 3d e7 c2 11 3d 9e 5d 2e 3e ad 79 79 3d
       0.12287564 0.035586264 0.170279 0.060907055
000300 10 91 1e 3c 72 4d 16 3e b2 97 9f 3e a5 66 66 bc
       0.00967814 0.1467798 0.31170422 -0.014062558
000310 8f 81 15 3d a2 3f a5 bc 4e a9 b3 bd 86 53 03 3d
       0.03650051 -0.020171944 -0.08772527 0.032062076
000320 32 c8 0b 3e ac 08 e9 3d dc e7 01 3e 13 c5 91 bd
       0.13650587 0.11378607 0.12686104 -0.07117667
000330 33 97 83 bc f6 f0 92 bd a4 5b 13 3d f8 b0 f9 3c
       -0.016063308 -0.07174866 0.035976067 0.030479893
000340 d8 f5 86 3d d2 ba 48 3e 50 60 e0 3d c2 e7 c4 bc
       0.0658986 0.19602516 0.1095587 -0.024036292
000350 14 df aa 39 3d 8f 30 bd 67 13 26 3e 2d 22 3b 3d
       0.00032591133 -0.043105353 0.16218339 0.04568689
000360 85 f5 d0 bc 0b ce 55 3c 0b 26 a3 3d b1 1c 8a 3d
       -0.025507698 0.013049613 0.079662405 0.06743754
000370 46 f8 e6 3d bc b6 9e bd b2 8b a4 bc bb b9 34 bd
       0.11277823 -0.077496976 -0.020086143 -0.04412244
000380 79 81 ff 3d a7 03 3b bc e5 94 43 3e c5 ca 9d bd
       0.12475867 -0.011414445 0.19099768 -0.07704691
000390 7a aa a3 3d 18 02 cc 3d 0f 45 0c 3e c1 7c 90 bd
       0.079915 0.09961337 0.13698219 -0.07055045
0003a0 f7 b3 bb 3d c4 fa 53 bd 80 56 65 bc 21 8d 28 3e
       0.09165185 -0.05175282 -0.013997674 0.16460086
0003b0 87 88 22 be 02 56 f9 3c d1 c9 0c 3e 9a 72 bc 3b
       -0.15872394 0.03043652 0.13748862 0.0057509663
0003c0 16 2b 0d be 47 b9 57 bd 99 ec 69 3d 92 22 28 bb
       -0.13785967 -0.05266693 0.057110403 -0.002565537
0003d0 e7 b3 11 bd 19 26 c0 3d fb f8 3d bd 29 e6 0f be
       -0.03557196 0.093822666 -0.046380024 -0.14052643
0003e0 cc 59 25 3e be 99 ba bc d1 37 19 be 19 2b f5 3d
       0.16147536 -0.022778388 -0.14962699 0.11971111
0003f0 48 8f 5b bd 28 0e b1 bc 6c f8 4a 3e e4 90 3f 3c
       -0.05360344 -0.021613196 0.19821328 0.011692259

conv3.bias f4 [20]
000000 42 e7 23 3e 25 21 37 3e 78 67 74 3d 46 88 7f 3d
       0.16006187 0.17883737 0.059668988 0.06238582
000010 09 c0 c7 3b 26 1c ab bd bb 39 9b 3d ad 6c 7f 3d
       0.0060958904 -0.08354978 0.075793706 0.0623595
000020 83 06 3f 3e 56 05 9d 3d 72 a5 43 bd 9e f0 1d bd
       0.18654828 0.076670334 -0.047765203 -0.03855955
000030 a9 88 64 bd 46 7a a7 3d c2 d9 1f 3e cd 66 fa 3d
       -0.05579439 0.08177619 0.15610412 0.12226639
000040 4f 4d b0 3d ff a5 d8 3d 31 f2 2f bd 55 8c 97 bd
       0.086084954 0.10578536 -0.04295558 -0.07399813

conv4.weight f4 [20, 20, 3]
000000 f0 1d a8 80 d4 84 f1 80 2f e0 2c bd a1 6d 13 01
       -1.5439103e-38 -2.2180004e-38 -0.042205986 2.707829e-38
000010 ce 18 64 01 80 24 44 bd 94 98 66 80 5d 9d 80 00
       4.1894783e-38 -0.04788637 -9.421955e-39 1.1811395e-38
000020 59 68 a0 3c 30 1c 37 01 60 5d 60 81 79 a4 00 3e
       0.019581007 3.3632015e-38 -4.1209296e-38 0.12562741
000030 4a 68 42 81 80 1d 20 00 0f be e5 ba f0 fd 71 81
       -3.5706996e-38 2.949318e-39 -0.0017527955 -4.44469e-38
000040 84 4d da 00 fe 00 9b 3d d0 7c 06 81 f8 8e 34 81
       2.0047946e-38 0.075685486 -2.4701462e-38 -3.3163354e-38
000050 1b 30 fd 3d 7f 46 bc 80 8a 4f a1 01 b4 08 37 3d
       0.12362691 -1.7290363e-38 5.925619e-38 0.044686034
000060 44 ae 00 81 e3 b3 e0 00 fe 9a 47 bd 84 a8 29 81
       -2.3634916e-38 2.0635682e-38 -0.048731796 -3.1161302e-38
000070 56 d7 ad 80 00 e4 d7 bc 81 0e 02 80 64 0c ab 01
       -1.5964789e-38 -0.026353836 -1.88874e-40 6.283326e-38
000080 e5 fa 58 bd 81 ee 3a 80 1a b7 aa 00 7f 1c 29 3b
       -0.052973647 -5.412018e-39 1.5677719e-38 0.0025804339
000090 ef 34 4c 00 b8 c7 7b 01 a6 e0 ce 3d f4 17 74 00
       6.998487e-39 4.624471e-38 0.10101442 1.066151e-38
0000a0 32 69 93 81 7a c7 ad 3d 38 28 3d 81 2c e9 a8 01
       -5.415022e-38 0.08485313 -3.4742673e-38 6.204804e-38
0000b0 26 cc fc bd b4 cd 9b 80 5e 8d e6 00 c7 19 2b bd
       -0.12343626 -1.4308294e-38 2.1172877e-38 -0.04177263
0000c0 97 fb 69 81 bc af 49 00 22 5a 98 bd 83 45 41 81
       -4.2975848e-38 6.767033e-39 -0.074390665 -3.5498374e-38
0000d0 b1 9d 24 00 03 2a 9f bd d0 5d 2d 81 96 bb bb 01
       3.362647e-39 -0.07771685 -3.184239e-38 6.8962124e-38
0000e0 5d 24 dc 3d f8 c8 5b 01 ce c6 00 01 80 5b ad 3c
       0.10749123 4.0368135e-38 2.3652522e-38 0.021161795
0000f0 4c 23 e2 3b 8d 87 80 bc 7f 28 04 3d 7d cf 6d bd
       0.0069011804 -0.015689636 0.032265183 -0.058059204
000100 3d f9 75 3d 66 87 a4 3b 88 ef 08 bd 35 17 ac bd
       0.060052145 0.0050210236 -0.03343156 -0.08402864
000110 5d e0 61 3d cc 15 8a bd 44 07 16 bd 92 a7 b1 3c
       0.05514561 -0.06742439 -0.036628023 0.021686349
000120 9c ea ea bc 3f 89 08 be 79 84 fa 3d 18 bf 61 bd
       -0.028676324 -0.13333605 0.122322984 -0.05511388
000130 0d f2 c0 bd cb de 8a 3d 1c c7 32 be 14 39 8e bd
       -0.094211675 0.06780776 -0.17458767 -0.069444805
000140 7e 7f 34 bd f1 ee 21 3c c0 36 40 be 7e c3 b5 3d
       -0.0440669 0.009883628 -0.18770885 0.08875178
000150 89 ba 9d bd 0f a8 89 3d 43 e3 7e 3a 4b 06 b0 bd
       -0.077015944 0.06721508 0.00097231957 -0.0859495
000160 44 04 a8 3d c2 f0 0a 3e 99 cc a3 bd 35 db c5 bc
       0.082039386 0.13568404 -0.07998008 -0.024152378
000170 16 16 c7 bd dc 54 ea 3c c4 c3 61 bd 67 40 c2 3b
       -0.097210094 0.028604917 -0.055118337 0.0059280875
000180 50 4f 7f 3d 2d a2 b1 bd 45 be 45 3e a8 5f 03 be
       0.062331498 -0.08673511 0.19310863 -0.12829459
000190 c8 7e 80 3d 2c e9 46 3d 5d 5a 69 bd 70 9a e2 3d
       0.062741816 0.048562214 -0.056970943 0.11064613
0001a0 fe 60 bb bd 2e ca 91 3d 2e 6d 1b be 03 8b 1a be
       -0.09149359 0.07118641 -0.15178367 -0.15092091
0001b0 d4 f7 90 bd b6 ae 37 3b 78 fb b0 bd a5 fa 6b 3b
       -0.070785195 0.002802772 -0.08641714 0.003600755
0001c0 07 4a 81 3b 9e 47 da bd 00 17 38 bd eb 28 c2 3b
       0.0039455923 -0.10658191 -0.04494381 0.005925288
0001d0 e6 74 ab bd 49 ab e7 bc a4 3a a1 bd 30 d6 27 bd
       -0.08371906 -0.028279917 -0.07872513 -0.04097575
0001e0 72 3b bd bd bc 26 48 3e 36 62 22 3c ce b5 8d bd
       -0.09239854 0.19546026 0.009911111 -0.06919442
0001f0 32 91 e6 bd 7a a5 05 3d b1 d7 f7 ba 24 77 ee bd
       -0.112581626 0.032628514 -0.0018908886 -0.11643818
000200 05 5f 8f bd a1 b7 2c bd c2 f3 8c 3d 0e fc d6 3d
       -0.070005454 -0.04216731 0.068824306 0.10497294
000210 f3 8e 97 3d 04 05 e2 bd c6 66 e6 bd 4d f5 41 bd
       0.07400312 -0.11036113 -0.11250071 -0.047353078
000220 d4 12 26 be 6a a5 48 bc c7 c2 97 bd 4e 1b 26 3e
       -0.1621812 -0.012246469 -0.07410198 0.16221353
000230 6a 94 91 bd 6b 06 11 be 0b 6c 6b bd da c9 9b bd
       -0.07108386 -0.14162605 -0.057476085 -0.076068595
000240 5d ac 06 be f4 00 1c bc 89 5f 0e 3e 92 80 00 be
       -0.13151689 -0.009521712 0.13903631 -0.12549046
000250 04 9d 26 3e e8 8d 11 3e 51 64 a9 3c 7d 95 26 be
       0.16270834 0.14214289 0.020677717 -0.16267963
000260 d8 f1 e3 3d 0b 8d b2 bd c7 0d 49 bd 29 84 34 bd
       0.111301124 -0.08718308 -0.049085405 -0.04407135
000270 54 7e 13 be 94 74 dc 3d 2c 13 5c 39 92 f9 a9 3c
       -0.14403659 0.10764423 0.00020987977 0.020748887
000280 dd 84 d4 bd 76 9e 9f bd 2f 6e 0e 3d 39 3a 33 3e
       -0.10376904 -0.07793896 0.034773048 0.17502679
000290 9c 2e b9 bd c2 c8 25 3d 57 4e 1e be dd 33 0a 3d
       -0.09042093 0.04047466 -0.15459572 0.033740867
0002a0 04 01 0b be d6 b5 91 3d 4e 43 1b 3e 7f 5f 70 bd
       -0.13574606 0.071147606 0.15162393 -0.058684822
0002b0 47 49 8e 3d 8c af 7b bd 8f f4 98 bd dd e9 3e be
       0.0694757 -0.06144671 -0.07468521 -0.186439
0002c0 57 f3 59 bd e7 0f 1e be ed 72 3d be 9e 47 e3 bc
       -0.053210583 -0.15435754 -0.18500872 -0.02774411
0002d0 2a 27 2b bd 73 2f 0c bb c6 5f 98 bc 0a 78 da 3d
       -0.041785397 -0.0021390587 -0.018600356 0.10667427
0002e0 ee db a6 3c 2c 78 e3 3c e0 89 8a bd f9 80 24 3d
       0.020368543 0.027767263 -0.06764579 0.04016206
0002f0 6a 85 af 3c 00 bc 5a 3d c1 d0 0e 3d a8 8e 3c bd
       0.021425921 0.053401947 0.034867052 -0.046034485
000300 89 28 18 be 43 19 7b 3d d3 c2 69 bc 1f 29 4e bc
       -0.14859213 0.06130339 -0.014267641 -0.012583046
000310 69 e3 af 3d 5f f5 90 3b ab a7 d9 3d ae 59 bc 3d
       0.08588297 0.0044237818 0.10627683 0.091967925
000320 fd 74 16 3c a8 ba 2c 3c 85 a5 95 3c 3a 35 5a bd
       0.009183166 0.010542549 0.018267402 -0.053273417
000330 a3 64 6e bd 36 69 74 3d f6 22 89 3c e2 82 eb 3d
       -0.058201443 0.05967065 0.016740303 0.11499573
000340 ea 4a 0f 3d c9 0d 5e bc 9e ff 80 bc 93 3d 9a bd
       0.034983553 -0.013553091 -0.015746888 -0.075312756
000350 ec b7 9e bc 46 86 9a bd 5b 72 02 bd 23 6c 94 bd
       -0.01937481 -0.07545142 -0.03184734 -0.07247188
000360 9a c2 c1 bd 7f 94 13 3e ab d1 f3 bd 4c fd 2d 3d
       -0.094609454 0.14412116 -0.11905225 0.04247789
000370 63 3d 58 bd 99 4f fa 3c 84 da 61 bc 2d 5e 2f be
       -0.052792918 0.030555533 -0.013785008 -0.17125769
000380 22 01 74 3c f2 e1 1d be e8 5d b0 3d 7f fa b1 3c
       0.014892848 -0.15418223 0.08611661 0.021725891
000390 60 b1 4b bb 4e 04 d8 ba aa 3b b4 bc 3c 60 1c 3c
       -0.0031081066 -0.0016480775 -0.022001106 0.009544428
0003a0 5f 99 65 3d c8 24 84 bd 1d aa 58 3c 5c 7d 62 3c
       0.05605447 -0.06452328 0.013224152 0.013823833
0003b0 94 04 d9 bb 1f 98 9d 3d a1 be 62 bd 43 71 03 bd
       -0.00662286 0.076950304 -0.05535758 -0.032090437
0003c0 45 80 d2 bd 28 0a 56 3c 4c 53 11 be 59 6f 34 3d
       -0.10278372 0.013063945 -0.14191931 0.044051502
0003d0 c2 37 3f bd 71 24 41 bd 04 2a 6b 3c 9c 58 82 bd
       -0.046684034 -0.047153894 0.014353279 -0.06364557
0003e0 c0 84 03 be de c9 8b bd 39 e8 87 bd 31 00 96 3c
       -0.12843609 -0.068256125 -0.0663609 0.018310638
0003f0 ba bf b3 bd e4 85 50 3d 06 5a 2c bc 5e 0b 7d be
       -0.08776803 0.050908938 -0.01051951 -0.24711367

conv4.bias f4 [20]
000000 9f e2 07 be 6a 60 c6 3c ef 07 0a 3e 2d 08 d5 bd
       -0.13270043 0.024215896 0.13479589 -0.1040195
000010 57 e2 cc 3d b1 00 9a bd f0 ca 99 3e 58 47 c9 bc
       0.100041084 -0.07519663 0.30037642 -0.024570152
000020 b3 4a 85 bd 28 a9 09 3e 55 c9 ac bd 0f 6a 5f bb
       -0.06508388 0.13443434 -0.084368385 -0.0034090315
000030 37 f4 5b bd 64 be 41 bd 81 97 b8 3c d8 87 13 3d
       -0.0536997 -0.04730071 0.02253318 0.036018223
000040 27 09 33 3d 98 7e 7d 3a 0d 6e c8 3d 76 a7 b9 3d
       0.0437099 0.0009670048 0.097866155 0.09065144

conv5.weight f4 [1, 20, 3]
000000 50 85 0e be 66 50 eb bc 8c 2e 0b bd 86 d6 d1 bd
       -0.13918042 -0.02872486 -0.033979937 -0.10245995
000010 53 ba 8e 3d 0f 7a 31 3e 73 d5 e8 bd 8b 1e ca 3d
       0.06969132 0.17331718 -0.11368837 0.09869107
000020 fd 64 f6 bd 86 cc b8 3d a1 fa a4 bd e9 40 fd bd
       -0.12030981 0.09023385 -0.08055616 -0.12365896
000030 bd 7e f6 3d 77 d2 ea bd eb fa a8 3c 69 c5 d9 bd
       0.12035892 -0.11465924 0.02062746 -0.10633356
000040 85 1d 09 3d dc 7b 94 3d 29 8b 05 3e 61 57 0c be
       0.033475418 0.07250187 0.13041367 -0.13705207
000050 78 34 99 3d fa 88 61 bc 8d 25 c8 bc 84 69 d8 bd
       0.07480711 -0.013765568 -0.024431968 -0.105670005
000060 73 8f b1 bd 16 75 d4 3d 19 d3 67 bc 79 d3 ea 3d
       -0.08669939 0.10373895 -0.014149451 0.114661165
000070 77 3b 9f bd 35 a9 fe 3d df f3 17 3e b2 20 67 3c
       -0.07775014 0.124346174 0.14839123 0.014106916
000080 bb 01 97 3d 10 61 10 be db 8f 94 bd 2d 83 38 3d
       0.07373377 -0.14099526 -0.07254001 0.045046974
000090 12 64 4b 3d cf 94 bf 3c c7 da 09 be 2b 62 5e bb
       0.04965598 0.023386387 -0.13462363 -0.0033933024
0000a0 f7 dc ae bd f4 3c 46 3b a3 a6 d0 bd f9 39 01 be
       -0.085382394 0.0030248733 -0.101880334 -0.12619771
0000b0 09 fb 9f bd c3 6d 96 bd dd 06 cc bd 5f a1 61 be
       -0.07811553 -0.07345154 -0.099622466 -0.22034214
0000c0 14 67 d3 bd 60 a9 d6 3d bf 8b 9c 3d 2e 23 e6 bd
       -0.10322395 0.104815245 0.07643842 -0.11237179
0000d0 e6 f0 ef bd 92 db 1b bd a7 10 0a 3e 95 d7 c7 3d
       -0.117158696 -0.038051195 0.13482915 0.09757916
0000e0 24 25 8d 3b c4 8f db bc 7b 01 d5 bd 07 b8 eb bd
       0.004307406 -0.026801951 -0.10400673 -0.1150971

fc1.weight f4 [1024, 2]
000000 b1 3e e7 3c 90 f5 69 bb 54 73 1d 00 18 70 2b aa
       0.028228136 -0.0035699345 2.704601e-39 -1.5226741e-13
000010 33 b5 d8 83 ba 44 ef ac e3 4f 08 bd a9 a0 47 be
       -1.273694e-36 -6.8004187e-12 -0.03327931 -0.1949488
000020 49 b2 4e bc 1a bf 84 be ba c9 bb 3d 62 8e 99 be
       -0.012615749 -0.2592705 0.09169336 -0.29991442
000030 1b 1e 81 be a0 51 d6 be 76 e4 1a be 9e 2b de be
       -0.2521828 -0.4185915 -0.15126213 -0.43392652
000040 97 e1 41 3e 83 c9 04 be 02 b1 5c 3b 23 b4 1b 3f
       0.18933712 -0.12967496 0.003367484 0.6082174
000050 5e 58 8a 01 50 0f 88 1a 4a e0 1c be ae 54 f2 bd
       5.0819995e-38 5.627302e-23 -0.15319934 -0.118325576
000060 f6 d0 43 bd 55 3d ef be 59 2a 69 3e 14 0b cb 3e
       -0.047806703 -0.4672648 0.2277006 0.3965689
000070 e4 62 b4 be d0 d4 b1 3e 0d 14 58 b7 bd 7a d3 b6
       -0.35231698 0.34732676 -1.2879272e-05 -6.3025786e-06
000080 bf c9 bf 3e 27 9c fa bc 81 42 d2 ba 12 d6 28 3c
       0.37458608 -0.030592037 -0.0016041548 0.010304945
000090 85 96 9f be 22 6f b5 3d c6 03 ba 3e 3c 16 8d 3e
       -0.31169525 0.088590875 0.36331004 0.27556026
0000a0 1a 3d 17 03 90 09 7a 88 04 65 91 3e a8 57 27 3e
       4.4445053e-37 -7.524288e-34 0.2839738 0.16342032
0000b0 d2 d0 11 bd 6f 90 ed 3e c6 12 41 b7 7a 36 8f 37
       -0.035599537 0.46399257 -1.15080675e-05 1.7072296e-05
0000c0 a3 82 c7 3c 57 8b 87 3d 9a 36 99 81 d6 57 0a 00
       0.024354285 0.06618374 -5.6281673e-38 9.49865e-40
0000d0 6c 3a 84 3e 78 49 8e 3e cc 02 8d 3c 66 ae fe 3d
       0.25825822 0.27790427 0.017213248 0.124356076
0000e0 97 75 e8 3e a6 2f 83 3e 13 01 ca bb e5 58 42 be
       0.45402214 0.2562229 -0.006164679 -0.18979223
0000f0 63 c2 77 bd 35 ad e8 be 33 91 af be 01 71 c2 3e
       -0.060488116 -0.45444646 -0.34290466 0.3797684
000100 8b 55 41 3e d2 3a 10 be 12 64 78 37 b1 1d 6c b7
       0.18880288 -0.14084938 1.4805251e-05 -1.4073609e-05
000110 b3 e2 83 be db 50 e7 bd 8a e5 5b a3 45 79 3a a3
       -0.25758895 -0.11294719 -1.19206206e-17 -1.010876e-17
000120 23 c2 06 3e 43 f2 bc 3e 21 c7 37 bd 0e 51 11 3d
       0.13159995 0.3690358 -0.04486764 0.03547769
000130 b8 20 fc bb 96 19 0f bd 77 7e 26 3e 86 8f 93 3e
       -0.00769433 -0.03493651 0.1625918 0.28820437
000140 72 05 1c 13 d4 02 5a ad 07 77 52 37 9b 42 c3 b7
       1.9692653e-27 -1.2392493e-11 1.2544689e-05 -2.3276827e-05
000150 e9 e3 ab 32 9c 61 ab b5 98 50 b2 be 3e 12 02 3f
       2.0010662e-08 -1.2768901e-06 -0.34827113 0.50809085
000160 07 b1 37 3e b9 a8 14 3f 88 cb 11 b7 60 8b b6 b4
       0.17938624 0.5806995 -8.690062e-06 -3.400155e-07
000170 ae 03 c1 3e cb e6 f9 be 33 cc 4b b9 6f de d2 38
       0.3769812 -0.48808894 -0.00019435659 0.00010055012
000180 4f 1b 36 b9 59 6e 48 38 42 7c c8 be 2a 51 19 3f
       -0.00017367046 4.7786485e-05 -0.391573 0.5988947
000190 78 65 dd b8 47 0a 38 3c 30 49 0c 3e 17 70 78 bd
       -0.00010557001 0.011232919 0.13699794 -0.060653772
0001a0 40 8b 28 be c1 6b fc be ff d5 78 3e a0 de 4f bd
       -0.1645937 -0.4930096 0.24300383 -0.05074942
0001b0 31 b8 20 bd 53 84 ae bd a2 63 91 11 f2 bd 92 a8
       -0.03923816 -0.085213326 2.293837e-28 -1.6291632e-14
0001c0 de 7a c0 be 26 d0 85 be 00 95 6c 3d 2e 4e 7f 3b
       -0.3759374 -0.26135367 0.057759285 0.003895651
0001d0 dc b1 01 bd be 5c 0d 3f ef 09 a6 3d fc 06 a3 3e
       -0.03166376 0.5521964 0.081073634 0.31841266
0001e0 2c 22 06 bd 7e 14 b9 3e 77 fc 0a 2b 40 07 2d 28
       -0.032747433 0.36148447 4.9377814e-13 9.605001e-15
0001f0 30 49 14 39 cd 0c a0 b8 a5 50 17 3d f9 02 09 3f
       0.00014141644 -7.631779e-05 0.036942143 0.5352016
000200 01 9e f9 3d 09 ed 93 3d 3c 12 65 ab 75 33 c6 a9
       0.1218834 0.07222945 -8.138245e-13 -8.801893e-14
000210 90 1f 39 ad 19 3d 26 ad 69 38 41 3e ad 61 9a 3d
       -1.0523041e-11 -9.449574e-12 0.18869175 0.075381614
000220 bc ee c0 3d e6 98 0f bd 93 aa e3 bd 1c 15 f2 be
       0.09420535 -0.035057925 -0.11116519 -0.4728173
000230 9a b8 1d b8 85 8f 88 b7 f6 65 a8 3c 5d 55 2c bd
       -3.760364e-05 -1.6279295e-05 0.020556431 -0.042073596
000240 62 85 fa 3c 7d 69 7a be ba 1e a3 3e 66 39 9d be
       0.03058118 -0.24454303 0.3185938 -0.30707854
000250 8a 91 09 be 51 dc 81 be 79 00 be be 59 13 f3 3a
       -0.13434425 -0.253634 -0.37109736 0.0018545195
000260 40 9f 99 3e 91 b1 1d 3e 60 b1 0c b9 22 bf 6d b8
       0.3000431 0.15399767 -0.00013417518 -5.668321e-05
000270 09 60 fe 3d 5c f2 85 3e ff 06 8e be 14 02 03 bf
       0.12420661 0.26161468 -0.27739713 -0.51175046
000280 a5 91 c3 b2 42 5f 88 a5 7c 01 44 3e 93 70 a9 3d
       -2.276722e-08 -2.3656788e-16 0.19141191 0.08273425
000290 55 cb f4 be 3b 60 cb 3e c6 06 53 be 18 49 32 bf
       -0.4781138 0.39721856 -0.20608053 -0.6964278
0002a0 d6 77 95 3e d8 1a 6d bc 52 62 d2 bd de 9f 3d 3e
       0.2919299 -0.014471732 -0.10272659 0.18518016
0002b0 72 2f 9d 35 3f 39 27 b7 3a aa ad be 5f 23 a9 3d
       1.171122e-06 -9.967304e-06 -0.33918935 0.082586996
0002c0 7e 59 89 3d a2 18 6c be 34 6e 95 a8 87 05 b5 aa
       0.067065224 -0.23056272 -1.6590116e-14 -3.2155894e-13
0002d0 b8 42 1b bd d5 09 ea bd 1e a4 3b be 88 95 8d 3e
       -0.037905425 -0.114276566 -0.18324324 0.27653146
0002e0 44 27 98 3d d4 f8 02 bc 9f 87 98 3d e9 19 29 3f
       0.07429364 -0.007993896 0.07447743 0.6605516
0002f0 76 18 71 bd 11 de 3c 3e e0 b0 cd be 9a 56 d0 be
       -0.05886122 0.18444087 -0.40174007 -0.40691072
000300 1b d1 2a 3d 80 59 ab ba f0 c2 10 3f f5 cf c5 bd
       0.041703325 -0.0013072938 0.5654745 -0.09658805
000310 10 ce 0c b9 d3 0a e0 b8 66 4f ea 00 45 c3 52 83
       -0.00013428205 -0.000106831685 2.1517989e-38 -6.193761e-37
000320 af 3b 18 3e b2 77 11 3d f1 0b e5 3e 3c 8b 82 3e
       0.14866517 0.03551454 0.44735673 0.25496852
000330 26 25 86 b6 f0 9a 80 b4 5f a1 9a bd 52 a3 65 be
       -3.997836e-06 -2.395459e-07 -0.0755031 -0.22425583
000340 88 99 90 3e f9 4d bd be d8 2b 70 3e e9 7a 9b 3c
       0.28242135 -0.3697355 0.23454225 0.018979507
000350 97 11 ce bd b2 0f 0a be 51 5e a6 3d 19 bc 2a 3f
       -0.10061949 -0.1348255 0.08123458 0.66693264
000360 cc e4 1d 38 59 c7 6b b8 c2 18 4a be 88 05 85 3e
       3.76448e-05 -5.6214023e-05 -0.19736007 0.25980783
000370 a0 4c 7d b4 89 90 12 b4 1b 9e 62 8f b8 00 0e 91
       -2.3590337e-07 -1.3649891e-07 -1.117311e-29 -1.1202046e-28
000380 55 8c 50 b1 de 0d b3 32 7c 86 4c b7 8e ca ed b6
       -3.0347753e-09 2.0844649e-08 -1.219066e-05 -7.086731e-06
000390 15 fd 9a b8 d2 5a 76 b8 1b a0 56 2d 0b 39 01 aa
       -7.3904324e-05 -5.8735553e-05 1.2200042e-11 -1.1477292e-13
0003a0 23 e0 2b 3d 0d 92 13 bc c2 18 fa aa 4c 6b 78 ab
       0.0419618 -0.009006989 -4.44261e-13 -8.8256204e-13
0003b0 bd 09 c3 bc c6 f2 4d bd 8c 5c 35 ae b2 9b 2f ad
       -0.023808355 -0.050280355 -4.1236833e-11 -9.98217e-12
0003c0 cb 56 21 b5 bc 70 79 00 0e f1 6c 3d 7b 2b d8 bd
       -6.0103474e-07 1.1152537e-38 0.057847075 -0.10555168
0003d0 ee 29 33 3e b6 de 64 3d ea 5a 2d b4 34 61 d6 b0
       0.17496464 0.055876456 -1.6144955e-07 -1.5598176e-09
0003e0 f0 82 d3 3e 01 80 13 bf a5 2f 9f 3e be 13 b9 3e
       0.41310835 -0.57617193 0.31091037 0.36147875
0003f0 b7 9d 29 be 85 ba c9 3e ff 7b 68 3d fd 08 08 3f
       -0.1656407 0.39400116 0.056758877 0.53138715

fc1.bias f4 [1024]
000000 d4 60 51 bc 47 61 93 ac 73 65 5a b4 d9 b4 ed 3d
       -0.012779433 -4.1887912e-12 -2.0339739e-07 0.116067596
000010 b6 a8 bf 3e 2b 1e 34 3e a9 dc 8f 3e 44 92 b3 3e
       0.37433404 0.17589633 0.28098038 0.3507253
000020 98 18 43 3e 98 c9 e1 3d 38 4b 20 b1 c0 b2 aa 3e
       0.1905235 0.11024779 -2.3325821e-09 0.333395
000030 80 9e 84 3e 89 e5 84 be 06 2a 39 3e f9 21 38 b8
       0.25902176 -0.2595637 0.18082437 -4.3900658e-05
000040 eb e4 2f be 2c 0b 98 3d 49 2d 75 3e 46 11 d0 be
       -0.17177169 0.07424006 0.23943056 -0.4063818
000050 47 6c 12 a0 4d bc 81 be e0 eb bb 3d b9 24 c2 b8
       -1.2402507e-19 -0.25338975 0.09175849 -9.257481e-05
000060 71 26 fe bc b3 0e 1b a7 3e 05 d6 3e 6b b7 4f 3e
       -0.03102419 -2.151854e-15 0.41800874 0.20284812
000070 ca 89 b5 bd 82 41 f0 3d ce 59 df 3e 42 66 b4 3d
       -0.08864172 0.117312446 0.43623203 0.08808567
000080 c9 d6 5d 3e 30 e5 7d b8 de 5c be 3e cb 3b 64 a4
       0.21663965 -6.0533348e-05 0.37180227 -4.9490266e-17
000090 51 92 2a be 74 fc 96 3d 37 85 c4 3c 18 55 09 3e
       -0.16657378 0.0737237 0.023989303 0.13411367
0000a0 51 df 8d b0 7f 28 32 b8 2d 55 c3 b4 9b 96 b2 3c
       -1.0322571e-09 -4.2476222e-05 -3.6383554e-07 0.02180033
0000b0 0d db 88 be c0 0e 55 35 f9 1d ac 3e 6a b7 8a b8
       -0.26729622 7.937015e-07 0.33616617 -6.614516e-05
0000c0 67 1c 51 b8 46 5e a2 bd a6 78 04 bc 57 a9 f8 3e
       -4.9855935e-05 -0.079281375 -0.008085405 0.48566696
0000d0 b7 2d ae 3e a2 00 b8 3e 5c f7 4b 3d 9a 2c a7 b0
       0.34019253 0.35937983 0.049796447 -1.2163526e-09
0000e0 04 cf f2 3e 96 57 e6 bc cc ad 3c be aa f2 2f be
       0.47423565 -0.028117936 -0.18425673 -0.17182413
0000f0 fe ea 51 be b8 f3 df ac 4f 9d 36 38 4a 05 38 be
       -0.20499799 -6.3650994e-12 4.3538686e-05 -0.17970768
000100 d9 af 1d 3e c4 cb e1 a9 24 d2 4b b2 f2 97 7a bd
       0.15399112 -1.0027355e-13 -1.1863936e-08 -0.061180063
000110 b0 5f d8 bc cb ec ba 3e 45 59 cf b7 c0 07 be 3c
       -0.026412815 0.36508784 -2.4717892e-05 0.023197055
000120 0a 10 24 3e 9d 0e 0a 3f 65 da c0 3e de 7b 9d 3e
       0.16021743 0.5392855 0.37666622 0.30758566
000130 c5 a2 d3 bb 3f 5a e2 b8 84 f3 6c 3c 2d 43 f5 3e
       -0.0064586126 -0.000107933294 0.0144623555 0.47902814
000140 56 cd e9 b5 59 ad ab 3e 61 0e af 3d c0 ab 1f 3f
       -1.7419613e-06 0.3353069 0.085476644 0.62371445
000150 09 17 0c be a1 b5 86 3d a2 98 e2 b7 49 1c e8 3e
       -0.13680662 0.06577612 -2.7012375e-05 0.4533408
000160 ed 7b 0b 3e 5a 3f 8e aa 50 c9 b5 3e 40 af 48 bd
       0.13621493 -2.5268226e-13 0.35505152 -0.048995256
000170 05 48 ed bc 4c fd 74 be a0 3f 6d 3e f5 01 0a 3f
       -0.028965006 -0.2392475 0.23168802 0.53909236
000180 98 38 a8 bc ae 16 73 be 8a 39 d3 b8 e9 53 3a 9e
       -0.020534799 -0.2373912 -0.000100719815 -9.86411e-21
000190 35 ae bd bd ae dc 99 3e a2 98 cd b7 a9 d0 ef 3d
       -0.09261743 0.30051178 -2.450898e-05 0.11709721
0001a0 a1 55 56 3e 41 de 02 be 6c 90 0c 3e b5 45 c6 be
       0.20931102 -0.12780096 0.13726968 -0.38725057
0001b0 8e 4c b8 b8 6f 82 f6 3e df 83 18 b6 45 e6 ee a4
       -8.788063e-05 0.48146388 -2.2726524e-06 -1.0360614e-16
0001c0 22 10 57 b2 fa a6 a5 b8 ce bd ee b8 3b 8f 00 b1
       -1.2518315e-08 -7.898915e-05 -0.00011384078 -1.8707869e-09
0001d0 fb 90 8f bc a0 51 e7 b1 d2 7f eb 3c d5 0e aa af
       -0.017525187 -6.7322645e-09 0.028747473 -3.093336e-10
0001e0 fb 7c 80 b4 7f 47 7d 3d d3 8e e6 bd 8b 3f b4 b6
       -2.3932793e-07 0.061835762 -0.1125771 -5.3718154e-06
0001f0 17 b1 a6 3e c1 5d 88 be 36 a8 7b 3e 0a a9 27 3e
       0.32556984 -0.2663403 0.24575886 0.16373077
000200 13 12 b7 b5 75 f0 0d 3c 82 ae dc bc ee 2a 97 b4
       -1.3639823e-06 0.008663286 -0.02693868 -2.8157177e-07
000210 bd 2b 82 b4 44 30 3c b8 d9 2f 10 ac 6b 82 9b b5
       -2.424621e-07 -4.4867644e-05 -2.0490192e-12 -1.1586357e-06
000220 74 c2 84 bc b1 99 db 3e 4b 41 46 be 91 0b 83 be
       -0.016206004 0.42890695 -0.19360845 -0.25594762
000230 1a 1a 2a 3e 14 61 bb b8 1e b4 2b bb 46 ba fa 3d
       0.1661152 -8.934937e-05 -0.0026199888 0.1224256
000240 ad 35 cc bd 11 0c af b6 39 f2 a9 3e 47 df de 3c
       -0.09971175 -5.216811e-06 0.33192614 0.027206076
000250 b6 7b 3a a2 38 e1 e3 b3 e7 94 00 3f 4c 64 43 3e
       -2.5273193e-18 -1.0611478e-07 0.50227207 0.19081229
000260 b3 d3 dc bd ba fb d6 b8 a5 da 6d 3d c6 ff 09 bf
       -0.10782566 -0.00010251203 0.058069844 -0.53905904
000270 6c 63 20 3d db d5 c3 3e 37 90 3f 99 55 65 85 b8
       0.039157316 0.38249096 -9.9035925e-24 -6.360809e-05
000280 b1 ac 9e 3e 0b 07 b8 3e 5a d1 04 bd 5d a3 69 3e
       0.30991128 0.35942873 -0.032426216 0.22816224
000290 d9 ea cc 3e d6 84 47 bd 70 65 93 be 31 1f 40 bd
       0.40022925 -0.048710667 -0.28788328 -0.046904746
0002a0 dc a0 7b 3e 40 b6 c6 3e 82 94 aa a1 0c 67 4c be
       0.24573082 0.3881092 -1.1558958e-18 -0.19961184
0002b0 24 c5 32 be a4 35 6d 3d ff 09 0c 3f 61 be a6 bd
       -0.17458016 0.057912484 0.5470275 -0.08141781
0002c0 90 66 81 be 9e 12 77 3e a1 bf 38 be 21 a7 2c b4
       -0.2527356 0.24128196 -0.1804185 -1.607955e-07
0002d0 d4 79 b5 3c 25 42 34 3e 1e 8e 17 be 9c fc 87 b8
       0.022152819 0.17603357 -0.14800307 -6.484354e-05
0002e0 77 20 60 3e 06 aa 9c 3d 4e 5e 70 9f b5 20 ca 3e
       0.21887384 0.07649617 -5.0899984e-20 0.39478078
0002f0 ec ac a6 be 92 aa 83 3e 04 e3 10 3e 7f 7f a6 bb
       -0.32553804 0.25716072 0.141491 -0.0050811167
000300 80 62 10 3f aa 14 0c 3f 71 74 00 b8 71 1c 15 3e
       0.564003 0.5471903 -3.0626023e-05 0.14561631
000310 81 f9 9d 3e 9f 92 0e be 30 24 34 3e d2 58 c8 be
       0.3085442 -0.13923119 0.1759193 -0.39130265
000320 9e af 83 b7 e7 06 f3 ab 39 21 66 b7 b4 1f 17 3b
       -1.5698195e-05 -1.7268104e-12 -1.3716804e-05 0.0023059668
000330 a2 e4 70 bd de 25 1a ad b0 73 97 b8 55 25 b8 be
       -0.05881179 -8.762295e-12 -7.2217896e-05 -0.35965982
000340 71 2d a9 3d f7 ca 38 be fe 3f 1f 3e a0 ee 70 3e
       0.082606204 -0.18046175 0.15551755 0.23528528
000350 92 0f b1 3c 8c 17 44 3e ed 2c 29 3e 58 ba 37 b6
       0.02161387 0.19149607 0.16521044 -2.7377591e-06
000360 45 3e 33 ad bf c8 9f 3e bd 87 9a 3e 23 47 b0 bb
       -1.0188799e-11 0.31207845 0.30181685 -0.005379574
000370 99 60 d7 3d 3a dc dd 3e 34 dd 1a 3f b5 a2 fc 3d
       0.105164714 0.43332082 0.6049378 0.123357214
000380 7d d6 a0 bc 23 c3 5b bd c1 6b 21 34 84 ac 9c b8
       -0.019633526 -0.053652894 1.5033494e-07 -7.470793e-05
000390 61 fa 76 3e 66 dd 8c 3d a0 10 eb 3d 51 94 22 be
       0.2411895 0.06878166 0.1147778 -0.1587689
0003a0 a6 86 9c bd bc 8d 03 3f a3 b7 ef b6 08 26 6d 3e
       -0.0764287 0.51388144 -7.144133e-06 0.23159039
0003b0 62 7a 30 b8 c0 50 a5 be 7b a9 59 3e d0 1e 14 be
       -4.2075648e-05 -0.3228817 0.21256058 -0.14464879
0003c0 8b 5b d2 3e b6 aa 57 bc 5d a5 b0 3e fe ce b1 a9
       0.41085467 -0.013163259 0.34501162 -7.8962864e-14
0003d0 ec 3f 0b b4 38 da 63 be ea 3c e7 bb dc 3f 6f 3e
       -1.2968638e-07 -0.22251213 -0.007056822 0.23364204
0003e0 cb d1 6b b5 ea 08 d4 bd f4 c9 59 bd 89 9c 8d bd
       -8.784961e-07 -0.10353263 -0.053171113 -0.06914622
0003f0 94 d2 5b b4 7b 13 29 be d8 9c c0 3d 98 b4 8b 3d
       -2.0472572e-07 -0.16511337 0.094049156 0.06821555

fc2.weight f4 [2, 1024]
000000 6b 20 a9 3c 44 9a 42 18 ab 15 4e 1c d3 ac 9e bd
       0.02064534 2.5151797e-24 6.818769e-22 -0.07747807
000010 54 40 b7 bc db ec 1d bd 33 4f 83 bd 75 d9 30 bd
       -0.022369541 -0.03855596 -0.064115904 -0.043176133
000020 3f ca b9 3a 92 d6 56 3d 85 e2 46 2c 40 fe aa 3a
       0.0014174654 0.052450724 2.8263236e-12 0.0013045743
000030 7f 1b 8c bd 0b e9 1c 3d 33 5a c6 3c 42 4e 00 b8
       -0.06841182 0.038308185 0.024212932 -3.059046e-05
000040 57 10 26 3d 0b 69 95 3c f0 ce 69 bc 7b 0f 64 3d
       0.040542927 0.018238565 -0.014270529 0.055678826
000050 00 ed 42 8e 5b 5a 6b 3d 2f d2 a4 3c b8 e6 63 b8
       -2.4026458e-30 0.057459217 0.020119755 -5.433589e-05
000060 4b 04 b7 3c da 6e d9 92 42 e3 f5 3c 08 21 df 3b
       0.022340914 -1.3721952e-27 0.030015592 0.0068093576
000070 86 ca a5 3c d0 c5 5e bd 4c 37 f0 bc 88 16 20 3d
       0.020238172 -0.054387867 -0.029323243 0.039083987
000080 95 cc cf 3b 0e da ad 37 10 d4 91 3c ba b0 89 a4
       0.0063415268 2.0724747e-05 0.017801315 -5.9713665e-17
000090 96 2f 99 3c 59 97 80 bb 7c 66 35 bb c2 fb 48 3b
       0.018699449 -0.003924292 -0.0027679494 0.0030667637
0000a0 d7 88 01 ae e1 0b 04 b7 d8 69 d9 35 15 38 1b 3d
       -2.9452742e-11 -7.870579e-06 1.6198564e-06 0.03789528
0000b0 dd a9 81 3d ab 4c c5 36 48 ed f4 bc 76 8e 05 b6
       0.06331227 5.879983e-06 -0.0298983 -1.9901468e-06
0000c0 74 38 95 b5 c5 77 1b 3d c4 00 90 3b 91 48 db bb
       -1.1117795e-06 0.037956018 0.0043946225 -0.006692
0000d0 74 04 cb bc 2c 12 a3 bc 2b ef ef bc 8a 07 f3 31
       -0.024782397 -0.019906126 -0.029288849 7.073088e-09
0000e0 3e 17 b8 bc cf ec e8 3c 72 bd 50 3d 8b bd 98 3c
       -0.02247202 0.028433232 0.05096192 0.018645069
0000f0 11 6c 2c 3c f6 6b ec ac 7e 32 21 b8 1f f6 62 3d
       0.010523812 -6.7195095e-12 -3.8432416e-05 0.0554105
000100 27 f4 38 3c 5c da a3 a7 ad bc 16 b3 df 13 d9 3c
       0.011288679 -4.5478334e-15 -3.5096196e-08 0.026498733
000110 cd 26 2f 3d aa 62 44 bd ef ea 44 38 6c 8a dd bc
       0.042761613 -0.047945656 4.694884e-05 -0.027043544
000120 9f c3 02 bd 4a 72 ae bc 80 df 71 bc 1b f7 96 bc
       -0.03192484 -0.021294732 -0.014762759 -0.018428376
000130 4d 60 29 3d 87 e2 f4 b8 d1 35 9b 3c 5c 13 a4 bd
       0.041351605 -0.00011677021 0.01894656 -0.08011505
000140 46 2b 32 af 7e b1 e9 3c d2 6f 62 3d 8f cf 99 bd
       -1.620438e-10 0.028527018 0.05528242 -0.07510292
000150 f6 18 74 3d d1 bb 2d bc ec e8 b3 b6 23 04 ff bb
       0.059594117 -0.010603861 -5.3617314e-06 -0.0077824756
000160 d9 25 45 bd 00 d6 5d 27 de f8 5d 3b c1 76 cf 3c
       -0.048131797 3.078592e-15 0.003387026 0.025325181
000170 8a 3e 04 3d df ab 63 3d cf 6b 11 bc 43 da 42 bd
       0.032286204 0.05558383 -0.008875801 -0.04757143
000180 93 c1 d4 3c 77 ef 80 3d 87 21 c7 38 c2 27 93 81
       0.02597121 0.06295674 9.4953044e-05 -5.405632e-38
000190 16 b3 12 3d 2e 84 05 3d d2 67 f7 37 d2 eb 8b bd
       0.03581532 0.03259676 2.949304e-05 -0.068320885
0001a0 b4 f9 60 bc c7 96 79 3d 2c 82 21 bc 88 f3 5b 3b
       -0.013731409 0.060934808 -0.009857696 0.0033561904
0001b0 8b ce 14 38 e5 c0 b5 3b 08 65 d6 b5 b5 32 18 81
       3.5478308e-05 0.0055466765 -1.5973646e-06 -2.795437e-38
0001c0 30 f6 47 2e 4f ac 4e b8 26 77 fe b8 2e c5 6d af
       4.546602e-11 -4.9274702e-05 -0.00012133857 -2.1625077e-10
0001d0 ea af 95 3c 35 b2 e9 af b3 86 24 bc b0 1e b2 32
       0.018272359 -4.2509077e-10 -0.01004188 2.0735882e-08
0001e0 67 99 9d 90 c9 b6 32 bc 56 8a 82 3d 89 fd 38 34
       -6.2161935e-29 -0.010907837 0.06374042 1.7228571e-07
0001f0 e6 2b 90 bd be 44 50 3d c1 8e 34 3d 25 63 28 3d
       -0.07039623 0.050846808 0.044081453 0.041110177
000200 b1 f0 99 33 f5 96 16 3d f7 3a 98 3d 88 65 90 b3
       7.168399e-08 0.036765058 0.07433122 -6.723991e-08
000210 da 7f c5 30 b8 b5 85 38 09 2c ae 81 e0 0b db b6
       1.4369974e-09 6.375782e-05 -6.398069e-38 -6.528091e-06
000220 d3 a8 17 3d 5e 66 e3 3c d0 28 19 3d 42 e5 a3 3c
       0.037026238 0.027758773 0.037392437 0.02000678
000230 a1 9c a8 bc 73 96 73 b7 63 88 9a 3c f9 d6 f2 bc
       -0.020582499 -1.4518958e-05 0.018863862 -0.029643523
000240 0c 5d bd 3c 48 58 60 1b b9 80 2d 3d d4 9b 5e 3b
       0.023115657 1.8557371e-22 0.042359088 0.0033967393
000250 7c 85 83 13 e7 28 97 b4 c1 a4 54 3c 99 a3 91 bd
       3.3200675e-27 -2.8155702e-07 0.0129787335 -0.07111282
000260 cd 1a 4e 3c 0e 0a f6 b7 64 85 09 bc ff 31 5c 3d
       0.012579632 -2.9330167e-05 -0.008393619 0.053758617
000270 45 dd 31 3d f9 e3 80 3c ed ce 6a 91 ad e6 b2 b8
       0.04342391 0.015733706 -1.8523109e-28 -8.530668e-05
000280 b3 4f b6 3c 32 7d 8b 3c 2a 47 0e 3d 88 2c 65 bd
       0.0222548 0.017027471 0.034735836 -0.05595067
000290 a7 f0 71 bd 03 9d bb 3b 57 98 8f 3c 10 72 cf 3c
       -0.059067395 0.0057255044 0.017528696 0.025322944
0002a0 11 21 a8 bb 99 4a c3 3c 93 65 32 21 fb 6c 2e 3d
       -0.005130895 0.023839282 6.044318e-19 0.0425844
0002b0 2c 9c 06 3d 84 79 8a bd b1 7e a5 bc 9c 8e 39 3d
       0.03286378 -0.067614585 -0.020202013 0.04530202
0002c0 e4 98 93 3d af ad 01 bd f8 90 5e 3d 3b 3d 27 25
       0.07206896 -0.03165978 0.05433747 1.4505687e-16
0002d0 13 ba 80 3a 3d 29 5f 3c f1 71 38 3d dd 01 01 37
       0.000982108 0.013620672 0.045030538 7.689433e-06
0002e0 91 43 07 3c 37 d4 1b bd 5f f4 14 9d fb 78 f4 bc
       0.008255855 -0.03804418 -1.9713974e-21 -0.029842844
0002f0 5b 45 07 3d 67 a0 a6 bc 00 41 b2 bd 0e 76 6e 3c
       0.033025127 -0.020340158 -0.08703804 0.014554514
000300 9e bb 96 bb 04 ff 29 bc aa a0 14 38 d1 e0 63 bd
       -0.0046000024 -0.010375742 3.543558e-05 -0.055634324
000310 78 ba 0b bd c6 a1 d2 3c 20 67 fe bb 26 ee 64 3c
       -0.034113377 0.025711905 -0.0077637583 0.013972795
000320 5f 17 93 b5 a9 09 b5 a8 bb 2f a0 b6 4c c9 ab 3c
       -1.0959155e-06 -2.0099226e-14 -4.773928e-06 0.02097001
000330 33 1f 9f 3c 0e fb 11 8d b1 f8 ab b8 36 46 7f 3d
       0.019424057 -4.498377e-31 -8.200238e-05 0.062322818
000340 2e 93 72 bd a3 04 1b 3d 88 f4 00 bd 7d aa 15 bc
       -0.059222393 0.03784622 -0.031483203 -0.009134886
000350 ab a4 c9 ba af d3 d5 bc 9c f0 11 bd 65 b6 41 b2
       -0.0015384158 -0.026101915 -0.035629854 -1.127555e-08
000360 74 85 c4 2d 56 14 cd bc 10 c4 fc bc 60 1b e7 3b
       2.2341885e-11 -0.025034111 -0.030855209 0.007052824
000370 e3 67 c6 3c 37 59 fc 3c e9 14 99 bd a9 e2 f8 bc
       0.024219459 0.03080426 -0.074746914 -0.030381517
000380 b5 42 0f 3d 25 ac d2 3b b1 8d 03 b8 76 6e d6 b8
       0.034975726 0.0064292126 -3.1364794e-05 -0.0001022489
000390 f9 49 bf 3b 05 62 16 3c a9 a8 1d 3d 3f bf b7 3c
       0.0058376756 0.009178643 0.038490925 0.02243006
0003a0 03 08 04 3d 8d 93 79 3c a2 b1 bd 35 9e 48 ae bc
       0.032234203 0.015232933 1.4133295e-06 -0.021274861
0003b0 4f 3e f8 b7 76 83 86 3d d2 c8 5c bd 96 cb 4c bc
       -2.9592919e-05 0.06568043 -0.053902455 -0.012499711
0003c0 55 d1 ff 3c e1 73 be 3c 76 4e a5 3c d4 7d 6f 8b
       0.031227747 0.023248615 0.020179015 -4.6124388e-32
0003d0 7e f8 21 29 8b e5 49 3d e4 ec 58 ba 0e 18 65 bd
       3.5964714e-14 0.049291175 -0.00082750455 -0.055931143
0003e0 2e 6b c6 ae 19 b8 7c 3d fd c1 89 3c 68 e4 73 3b
       -9.0230365e-11 0.061699007 0.016816134 0.0037214998
0003f0 e9 e6 b6 b3 ae 12 8d 3d e7 1c 07 bd f5 35 bb bc
       -8.517038e-08 0.068883285 -0.032986548 -0.022852877

fc2.bias f4 [2]
000000 5e 38 7c bb 1a 2b ba bc
       -0.0038485746 -0.02272563

norm3.weight f4 [20]
000000 07 71 87 3f c8 dc 80 3f 3a 6b 83 3f 5e 0f 85 3f
       1.0581368 1.0067377 1.0267098 1.0395315
000010 19 5e 84 3f f6 5a 5c be a7 07 85 3f 40 83 84 3f
       1.0341216 -0.21519074 1.039296 1.0352554
000020 3c 88 82 3f f0 3c 8c 3f 52 81 84 3f 71 d6 82 3f
       1.0197825 1.0956097 1.0351965 1.0221692
000030 58 cf 8b 3f b6 2a 84 3f 12 0f 92 3f e5 ef 79 3f
       1.0922651 1.0325534 1.1410849 0.97631675
000040 44 70 7e 3f 26 e4 85 3f d2 8c 82 3f ce 02 82 3f
       0.99390054 1.046025 1.0199225 1.0157106

norm3.bias f4 [20]
000000 04 20 94 bc 5e e2 bb 3d 6b 5f 8c 3c 4d 23 0e 3d
       -0.018081672 0.091740355 0.017135343 0.034701634
000010 af 97 89 3c de c0 21 3d a1 2c 04 3d 46 9e 48 bc
       0.016795961 0.039490573 0.032269124 -0.012244767
000020 b9 5e 42 3c 9f 3e 1c 3d b9 3a 56 3b 87 87 a4 3b
       0.011863404 0.038145658 0.003268881 0.005021039
000030 f8 f4 ce 3b 69 97 c7 bb 71 23 b3 3c 86 50 90 3c
       0.0063158236 -0.0060910475 0.021867486 0.017616522
000040 ad be 03 ba 0f 58 cb 3c b5 a2 d6 bc 55 10 ef 3c
       -0.00050256663 0.024822263 -0.026200632 0.029182592

norm3.running_mean f4 [20]
000000 2e c2 6d 41 d8 83 ad 40 b8 01 85 41 46 70 f1 41
       14.859907 5.422344 16.62584 30.179821
000010 b6 13 6c 41 17 83 c8 3a 78 57 23 41 6e bc 05 42
       14.754812 0.0015297857 10.208855 33.434013
000020 3d 2a d4 41 2a 30 97 41 07 28 68 40 2b 93 f2 40
       26.520624 18.898518 3.627443 7.580465
000030 78 dd 22 40 48 6f 64 41 fb 12 a0 3f 6f ec fe 40
       2.5447674 14.277168 1.2505792 7.9663615
000040 0e e0 89 41 7c 72 16 42 5b 81 25 41 3e 68 ee 41
       17.234402 37.6118 10.344081 29.8009
