best_model_3.pth (torch, 45284 bytes, 25 tensors)

conv1.weight f4 [20, 1, 3]
0.053385362 0.5394455 -0.48793897 0.10196514 -0.07012287 0.12243498 0.36713085 0.20893638
-0.010361775 -0.4175718 0.2782638 0.34288967 -1.7203103e-05 -0.0011128818 -0.00012803827 -0.00080941117
-0.0017200112 -0.024309376 -0.38297445 0.34548578 0.05684931 0.42235872 0.1571034 0.4592774
-0.14761241 0.36362413 0.45539105 -0.056670506 0.47835475 -0.3725402 -0.0002489818 -4.925156e-05
-0.00010424134 -0.0002767451 -0.005710494 -0.087201595 -0.0015996775 -0.0063573057 -0.15385498 -0.042358093
0.065967046 0.20041159 0.050870493 -0.55962116 -0.05221768 -0.53997886 -0.6568237 0.47246137
-0.4749921 0.48911554 -0.16001503 0.12619708 0.4566706 0.36845645 -0.12996817 0.01167795
0.28730163 0.32469305 0.26221833 0.23285064
00000000: 9caa 5a3d 1a19 0a3f 23d3 f9be 19d3 d03d
00000010: 949c 8fbd 31bf fa3d 93f8 bb3e 6bf3 553e
00000020: 6fc4 29bc f9cb d5be 9878 8e3e 3c8f af3e
00000030: 624f 90b7 1ede 91ba 0342 06b9 aa2e 54ba
00000040: 0072 e1ba 7524 c7bc 3a15 c4be 83e3 b03e
00000050: d2da 683d 673f d83e b7df 203e 6826 eb3e
00000060: b527 17be f12c ba3e 0429 e93e 551f 68bd
00000070: eaea f43e 97bd bebe c689 82b9 7693 4eb8
00000080: 259c dab8 1918 91b9 181f bbbb c096 b2bd
00000090: 45ac d1ba f250 d0bb 298c 1dbe ae7f 2dbd
000000a0: bb19 873d b238 4d3e 945d 503d 5543 0fbf
000000b0: 35e2 55bd 0e3c 0abf 9925 28bf 75e6 f13e
000000c0: 2a32 f3be 5a6d fa3e fbda 23be cf39 013e
000000d0: bbd0 e93e 53a6 bc3e 6016 05be df54 3f3c
000000e0: 3319 933e 2b3e a63e 7b41 863e 6670 6e3e

conv1.bias f4 [20]
0.5055064 -0.3983288 0.4281578 -0.23747382 -7.017481e-07 0.034333166 -0.78956175 0.07871216
-0.21684475 -0.06496041 -6.822571e-05 0.08738774 0.15365191 -0.55488783 -0.24396555 -0.3736549
0.2606077 0.2438009 0.3942528 0.44989276
00000000: de68 013f c1f1 cbbe 8037 db3e 562c 73be
00000010: c35f 3cb5 efa0 0c3d b820 4abf d733 a13d
00000020: 8d0c 5ebe f709 85bd 6614 8fb8 58f8 b23d
00000030: ed56 1d3e 210d 0ebf 1bd2 79be b24f bfbe
00000040: 5f6e 853e f1a6 793e 81db c93e 5858 e63e

conv2.weight f4 [20, 20, 3]
-0.017786248 0.15913726 -0.052922927 0.094913475 0.020517945 -0.067938656 0.014548685 0.031969234
-0.1679936 0.045630507 0.010964675 -0.0053343466 6.23664e-38 4.650254e-39 6.3721307e-38 0.00011219779
-0.02456554 -4.0126762e-38 -0.10392656 0.0666462 -0.04018564 -0.08296108 -0.010832209 0.05806773
-0.11722835 0.0065633743 -0.026569335 -0.065257 0.120685555 0.08238341 3.1992513e-11 1.557089e-17
7.3151373e-06 0.00050992816 -0.006183202 -6.0231653e-38 0.0022579837 0.05432916 -4.714565e-39 0.091413
-0.0497558 -0.0534069 0.18709232 3.8869015e-38 -4.91842e-39 0.030276781 -0.22101636 0.047819037
0.09733627 -0.0481445 -0.08260883 0.027364118 -0.055623636 0.153663 0.11373834 0.012388649
0.056164436 0.04734188 -0.076717354 -0.031038178 0.07026394 0.12714519 0.028495705 -0.10798081
-0.011537566 -0.017648764 -0.10153124 0.11106044 -0.005139747 -0.011298477 0.0880523 -0.014235073
5.905856e-38 -2.6207213e-38 -6.751972e-39 -0.029838227 -2.873605e-39 1.3875052e-38 0.009908745 0.13684762
-0.0040488644 -0.044365328 -0.11798929 -0.024685273 -0.0020288571 0.096981496 -0.0155384345 0.08117871
0.024682468 -0.030011058 1.29944265e-05 -2.507725e-08 -7.014558e-08 -0.044453155 -1.24858806e-23 -2.5126442e-38
-0.08521198 -0.0076943436 -4.319494e-38 -0.062461488 0.13431484 0.0031242343 -2.7516637e-38 1.84466e-40
0.0046587884 6.60633e-38 -0.0054539614 3.390863e-39 -0.09454267 0.13856559 -0.0044874917 -0.0995644
0.01812667 0.041173 -0.1771738 -0.017093075 0.00048838736 -0.04443596 0.014061582 -0.041540615
0.062593855 -0.09871959 0.004529124 -1.152403e-38 -0.10637388 -0.027161172 -0.021518154 -0.08247263
0.0010903081 0.01335172 -0.11981319 0.0038219446 -6.174921e-39 5.070649e-38 3.1706082e-38 4.8607255e-38
-0.012062365 0.0025722662 0.011885619 3.6543804e-38 0.0055580614 0.0970309 -0.19736046 0.00018924757
0.009311251 -0.16696396 0.0027947673 -0.018943703 -1.8937452e-38 0.005765744 -3.3702848e-31 -5.7927476e-38
1.6693062e-06 -2.4628468e-38 -0.00015461966 0.0059483056 -2.031065e-38 -0.0015014457 0.010026275 0.010282512
-0.1663046 0.0026321872 -6.0894394e-38 -3.478824e-39 -2.511097e-39 -5.385e-42 -0.04404001 1.146182e-39
0.010939436 -0.14671932 0.005745138 0.00033060773 -0.15107293 0.0022515908 0.035544425 -0.06605383
0.0006459295 -0.083929196 -0.12052704 0.0012026152 -0.14285451 -0.06041424 -0.056289863 0.09672591
0.09308098 0.06553492 0.05441958 0.013489427 -0.0037049593 -0.08954713 0.08567971 -0.046573773
-2.7524935e-38 6.176485e-39 -6.966999e-38 0.017593095 -0.01893345 0.014389599 -0.06590817 -0.007059237
-0.08575647 0.116495125 0.06654103 -0.008436816 0.082763255 -0.12858796 0.13015348 0.05214776
0.061422374 0.035344906 1.8325069e-06 1.2263422e-08 -1.1723528e-06 0.035237603 -0.039414253 0.031886198
0.06977579 -0.11231932 0.06514026 0.013247494 0.11259508 0.01251496 0.04686484 0.1167387
-0.061846018 0.112463094 -0.050820537 0.013186192 0.099728495 0.09016442 0.079077415 -0.010061519
-0.03551059 0.12230193 0.0065602832 -0.10578025 0.15773767 -0.11270819 0.09299221 0.11699443
0.01335002 -0.11978025 0.0038654504 0.012241442 -0.09079905 0.0055799996 0.117253974 0.07575285
-0.08842275 -0.09148152 -0.054566965 -0.028437832 5.138402e-38 4.7661193e-38 5.6591147e-38 -1.2343515e-25
00000000: 77b4 91bc e1f4 223e b6c5 58bd ff61 c23d
00000010: 4015 a83c 6c23 8bbd 9c5d 6e3c 2cf2 023d
00000020: 8406 2cbe 0ee7 3a3d 2ea5 333c becb aebb
00000030: 0ac7 a901 04a3 3200 4577 ad01 bb4b eb38
00000040: ac3d c9bc 8b78 5a81 73d7 d4bd ce7d 883d
00000050: b399 24bd 80e7 a9bd 9479 31bc 6ed8 6d3d
00000060: 6b15 f0bd 9311 d73b efa7 d9bc 76a5 85bd
00000070: fd29 f73d a2b8 a83d 5eb4 0c2e b99d 8f23
00000080: 8d74 f536 b3ac 053a 759c cabb 56f7 a381
00000090: aefa 133b 4188 5e3d 4a56 3380 bd36 bb3d
000000a0: bdcc 4bbd 32c1 5abd 2195 3f3e 809f 5301
000000b0: 8e8e 3580 0307 f83c 1d52 62be e5dd 433d
000000c0: 3d58 c73d 2b33 45bd d12e a9bd b72a e03c
000000d0: 9cd5 63bd d559 1d3e a6ef e83d c3f9 4a3c
000000e0: ae0c 663d 8fe9 413d fd1d 9dbd c743 febc
000000f0: 8ae6 8f3d 5932 023e d36f e93c 0b25 ddbd
00000100: 0f08 3dbc 2494 90bc 9cef cfbd a873 e33d
00000110: 536b a8bb 3f1d 39bc c454 b43d 393a 69bc
00000120: cfc5 a001 86af 0e81 c085 4980 4c6f f4bc
00000130: 714a 1f80 0016 9700 4a58 223c c821 0c3e
00000140: 56ac 84bb 6bb8 35bd 5ea4 f1bd c538 cabc
00000150: 93f6 04bb 3c9e c63d eb94 7ebc 0641 a63d
00000160: e332 ca3c c0d9 f5bc a302 5a37 7569 d7b2
00000170: f1a2 96b3 8314 36bd 1683 7199 26cd 0881
00000180: 9e83 aebd d520 fcbb f62c 6b81 9ed7 7fbd
00000190: d489 093e f4bf 4c3b 98d0 1581 3702 0200
000001a0: c0a8 983b 67d7 b301 25b7 b2bb 59ec 2400
000001b0: 969f c1bd 23e4 0d3e cf0b 93bb 6ce8 cbbd
000001c0: 627e 943c 05a5 283d 0c6d 35be c706 8cbc
000001d0: 1f07 003a 7b02 36bd 8d62 663c 7e26 2abd
000001e0: 3531 803d 7f2d cabd 0c69 943b 4f7c 7d80
000001f0: 8cda d9bd 1b81 debc d746 b0bc 69e7 a8bd
00000200: abe8 8e3a 2cc1 5a3c 9e60 f5bd 9779 7a3b
00000210: 2b3d 4380 4409 8a01 d49f 2c01 5052 8401
00000220: 3aa1 45bc 7793 283b e6bb 423c a1f6 4601
00000230: 6620 b63b 23b8 c63d dc18 4abe c270 4639
00000240: 388e 183c 9af8 2abe 6a28 373b d32f 9bbc
00000250: e935 ce80 91ee bc3b 76be da8c 8fb1 9d81
00000260: ed0c e035 1317 0681 6621 22b9 01ea c23b
00000270: d429 dd80 28cc c4ba 3f45 243c fb77 283c
00000280: c14b 2abe c680 2c3b 33c5 a581 8ce1 2580
00000290: eb57 1b80 030f 0080 4c63 34bd 177b 0c00
000002a0: 523b 333c 973d 16be b641 bc3b 6b55 ad39
000002b0: ddb2 1abe 6d8f 133b 0897 113d 3b47 87bd
000002c0: 9853 293a 12e3 abbd e1d6 f6bd 12a1 9d3a
000002d0: 7448 12be ec74 77bd 3390 66bd 3c18 c63d
000002e0: 3ea1 be3d 2c37 863d 11e7 5e3d c202 5d3c
000002f0: e7ce 72bb 7c64 b7bd d878 af3d 24c4 3ebd
00000300: 29dc 1581 8741 4300 e6a8 bd81 651f 903c
00000310: 531a 9bbc 5ac2 6b3c ddfa 86bd 2c51 e7bb
00000320: 17a1 afbd ff94 ee3d aa46 883d 923a 0abc
00000330: c87f a93d 90ac 03be f446 053e e498 553d
00000340: 0796 7b3d d2c5 103d 75f4 f535 1aaf 5232
00000350: bc59 9db5 4e55 103d d770 21bd 1a9b 023d
00000360: 9ce6 8e3d ac07 e6bd 4268 853d 040c 593c
00000370: 4098 e63d 8c0b 4d3c 59f5 3f3d b314 ef3d
00000380: 4052 7dbd 0d53 e63d 3229 50bd e60a 583c
00000390: 743e cc3d 20a8 b83d 57f3 a13d 12d9 24bc
000003a0: 8d73 11bd 6f79 fa3d a5f7 d63b 51a3 d8bd
000003b0: fc85 213e 8dd3 e6bd b372 be3d c79a ef3d
000003c0: 0bba 5a3c 594f f5bd 7f53 7d3b 5490 483c
000003d0: daf4 b9bd 6ed8 b63b da22 f03d 4f24 9b3d
000003e0: fd16 b5bd aa5a bbbd 9c81 5fbd 75f6 e8bc
000003f0: 6fe1 8b01 01bf 8101 460e 9a01 29ce 1896

conv2.bias f4 [20]
0.061063975 0.18148878 -0.056757353 -0.17816168 -0.24866208 4.1815633e-06 0.047377165 -0.010321771
0.032724746 -0.031298388 -0.05945913 -0.046392445 -0.13274862 0.091113366 0.077830404 0.0017487756
-0.06286199 0.051530574 0.101353295 0.07370839
00000000: 381e 7a3d 32d8 393e 667a 68bd 0470 36be
00000010: 46a1 7ebe 5b4f 8c36 8f0e 423d a51c 29bc
00000020: 620a 063d bd32 00bd 6b8b 73bd 0106 3ebd
00000030: 41ef 07be a599 ba3d 8c65 9f3d 2c37 e53a
00000040: c9bd 80bd b911 533d 5192 cf3d 6df4 963d

conv3.weight f4 [20, 20, 3]
-0.15599854 -0.030736838 0.018561406 0.038550578 -0.18243466 -0.12037508 0.09035784 0.02772011
-0.094569474 0.016006943 -0.13448618 0.052952807 -0.01304809 -0.15130125 0.16014104 0.049123254
0.104353994 0.028834868 0.05542737 -0.020311095 -0.020787863 -0.0009205362 -0.12282251 -0.12745555
0.058836885 -0.10499971 -0.057604894 -0.047647253 -0.06294563 0.06289001 0.12150244 -0.13739073
-0.081733316 0.1332818 -0.1723721 -0.08108914 -0.17907974 -0.20577739 0.051008407 -0.07311399
-0.12916249 -0.035073325 -0.15256186 -0.110768564 -0.22242987 0.04559268 -0.022325946 0.059380196
-0.09500613 -0.21159323 -0.12157904 0.01958922 0.044405416 -0.08572431 0.032754835 -0.13985936
-0.0019423751 -0.0566455 -0.04204767 0.08701922 0.015344544 0.070061296 0.13358042 -0.017912552
0.04128809 0.06851534 -0.112345606 -0.07229966 -0.022109246 -0.083740905 -0.009453558 0.00050033897
0.04101079 -0.03611627 0.05952126 -0.074811414 0.20116606 -0.0001472339 0.075906284 -0.06301536
-0.011307789 0.066695616 -0.035638686 -0.059564512 -0.07135736 -0.05604943 0.043410458 0.18804297
0.057330746 -0.06585861 -0.068170145 0.012758077 -0.065802485 0.058221318 -0.0022187019 -0.12639748
0.021019565 -0.26914868 0.15625802 0.11299846 0.024963832 -0.011391666 0.15200932 -0.003495138
-0.1337911 0.037796058 0.08766365 0.09337577 0.023018831 -0.061726198 -0.038743693 -0.021050563
-0.12228002 0.054591015 -0.040084552 0.057457943 -0.07943126 -0.025944997 0.030653954 0.01962698
0.19183917 0.029281689 0.014762006 -0.032575876 0.039943762 0.04286336 0.0016960495 -0.13160779
-0.025818862 0.014581251 -0.16343471 -0.018032145 -0.03302168 -0.17160404 0.028894719 0.005531025
0.2600999 -0.031151183 0.15553024 -0.10379297 -0.07736496 -0.13107851 -0.16245109 0.052136675
0.024498902 -0.13676608 -0.083075345 0.16937453 -0.2329729 -0.08722812 -0.19259523 -0.06156752
-0.096119 0.11648306 -0.11865924 -0.038944766 -0.05214378 -0.29585382 0.10900946 -0.06161166
-0.15767287 -0.05963303 0.05103139 -0.026853459 -0.22085752 -0.045968942 -0.042255305 0.0431353
0.03207696 0.09217881 -0.0788814 0.07801796 -0.026670054 -0.09916791 -0.10042899 -0.07576236
0.048684325 -0.044246502 -0.15471177 0.038469385 -0.01495547 -0.016555067 0.07460111 0.07337158
0.02671583 -0.16377886 0.027870048 0.053205736 0.107544236 0.046465006 0.1498861 0.04725826
-0.0016373552 0.1331708 0.3092037 -0.012378312 0.032061093 -0.030888857 -0.08216345 0.03419568
0.12829258 0.12178583 0.13038349 -0.082450494 -0.0062639983 -0.06560971 0.025410738 0.010478007
0.035681043 0.2144152 0.113854684 -0.018635971 0.0038684546 -0.03840361 0.16100332 0.04191571
-0.032533307 -0.025317641 0.07428623 0.0808538 0.09873267 -0.080193564 -0.025099728 -0.0676169
0.12190489 -0.0017961947 0.20061818 -0.091831185 0.07690281 0.0960336 0.1301957 -0.061316203
0.09623141 -0.060477603 0.0009448418 0.13277176 -0.17252497 0.03965596 0.13690281 -0.0074886205
-0.1436205 -0.046322905 0.05330409 0.014043214 -0.023445524 0.07802783 -0.050430078 -0.13533309
0.15925108 -0.01957393 -0.1433734 0.1192085 -0.06523345 -0.015451718 0.20086876 0.01809874
00000000: 15be 1fbe d2cb fbbc 170e 983c 36e7 1d3d
00000010: 27d0 3abe 3687 f6bd 880d b93d 4915 e33c
00000020: a4ad c1bd fe20 833c bfb6 09be 0be5 583d
00000030: a8c7 55bc b7ee 1abe 03fc 233e 7735 493d
00000040: 8cb7 d53d 1a37 ec3c cf07 633d 7463 a6bc
00000050: 4f4b aabc 2350 71ba 5e8a fbbd b583 02be
00000060: f2fe 703d 170a d7bd 1cf3 6bbd c429 43bd
00000070: a3e9 80bd 7acc 803d 45d6 f83d 28b0 0cbe
00000080: cc63 a7bd 067b 083e 5082 30be 1012 a6bd
00000090: ae60 37be 4fb7 52be 31ee 503d cabc 95bd
000000a0: 2c43 04be 0ca9 0fbd 2d39 1cbe a1da e2bd
000000b0: a8c4 63be 64bf 3a3d e7e4 b6bc a638 733d
000000c0: 9392 c2bd e5ab 58be 6ffe f8bd 9279 a03c
000000d0: 74e2 353d 3a90 afbd ef29 063d 4b37 0fbe
000000e0: 4b97 feba 1d05 68bd 2d3a 2cbd 2237 b23d
000000f0: af67 7b3c 4c7c 8f3d 4ec9 083e 58bd 92bc
00000100: b31d 293d c551 8c3d 7415 e6bd d811 94bd
00000110: 731e b5bc 5a80 abbd 19e3 1abc 2e29 033a
00000120: eefa 273d a7ee 13bd 91cc 733d ba36 99bd
00000130: 7afe 4d3e cd62 1ab9 c174 9b3d 320e 81bd
00000140: 4e44 39bc b697 883d dff9 11bd ebf9 73bd
00000150: cf23 92bd 1694 65bd 2acf 313d 568e 403e
00000160: a5d3 6a3d e1e0 86bd ca9c 8bbd 4107 513c
00000170: 74c3 86bd 7a79 6e3d a467 11bb 576e 01be
00000180: 3931 ac3c dbcd 89be 1a02 203e bd6b e73d
00000190: f380 cc3c 1ca4 3abc 55a8 1b3e af0e 65bb
000001a0: 8900 09be 0ad0 1a3d 0089 b33d cc3b bf3d
000001b0: fd91 bc3c 9cd4 7cbd b5b1 1ebd 3b72 acbc
000001c0: f26d fabd d49a 5f3d b32f 24bd 0559 6b3d
000001d0: dbac a2bd 9a8a d4bc 001e fb3c c3c8 a03c
000001e0: 7d71 443e 27e0 ef3c 57dc 713c 486e 05bd
000001f0: 129c 233d 7e91 2f3d fa4d de3a 31c4 06be
00000200: 1482 d3bc 33e6 6e3c 6e5b 27be 26b8 93bc
00000210: be41 07bd f8b8 2fbe 9eb4 ec3c 9a3d b53b
00000220: d02b 853e c430 ffbc 5243 1f3e 6991 d4bd
00000230: 8571 9ebd 7239 06be 9459 26be 448d 553d
00000240: ecb1 c83c 680c 0cbe 6823 aabd 8470 2d3e
00000250: 7390 6ebe a8a4 b2bd af37 45be 392e 7cbd
00000260: 0ada c4bd ac8e ee3d 9e03 f3bd 8c84 1fbd
00000270: b794 55bd 277a 97be 5a40 df3d 825c 7cbd
00000280: ff74 21be c441 74bd 4a06 513d c9fb dbbc
00000290: 7928 62be ee49 3cbd e613 2dbd a4ae 303d
000002a0: 2163 033d 3ec8 bc3d 928c a1bd e1c7 9f3d
000002b0: 287b dabc 8c18 cbbd b7ad cdbd 4c29 9bbd
000002c0: 3769 473d d23b 35bd c36c 1ebe 1392 1d3d
000002d0: ca07 75bc 7e9e 87bc 77c8 983d d743 963d
000002e0: 28db da3c a5b5 27be ba4f e43c 42ee 593d
000002f0: 2740 dc3d 1752 3e3d be7b 193e e191 413d
00000300: 869c d6ba ed5d 083e f34f 9e3e 67ce 4abc
00000310: 7e52 033d a10a fdbc 5045 a8bd c510 0c3d
00000320: 215f 033e d96a f93d 4083 053e cedb a8bd
00000330: 3a42 cdbb 625e 86bd 2e2a d03c f2ab 2b3c
00000340: 4926 123d a88f 5b3e a52c e93d 77aa 98bc
00000350: e685 7d3b 1b4d 1dbd 0ede 243e cfaf 2b3d
00000360: a541 05bd f166 cfbc 6123 983d ad96 a53d
00000370: 5b34 ca3d 863c a4bd f29d cdbc bb7a 8abd
00000380: 45a9 f93d 4b6e ebba da6e 4d3e fd11 bcbd
00000390: 387f 9d3d 44ad c43d 0652 053e b326 7bbd
000003a0: f914 c53d 5db7 77bd 43af 773a 52f5 073e
000003b0: 63aa 30be 4a6e 223d 4030 0c3e 1a63 f5bb
000003c0: 4111 13be 16bd 3dbd 6455 5a3d 8215 663c
000003d0: d410 c0bc 0ecd 9f3d c58f 4ebd c294 0abe
000003e0: b712 233e 8259 a0bc 7ad0 12be 9623 f43d
000003f0: 1d99 85bd 3429 7dbc 8ab0 4d3e cf43 943c

conv3.bias f4 [20]
0.16353717 0.17059763 0.063386016 0.05942535 0.011380033 -0.08282423 0.07420057 0.06403513
0.18558098 0.07425072 -0.04226984 -0.038994506 -0.050708026 0.08300835 0.15046637 0.13450533
0.08802229 0.1007362 -0.038920734 -0.07240991
00000000: 4a76 273e 25b1 2e3e 87d0 813d ff67 733d
00000010: 5173 3a3c c09f a9bd 78f6 973d da24 833d
00000020: f108 3e3e c310 983d 2423 2dbd b4b8 1fbd
00000030: 38b3 4fbd 4800 aa3d db13 1a3e c4bb 093e
00000040: 0845 b43d c84e ce3d 596b 1fbd a64b 94bd

conv4.weight f4 [20, 20, 3]
-1.5439103e-38 -2.2180004e-38 -0.043710787 2.707829e-38 4.1894783e-38 -0.044414334 -9.421955e-39 1.1811395e-38
0.021885753 3.3632015e-38 -4.1209296e-38 0.12697549 -3.5706996e-38 2.949318e-39 0.013824284 -4.44469e-38
2.0047946e-38 0.051836707 -2.4701462e-38 -3.3163354e-38 0.12812474 -1.7290363e-38 5.925619e-38 0.043152597
-2.3634916e-38 2.0635682e-38 -0.04778783 -3.1161302e-38 -1.5964789e-38 -0.022196142 -1.88874e-40 6.283326e-38
-0.066893145 -5.412018e-39 1.5677719e-38 0.00571912 6.998487e-39 4.624471e-38 0.09086166 1.066151e-38
-5.415022e-38 0.0983244 -3.4742673e-38 6.204804e-38 -0.14102325 -1.4308294e-38 2.1172877e-38 -0.042451337
-4.2975848e-38 6.767033e-39 -0.065823406 -3.5498374e-38 3.362647e-39 -0.074872434 -3.184239e-38 6.8962124e-38
0.09971138 4.0368135e-38 2.3652522e-38 0.016561612 0.024243241 -0.03951389 0.016488217 -0.045525752
0.05883135 -0.0052320044 -0.01474317 -0.093112305 0.040089995 -0.05550907 -0.040842168 0.025397591
-0.02056627 -0.14510219 0.13623042 -0.062604114 -0.07242729 0.048444934 -0.15441032 -0.10996103
-0.051903345 0.02854399 -0.19514528 0.0722709 -0.059453927 0.050644945 -0.014408766 -0.078299426
0.06296883 0.13938121 -0.055521138 -0.022618787 -0.12556876 0.04388529 -0.0785789 -0.0066070682
0.046071976 -0.096093066 0.19318032 -0.11652994 0.079784505 0.06355945 -0.0386375 0.12087272
-0.10689986 0.08520688 -0.15709782 -0.17133428 -0.06626014 -0.020811785 -0.09159594 0.020758824
-0.010824168 -0.122761324 -0.03391902 0.016265022 -0.079240456 -0.009807581 -0.08239006 -0.05663675
-0.114616826 0.21383111 0.014424058 -0.09501797 -0.12308999 0.03825703 -0.022571415 -0.111739516
-0.065227084 -0.07226482 0.056271203 0.11715009 0.049911194 -0.106855735 -0.096370764 -0.018910592
-0.19435635 -0.029454468 -0.09947201 0.15877579 -0.06262231 -0.16191344 -0.061645556 -0.07027552
-0.15266667 -0.012201865 0.14199676 -0.15414621 0.1597467 0.14991201 0.0120751755 -0.16433458
0.11297206 -0.10977616 -0.043713987 -0.036352128 -0.12461711 0.10928604 -0.009790536 0.005594384
-0.113175735 -0.076227754 0.012427041 0.17190556 -0.08605755 0.026940217 -0.12907347 0.036812354
-0.15231934 0.0853064 0.16302766 -0.07898698 0.06451385 -0.056171257 -0.1093968 -0.19502452
-0.039902426 -0.17666978 -0.19724278 -0.022743253 -0.039032985 -0.0008244265 -0.020053333 0.112450734
0.039984766 0.021993576 -0.06806925 0.03989367 0.020708242 0.05650504 0.040138997 -0.06391159
-0.153576 0.06405057 -0.040162414 -0.027319115 0.09388202 0.014071586 0.10555726 0.099152826
-0.0007642514 0.012021336 0.020895625 -0.05448048 -0.05536715 0.05974993 0.015341611 0.10661266
0.03923169 -0.044023115 -0.012229416 -0.09256814 -0.016439466 -0.07314009 -0.04823171 -0.07377846
-0.122102566 0.15556462 -0.12830009 0.046810776 -0.05179492 0.01829605 -0.0023371587 -0.17758752
0.008830656 -0.15038957 0.08169006 0.027064716 -0.0013926713 -0.0027842172 -0.02666356 0.009603484
0.059274446 -0.063276656 0.019679686 0.010796648 -0.03341033 0.076505415 -0.04940693 -0.034767915
-0.10305874 0.0055633234 -0.14504057 0.043542657 -0.044998605 -0.049149405 0.009977096 -0.06355488
-0.13038541 -0.0628708 -0.05959611 0.017061686 -0.08012447 0.068677574 -0.013232524 -0.29160887
00000000: f01d a880 d484 f180 150a 33bd a16d 1301
00000010: ce18 6401 ceeb 35bd 9498 6680 5d9d 8000
00000020: c049 b33c 301c 3701 605d 6081 dd05 023e
00000030: 4a68 4281 801d 2000 407f 623c f0fd 7181
00000040: 844d da00 ba52 543d d07c 0681 f88e 3481
00000050: 2233 033e 7f46 bc80 8a4f a101 c7c0 303d
00000060: 44ae 0081 e3b3 e000 2cbd 43bd 84a8 2981
00000070: 56d7 ad80 afd4 b5bc 810e 0280 640c ab01
00000080: 46ff 88bd 81ee 3a80 1ab7 aa00 7567 bb3b
00000090: ef34 4c00 b8c7 7b01 ae15 ba3d f417 7400
000000a0: 3269 9381 4e5e c93d 3828 3d81 2ce9 a801
000000b0: 6668 10be b4cd 9b80 5e8d e600 74e1 2dbd
000000c0: 97fb 6981 bcaf 4900 6cce 86bd 8345 4181
000000d0: b19d 2400 b856 99bd d05d 2d81 96bb bb01
000000e0: 7b35 cc3d f8c8 5b01 cec6 0001 38ac 873c
000000f0: c399 c63c 51d9 21bd 4c12 873c 3679 3abd
00000100: 24f9 703d 3c71 abbb 568d 71bc aab1 bebd
00000110: 6835 243d 7b5d 63bd 1e4a 27bd 9c0e d03c
00000120: 987a a8bc ab95 14be fd7f 0b3e 9636 80bd
00000130: c254 94bd 326e 463d bd1d 1ebe 4033 e1bd
00000140: 9a98 54bd 16d5 e93c 2ad4 47be c402 943d
00000150: f685 73bd 1371 4f3d bf12 6cbc 735b a0bd
00000160: cdf5 803d f3b9 0e3e 226a 63bd 094b b9bc
00000170: 1995 00be 10c1 333d f9ed a0bd 1b80 d8bb
00000180: f8b5 3c3d 71cc c4bd 10d1 453e 40a7 eebd
00000190: 0f66 a33d 752b 823d 5b42 1ebd 1e8c f73d
000001a0: 50ee dabd f280 ae3d 40de 20be 4172 2fbe
000001b0: 65b3 87bd 7a7d aabc a796 bbbd 690e aa3c
000001c0: da57 31bc 4a6a fbbd acee 0abd 393e 853c
000001d0: d248 a2bd faaf 20bc 1fbc a8bd f0fb 67bd
000001e0: 3abc eabd 8bf6 5a3e e252 6c3c c898 c2bd
000001f0: 9b16 fcbd 67b3 1c3d b0e7 b8bc b0d7 e4bd
00000200: c795 85bd 94ff 93bd a27c 663d 63ec ef3d
00000210: ae6f 4c3d 2ed7 dabd 095e c5bd 63ea 9abc
00000220: 5a05 47be 7f4a f1bc fbb7 cbbd 1f96 223e
00000230: 2040 80bd a3cc 25be 0d80 7cbd 9dec 8fbd
00000240: a754 1cbe 55ea 47bc 9967 113e 81d8 1dbe
00000250: a494 233e 8982 193e f5d6 453c 5347 28be
00000260: e55d e73d 53d2 e0bd 700d 33bd f8e5 14bd
00000270: 4137 ffbd 5cd1 df3d 7c68 20bc 1851 b73b
00000280: aec8 e7bd 4c1d 9cbd ca9a 4b3c 0308 303e
00000290: f13e b0bd bbb1 dc3c d62b 04be 8dc8 163d
000002a0: 9af9 1bbe 1fb5 ae3d b9f0 263e edc3 a1bd
000002b0: d61f 843d d513 66bd 6e0b e0bd 82b4 47be
000002c0: ba70 23bd ece8 34be 03fa 49be 0f50 babc
000002d0: 0de1 1fbd 531e 58ba e346 a4bc 924c e63d
000002e0: 11c7 233d df2b b43c e467 8bbd 8b67 233d
000002f0: 55a4 a93c d471 673d ca68 243d 14e4 82bd
00000300: 0743 1dbe f22c 833d 5881 24bd 56cc dfbc
00000310: 3745 c03d 828c 663c 682e d83d a310 cb3d
00000320: 0b58 48ba 23f5 443c 4d2d ab3c ec26 5fbd
00000330: aac8 62bd 58bc 743d 615b 7b3c bd57 da3d
00000340: 69b1 203d 9551 34bd e35d 48bc 5d94 bdbd
00000350: 0fac 86bc 79ca 95bd 9d8e 45bd 2919 97bd
00000360: e910 fabd 554c 1f3e 1961 03be a8bc 3f3d
00000370: e926 54bd 99e1 953c 042b 19bb 81d9 35be
00000380: 75ae 103c b9ff 19be 1e4d a73d d3b6 dd3c
00000390: 4b8a b6ba 6a77 36bb 8a6d dabc ee57 1d3c
000003a0: c3c9 723d 3197 81bd 4b37 a13c 6de4 303c
000003b0: 45d9 08bd dfae 9c3d ec5e 4abd cd68 0ebd
000003c0: 7610 d3bd 8a4c b63b 8485 14be c959 323d
000003d0: 7550 38bd e350 49bd f976 233c 1029 82bd
000003e0: c183 05be 68c2 80bd 0d1b 74bd f3c4 8b3c
000003f0: 4c18 a4bd d4a6 8c3d 3acd 58bc c24d 95be

conv4.bias f4 [20]
-0.13309431 0.020332798 0.14936467 -0.102174625 0.10662499 -0.07493161 0.302238 -0.03158248
-0.064734116 0.13941862 -0.0867064 0.003717081 -0.037799843 -0.05211397 0.027097406 0.02937248
0.050034523 0.0066010165 0.100359425 0.09879453
00000000: e049 08be f890 a63c 0df3 183e ee40 d1bd
00000010: 345e da3d be75 99bd f0be 9a3e a15c 01bd
00000020: 5293 84bd c1c3 0e3e 2093 b1bd 459a 733b
00000030: 02d4 1abd 7575 55bd 61fb dd3c 8e9e f03c
00000040: 00f1 4c3d 574d d83b 3e89 cd3d c954 ca3d

conv5.weight f4 [1, 20, 3]
-0.14232028 -0.024564553 -0.03144358 -0.10610481 0.06748391 0.20174675 -0.115813 0.10280838
-0.11615314 0.093866915 -0.08111457 -0.110465504 0.11534683 -0.10211737 0.017340219 -0.1048865
0.037377533 0.062483985 0.12144599 -0.13860595 0.0673166 -0.012233968 -0.02424696 -0.10367685
-0.08829307 0.10693104 -0.0039911564 0.11446267 -0.09428236 0.15988351 0.15140545 0.022873854
0.08621371 -0.14600451 -0.07285955 0.047987398 0.039706115 0.03199821 -0.13073517 0.00093149516
-0.08287163 0.014578103 -0.09531205 -0.1289921 -0.069149196 -0.06898243 -0.09656846 -0.23733495
-0.10461658 0.11402751 0.07152513 -0.113318525 -0.11424325 -0.029242067 0.13817471 0.09835504
0.030560093 -0.022879414 -0.1070472 -0.10570751
00000000: 68bc 11be 9a3b c9bc fcca 00bd 7b4d d9bd
00000010: 0135 8a3d b396 4e3e 5e2f edbd 338d d23d
00000020: b3e1 edbd 4c3d c03d 651f a6bd bd3b e2bd
00000030: f53a ec3d e922 d1bd 130d 8e3c bcce d6bd
00000040: 2f19 193d 35ef 7f3d adb8 f83d b8ee 0dbe
00000050: 49dd 893d fb70 48bc 90a1 c6bc 8754 d4bd
00000060: ffd2 b4bd a9fe da3d 3fc8 82bb 686b ea3d
00000070: 1c17 c1bd 81b8 233e 080a 1b3e f361 bb3c
00000080: d090 b03d 3582 15be 6337 95bd 6f8e 443d
00000090: e1a2 223d 8e10 033d 71df 05be 952f 743a
000000a0: 9ab8 a9bd ffd8 6e3c f732 c3bd 8116 04be
000000b0: 189e 8dbd a946 8dbd afc5 c5bd ef07 73be
000000c0: 3841 d6bd 4187 e93d c47b 923d 8b13 e8bd
000000d0: 5df8 e9bd 0f8d efbc ac7d 0d3e 5e6e c93d
000000e0: 2959 fa3c 9c6d bbbc 903b dbbd 2e7d d8bd

fc1.weight f4 [1024, 2]
0.02976716 0.0021817593 -6.916728e-06 -5.061281e-06 -9.039659e-39 -2.0398556e-19 -0.025124427 -0.19191694
-0.013132801 -0.2562417 0.08686032 -0.29651764 -0.23993038 -0.42292365 -0.14627644 -0.43906966
0.13981038 -0.101932354 0.0034171294 0.5999539 7.430215e-18 6.4216165e-18 -0.1411186 -0.11683314
-0.04080275 -0.44903716 0.22463652 0.38967505 -0.3422646 0.34280315 -1.2612774e-21 3.0378844e-22
0.37214044 -0.024695449 -4.1140465e-05 -2.9653687e-05 -0.06310252 0.0016981743 0.38065764 0.28274003
0.00014801591 0.0003213118 0.29664072 0.1679474 -0.034094438 0.4535163 0.00024894418 0.0004353526
0.019652056 0.07014199 -6.5240886e-07 -5.729687e-07 0.25051212 0.27624407 0.0151373 0.11997522
0.43827718 0.25623623 -0.0064791758 -0.19155273 -0.059965186 -0.4549763 -0.33813682 0.3702051
0.015963478 -0.048825316 4.4841118e-21 -1.0880109e-26 -0.2324916 -0.11073765 -6.699615e-05 -9.525688e-05
0.124184884 0.3708043 -0.0017252372 -0.0031111394 -0.004570267 -0.039788425 0.019559106 0.057986934
1.959558e-11 -7.777184e-12 -6.719843e-05 -5.8021375e-05 3.4698176e-06 2.0669446e-05 -0.34838593 0.50025964
0.17965244 0.5819719 -1.4539569e-07 -3.6522913e-08 0.36571017 -0.4866 -9.889882e-13 -5.6294533e-09
-0.0001303139 -1.5718835e-05 -0.38697362 0.59284955 0.0013523961 0.009957977 0.12873168 -0.06454994
-0.14552896 -0.4818989 0.2043118 -0.05253223 -0.038613122 -0.08695823 -3.1097118e-09 -9.196336e-17
-0.3578361 -0.25727758 0.05872473 0.0065976735 -0.029592542 0.5497478 0.087162696 0.31033248
-0.017470207 0.3569851 2.2493095e-05 -1.5407202e-05 -2.1641586e-08 -2.0455975e-07 0.048250988 0.5333855
0.10430127 0.067508146 -7.544265e-05 -6.6303494e-07 -4.868078e-05 -5.6640984e-05 0.18177682 0.06705481
0.09552583 -0.027744977 -0.11163488 -0.47954914 -3.6558814e-07 -6.349725e-14 0.016733725 -0.04309932
0.025536153 -0.25029182 0.2991931 -0.2995514 -0.12730353 -0.24766085 -0.2966029 -0.0029176122
0.29199764 0.15585494 5.543276e-11 8.4349444e-11 0.11633769 0.25341338 -0.26805362 -0.52186334
1.26487455e-17 -3.4681625e-17 0.17257388 0.08022814 -0.47132468 0.39506182 -0.20964351 -0.70828617
0.29094207 -0.008788528 -0.09543497 0.17973526 7.967553e-26 -6.1669085e-36 -0.31140622 0.069697335
0.06333659 -0.23186897 -7.286369e-12 1.450718e-35 -0.036868293 -0.115169704 -0.18054716 0.2675682
0.07445718 -0.0027864827 0.08648555 0.6608881 -0.05271646 0.15486611 -0.38228762 -0.40150878
0.043840546 0.0036293792 0.5612446 -0.08956508 7.628548e-14 -2.3112572e-13 -1.02939154e-07 -3.939518e-06
0.15129168 0.04113006 0.43573397 0.25475156 2.63252e-24 2.346859e-15 -0.064676315 -0.21308164
0.2727604 -0.35786915 0.23620318 0.024014795 -0.08479949 -0.14238662 0.096954435 0.66705495
-6.549207e-11 -6.198978e-11 -0.186645 0.25285396 3.779669e-09 -7.3521753e-09 -3.50967e-10 -1.3792938e-09
-1.0183617e-05 -7.1192867e-06 -3.6185995e-07 -1.5102479e-09 -3.6595111e-09 -1.3248491e-08 -2.4680595e-16 -2.7058762e-17
0.043850314 -0.0013075373 -2.5958748e-06 8.1853426e-07 -0.02482665 -0.050715026 -1.1902315e-06 -7.500321e-07
-3.5675093e-29 -2.7977377e-31 0.054010205 -0.10576155 0.17776419 0.059153575 2.683266e-15 2.055072e-15
0.40497568 -0.5637561 0.30964673 0.35078323 -0.15537475 0.37917465 0.054250397 0.517912
00000000: 42da f33c d9fb 0e3b 3e16 e8b6 13d4 a9b6
00000010: e46e 6280 dad2 70a0 bed1 cdbc e085 44be
00000020: f62a 57bc 1d32 83be d3e3 b13d 29d1 97be
00000030: 4fb0 75be 7389 d8be 7ec9 15be bdcd e0be
00000040: 742a 0f3e e9c1 d0bd ebf1 5f3b 9496 193f
00000050: 3310 0923 74ea ec22 6581 10be 3746 efbd
00000060: c920 27bd 33e8 e5be 1e07 663e 7d83 c73e
00000070: 4e3d afbe e583 af3e 4e99 be9c fca0 b71b
00000080: 3189 be3e 1c4e cabc 3d8e 2cb8 cfc0 f8b7
00000090: e53b 81bd 4695 de3a 8fe5 c23e 4dc3 903e
000000a0: b834 1b39 bd75 a839 4be1 973e 67fa 2b3e
000000b0: 9ca6 0bbd 4a33 e83e b984 8239 0940 e439
000000c0: 59fd a03c 9ba6 8f3d 3221 2fb5 1cce 19b5
000000d0: 2043 803e dd6f 8d3e 7002 783c 91b5 f53d
000000e0: de65 e03e 6531 833e 444f d4bb 6626 44be
000000f0: 0e9e 75bd a7f2 e8be 4520 adbe 868b bd3e
00000100: d7c5 823c 0efd 47bd ab67 a91d b580 5794
00000110: 4712 6ebe 6cca e2bd 4980 8cb8 a6c4 c7b8
00000120: a554 fe3d 10da bd3e 5b21 e2ba 42e4 4bbb
00000130: 2ec2 95bb 30f9 22bd 6b3a a03c b583 6d3d
00000140: 535d ac2d 53d1 08ad e2ec 8cb8 fa5b 73b8
00000150: 03db 6836 4c63 ad37 a45f b2be 0411 003f
00000160: cff6 373e 1cfc 143f 101e 1cb4 5edd 1cb3
00000170: 5d3e bb3e a323 f9be 0e30 8bab 326d c1b1
00000180: dfa4 08b9 f1db 83b7 6821 c6be fdc4 173f
00000190: e242 b13a c826 233c 3dd2 033e c232 84bd
000001a0: 8b05 15be 74bb f6be 1d37 513e 092c 57bd
000001b0: cb28 1ebd 2817 b2bd a1b2 55b1 960d d4a4
000001c0: 4b36 b7be e3b9 83be 5889 703d 4c31 d83b
000001d0: 0f6c f2bc 46bc 0c3f 5b82 b23d e6e3 9e3e
000001e0: ae1d 8fbc c0c6 b63e 8eaf bc37 b73e 81b7
000001f0: 5ae6 b9b2 f5a4 5bb4 d4a2 453d f48b 083f
00000200: e79b d53d b641 8a3d f736 9eb8 6afb 31b5
00000210: 972e 4cb8 cb91 6db8 b423 3a3e 0854 893d
00000220: 0ca3 c33d 6f49 e3bc d4a0 e4bd 7787 f5be
00000230: 0d46 c4b4 acfb 8ea9 2a15 893c ea88 30bd
00000240: 3231 d13c 4026 80be d72f 993e cd5e 99be
00000250: db5b 02be ce9a 7dbe 56dc 97be 6935 3fbb
00000260: b780 953e 7098 1f3e bdcb 732e 847c b92e
00000270: 7442 ee3d 66bf 813e 533e 89be d698 05bf
00000280: 0354 6923 d6f0 1fa4 35b7 303e a74e a43d
00000290: 7851 f1be 8b45 ca3e caac 56be 3e52 35bf
000002a0: 5cf6 943e c2fd 0fbc 6973 c3bd 850c 383e
000002b0: 5e44 c515 d827 0385 a370 9fbe 7abd 8e3d
000002c0: 9db6 813d 0f6f 6dbe e42e 00ad 4d44 9a05
000002d0: 3503 17bd 18de ebbd 5be1 38be b3fe 883e
000002e0: 027d 983d 6c9d 36bb 561f b13d f62f 293f
000002f0: 37ed 57bd 3995 1e3e 34bb c3be 8f92 cdbe
00000300: 2592 333d e1da 6d3b baad 0f3f e66d b7bd
00000310: 96c7 ab29 ba1c 82aa 660f ddb3 3430 84b6
00000320: 35ec 1a3e fe77 283d 8618 df3e cc6e 823e
00000330: 6eae 4b18 e81b 2927 0475 84bd 1332 5abe
00000340: 40a7 8b3e a03a b7be 3fdf 713e adba c43c
00000350: 5bab adbd cccd 11be 0c90 c63d 1dc4 2a3f
00000360: c204 90ae 2551 88ae de1f 3fbe 1376 813e
00000370: 52de 8131 6b9e fcb1 37f2 c0af 9691 bdb0
00000380: 4dda 2ab7 35e2 eeb6 a745 c2b4 2091 cfb0
00000390: cd7a 7bb1 7b9b 63b2 2146 8ea5 b292 f9a3
000003a0: 639c 333d ac61 abba ca34 2eb6 3fb9 5b35
000003b0: 4261 cbbc 8fba 4fbd 0bc0 9fb5 d055 49b5
000003c0: ebe4 3490 6495 b58c ce39 5d3d 8399 d8bd
000003d0: d107 363e 054b 723d 8559 4127 6315 1427
000003e0: f958 cf3e 5252 10bf 048a 9e3e dc99 b33e
000003f0: 8f1a 1fbe 2e23 c23e aa35 5e3d e195 043f

fc1.bias f4 [1024]
-0.015902296 -4.8069676e-05 -1.6498238e-13 0.12324471 0.36504963 0.1775723 0.27449766 0.34343424
0.1610777 0.10848621 -1.0458809e-17 0.31668037 0.27202556 -0.259044 0.17815298 -1.667245e-20
-0.17474414 -8.508725e-08 0.08866356 -0.3763781 0.00022013369 -0.23609298 0.089376405 0.00027812706
-0.027241431 -1.6629856e-05 0.4115467 0.19298355 -0.08314813 0.120307304 0.42760083 0.0835809
0.06230591 -6.842342e-11 0.351148 -0.00010506978 -0.16126335 0.0018059586 0.025743525 0.03599907
-5.2855874e-08 -7.1156894e-05 -2.9377357e-05 0.018760663 -0.25825647 -2.7952265e-08 0.32800433 -6.709022e-07
-4.282292e-05 -0.079864256 -0.007048279 0.47220832 0.34841385 0.32952863 0.047847576 -8.161119e-10
0.46535882 -0.03206737 -0.18310036 -0.15647224 -0.16641888 2.085523e-05 -3.8368375e-06 -0.17663877
0.14116617 -7.002723e-05 -7.940269e-05 -0.07116886 -0.030643232 0.3557644 -5.6149324e-06 0.025587639
0.1558107 0.52309906 0.36386955 0.28589097 -0.0060263034 -8.0659424e-11 0.013082345 0.46920592
-2.0632674e-17 0.31806302 0.08585098 0.607975 -0.13949625 0.062602 -2.1028027e-15 0.43113607
0.1386599 -3.3414455e-10 0.3427699 -0.05250364 -0.03432382 -0.228962 0.21193354 0.53429514
-0.023552392 -0.24056412 -1.1506387e-08 -2.3921564e-06 -0.089625925 0.2964069 -1.245629e-09 0.12647657
0.213317 -0.1273765 0.13404334 -0.35372064 -8.050294e-11 0.46767405 -6.550967e-07 -2.3846626e-06
-2.2749615e-05 -1.7191552e-06 -1.5214655e-05 -8.237007e-17 -0.020702586 -7.645005e-06 0.026458034 -6.3249286e-06
-1.0022163e-18 0.063494496 -0.11186611 -1.3766425e-14 0.33168593 -0.26749846 0.23752186 0.15969557
-3.2543041e-06 0.0075305346 -0.027365213 -5.2111574e-08 -3.0538627e-05 -0.0001017099 -0.00010974506 -6.5218514e-06
-0.01678433 0.41891474 -0.18898453 -0.23231877 0.16797248 -0.00021504193 0.00027037956 0.1316959
-0.10517941 -5.9692655e-07 0.32720706 0.022995088 -7.209773e-16 -3.7764166e-05 0.49158645 0.19279277
-0.05932706 -2.2608795e-07 0.05764564 -0.5184242 0.036853895 0.37436593 3.2389475e-20 -2.5935535e-05
0.30364844 0.34585565 -0.037706047 0.22027728 0.39226764 -0.0056161396 -0.00010116004 -0.048831344
0.2387453 0.37923667 -1.3837538e-06 -0.21014903 -0.16420957 0.05773148 0.534254 -0.08073321
-0.25909805 0.23215789 -0.18343683 -2.3016813e-05 0.02368314 0.17354682 -0.1451505 -2.3546613e-13
0.21397813 0.07690817 -8.607907e-21 0.38198417 -0.31170577 0.24482796 0.14666064 -0.0039713522
0.53657186 0.49368334 -7.3043986e-05 0.13096316 0.30255234 -0.13205001 0.16407195 -1.3247899e-11
-0.00013893675 -1.5726737e-06 -0.00013614149 0.005461822 -0.048501235 -1.9959569e-05 -1.5171038e-07 -0.3360664
0.08260748 -0.18054667 0.16170996 0.22460553 0.017848147 0.1853397 0.17367388 -7.0472767e-10
-4.305321e-05 0.30449834 0.30012456 -0.007903746 0.10191264 0.4171105 0.60641474 0.12461706
-0.01889182 -0.046899423 -4.9952327e-08 -1.3293138e-21 0.17924419 0.0042370767 0.11374104 -0.15925217
-0.08146875 0.49241713 -4.937401e-05 0.023742033 -1.5373602e-14 -0.31940022 0.2164476 -0.12727053
0.39960918 -0.01725051 0.33310565 -1.7506432e-05 -1.04309065e-05 -0.22586441 -0.005826882 0.22006057
-1.6556794e-05 -0.10104381 -0.05569579 -0.07120624 -0.00012590301 -0.16154997 0.09354672 0.068433054
00000000: 8845 82bc 6c9e 49b8 efc0 39aa b967 fc3d
00000010: c9e7 ba3e 83d5 353e f58a 8c3e 9dd6 af3e
00000020: 8df1 243e 052e de3d 54ee 40a3 ee23 a23e
00000030: ef46 8b3e 6aa1 84be bc6d 363e 8377 9d9e
00000040: 21f0 32be 36b9 b6b3 3e95 b53d a1b4 c0be
00000050: b0d3 6639 5cc2 71be fa0a b73d 95d1 9139
00000060: 6c29 dfbc 5880 8bb7 40b6 d23e 7b9d 453e
00000070: 9149 aabd ad63 f63d 7fee da3e 772c ab3d
00000080: 7b34 7f3d f676 96ae acc9 b33e e958 dcb8
00000090: 3822 25be eab5 ec3a 16e4 d23c c373 133d
000000a0: a603 63b3 113a 95b8 656f f6b7 f6af 993c
000000b0: 313a 84be ae1b f0b2 2ff0 a73e 0c18 34b5
000000c0: c39c 33b8 df8f a3bd 40f5 e6bb 4ac5 f13e
000000d0: 4d63 b23e fab7 a83e d2fb 433d c554 60b0
000000e0: 8343 ee3e 1359 03bd a97e 3bbe 423a 20be
000000f0: b669 2abe 44f2 ae37 2fbe 80b6 cbe0 34be
00000100: dd8d 103e 95db 92b8 ff84 a6b8 fbc0 91bd
00000110: 8407 fbbc c026 b63e e767 bcb6 2b9d d13c
00000120: d78c 1f3e d2e9 053f 1c4d ba3e 4d60 923e
00000130: 4c78 c5bb 385f b1ae 5557 563c c23b f03e
00000140: 864d bea3 28d9 a23e a3d2 af3d 40a4 1b3f
00000150: 1bd8 0ebe 7a35 803d dd85 17a7 debd dc3e
00000160: dcfc 0d3e aab2 b7af 897f af3e 0f0e 57bd
00000170: 2297 0cbd 0475 6abe 1b05 593e 91c7 083f
00000180: f2f0 c0bc 7156 76be a0ad 45b2 ef88 20b6
00000190: cc8d b7bd a5c2 973e ad32 abb0 1383 013e
000001a0: c66f 5a3e fc6e 02be a842 093e df1a b5be
000001b0: 2007 b1ae f972 ef3e e7d9 2fb5 3108 20b6
000001c0: 6dd6 beb7 b9bd e6b5 7242 7fb7 b5ee bda4
000001d0: 7898 a9bc 0c43 00b7 85be d83c b93a d4b6
000001e0: a9e6 93a1 6709 823d 0f1a e5bd 6efe 77a8
000001f0: bdd2 a93e 8ff5 88be ee38 733e 3c87 233e
00000200: 8564 5ab6 b4c2 f63b 032d e0bc 48d1 5fb3
00000210: 9a16 00b8 164d d5b8 ee26 e6b8 47d6 dab6
00000220: 4b7f 89bc fe7b d63e 2985 41be f9e4 6dbe
00000230: fa00 2c3e e17c 61b9 bbc1 8d39 4adb 063e
00000240: 4d68 d7bd 7b3c 20b5 af87 a73e 3260 bc3c
00000250: bcce 4fa6 f764 1eb8 38b1 fb3e 786b 453e
00000260: ee00 73bd 95c2 72b4 d61d 6c3d 73b7 04bf
00000270: 1cf4 163d e4ac bf3e 79f4 181f 2390 d9b7
00000280: cf77 9b3e fe13 b13e a871 1abd 5e90 613e
00000290: 4ed7 c83e 9807 b8bb e225 d4b8 6003 48bd
000002a0: a679 743e 4f2b c23e 6bb9 b9b5 4f31 57be
000002b0: 8e26 28be d877 6c3d dfc4 083f 7457 a5bd
000002c0: 80a8 84be ccba 6d3e ddd6 3bbe 3b14 c1b7
000002d0: 2503 c23c 42b6 313e 55a2 14be 3f8e 84aa
000002e0: 151d 5b3e 0882 9d3d 4999 229e 6e93 c33e
000002f0: e697 9fbe 2eb4 7a3e 352e 163e 1e22 82bb
00000300: c65c 093f 10c4 fc3e 312f 99b8 351b 063e
00000310: 24e8 9a3e 1e38 07be 7a02 283e 3c0f 69ad
00000320: 8daf 11b9 a814 d3b5 34c1 0eb9 15f9 b23b
00000330: 3ba9 46bd d96e a7b7 d5e5 22b4 e510 acbe
00000340: 1c2e a93d 3ae1 38be 4c97 253e fefe 653e
00000350: 4736 923c b1c9 3d3e 91d7 313e cdb6 41b0
00000360: 0894 34b8 35e7 9b3e eda9 993e b77e 01bc
00000370: 93b7 d03d 828f d53e ff3d 1b3f 3b37 ff3d
00000380: 05c3 9abc 9c19 40bd 2a8b 56b3 56e1 c89c
00000390: ca8b 373e 2dd7 8a3b 10f1 e83d 0013 23be
000003a0: 17d9 a6bd 191e fc3e f116 4fb8 a77e c23c
000003b0: 1d79 8aa8 6d88 a3be 71a4 5d3e 3553 02be
000003c0: 9399 cc3e f150 8dbc d38c aa3e c7da 92b7
000003d0: 6700 2fb7 0049 67be 6eef bebb 8f57 613e
000003e0: 72e3 8ab7 0ff0 cebd 4521 64bd 94d4 91bd
000003f0: d504 04b9 5b6d 25be 6c95 bf3d a126 8c3d

fc2.weight f4 [2, 1024]
0.028792633 -4.5662062e-05 -8.964146e-15 -0.09018177 -0.025472734 -0.04830202 -0.06963992 -0.0548783
-0.0008575028 0.05701113 -3.3584395e-18 -7.452767e-05 -0.08251245 0.04640971 0.029663403 1.541967e-20
0.05271561 4.6285597e-05 -0.0112692695 0.07667914 0.00021326588 0.07921504 0.024797706 0.00030284887
0.026575152 -1.4791316e-05 0.031598426 0.008531179 0.022331249 -0.06735608 -0.035527706 0.045616105
0.0038934255 -4.3465204e-11 0.016864128 -0.00011655182 0.025111154 -0.0020720277 -0.013011814 0.0056309905
4.6553644e-10 -6.745385e-05 -1.5838183e-06 0.044777695 0.070124954 -4.893186e-07 -0.035606373 -1.2877457e-07
3.4199005e-05 0.04627119 -0.0020889468 -0.0070277266 -0.037088733 -0.020222872 -0.035196498 -3.4870542e-09
-0.02471943 0.03971571 0.058561515 0.024346828 0.014508164 -2.3516575e-05 -1.972756e-06 0.06310021
0.0123032555 -1.1469381e-05 -6.479322e-05 0.030622786 0.048506357 -0.06055305 2.427838e-12 -0.031996902
-0.043564454 -0.023099383 -0.018100599 -0.015912909 0.04304979 4.3953122e-12 0.022840703 -0.08828104
5.620097e-18 0.02917693 0.063762404 -0.08359346 0.071699016 -0.005680652 -1.1633437e-15 -0.006072415
-0.05777008 -9.411177e-39 0.0021488927 0.03438628 0.041407935 0.06367414 -0.0060992776 -0.050889138
0.036049295 0.07386231 -1.9260968e-09 -1.0819804e-06 0.05177209 0.033936128 -3.951346e-13 -0.07651409
-0.01963867 0.074857876 -0.015459752 0.006050362 -1.1373395e-10 0.007821405 -2.2100823e-08 -2.0122144e-07
-8.614821e-06 -1.2405688e-07 -9.080652e-06 -3.634418e-17 0.02724241 6.1043083e-06 -0.016438093 -6.1821916e-06
-6.6726525e-32 -0.017733112 0.08005323 5.1802045e-15 -0.07645201 0.062774956 0.04794918 0.045006763
-7.815946e-06 0.03666585 0.07706241 2.841951e-08 -2.9385666e-05 7.649477e-06 -2.3356326e-06 -4.5059323e-06
0.040115293 0.029915629 0.043649375 0.028409416 -0.028421259 1.8082475e-06 0.023566956 -0.033971105
0.035555806 -5.7763407e-09 0.04486864 0.006872844 -4.9746584e-20 -0.000159288 0.015060595 -0.08253986
0.0041791108 6.52188e-11 -0.020611344 0.07694207 0.04946802 0.01788737 -1.5744217e-19 3.1612628e-05
0.02461288 0.017131463 0.044090632 -0.067225665 -0.067784384 0.0001483761 -6.0892256e-05 0.03237798
-0.0069820466 0.024173131 -1.3926343e-06 0.04934109 0.044665508 -0.07194139 -0.020134319 0.061102677
0.080483146 -0.03383312 0.064633824 1.0384343e-09 -0.009539329 0.018735873 0.05263012 -1.2591974e-13
0.012564036 -0.049519606 -9.182612e-21 -0.04072527 0.0506286 -0.025448347 -0.09890786 0.022131251
-0.003330654 -0.008272762 -3.6553079e-06 -0.06752019 -0.04234526 0.026771747 -0.011217808 4.3731416e-12
-0.00015845824 -8.5768596e-07 2.5866519e-05 0.02630998 0.024460204 2.6483743e-08 2.936673e-07 0.06787394
-0.071294084 0.042500094 -0.03475626 -0.019307768 0.0010429381 -0.0391364 -0.04361091 -4.2490903e-11
-4.5107987e-05 -0.032031037 -0.03235073 0.013107221 0.028833175 0.032880764 -0.08154647 -0.03153677
0.037976965 0.0130332075 -3.5958607e-08 8.7626885e-28 0.0039245607 0.004513212 0.04358122 0.026305042
0.042888317 0.01571439 6.63994e-05 -0.020919746 2.59444e-29 0.08466034 -0.0629797 -0.015993008
0.034590367 0.029981026 0.026690615 -1.6077727e-05 2.2471697e-06 0.058415487 -0.0020756205 -0.06686712
-1.7684244e-05 0.07705156 0.021803165 0.01356561 0.00012052324 0.086082615 -0.03658424 -0.03550868
00000000: 87de eb3c 4485 3fb8 d47b 21a8 38b1 b8bd
00000010: 32ac d0bc 57d8 45bd 609f 8ebd 11c8 60bd
00000020: 0aca 60ba 8184 693d 21cf 77a2 bd4b 9cb8
00000030: 4afc a8bd 1c18 3e3d aa00 f33c 79a2 911e
00000040: 53ec 573d c822 4238 bea2 38bc f409 9d3d
00000050: 20a0 5f39 7f3b a23d 8f24 cb3c b0c7 9e39
00000060: 22b4 d93c 3828 78b7 5a6d 013d 5cc6 0b3c
00000070: 06f0 b63c fcf1 89bd 8085 11bd f4d7 3a3d
00000080: d728 7f3b 7829 3fae a426 8a3c 486d f4b8
00000090: e8b5 cd3c dbca 07bb 812f 55bc 2c84 b83b
000000a0: 6eee ff2f 0376 8db8 9593 d4b5 d168 373d
000000b0: ac9d 8f3d b859 03b5 fdd7 11bd 4945 0ab4
000000c0: e770 0f38 dc86 3d3d b6e6 08bb d848 e6bb
000000d0: 5bea 17bd 70aa a5bc 342a 10bd e8a0 6fb1
000000e0: 6780 cabc f1ac 223d 33de 6f3d 0073 c73c
000000f0: a6b3 6d3c 7645 c5b7 b163 04b6 af3a 813d
00000100: 9893 493c 9e6c 40b7 98e1 87b8 a3dc fa3c
00000110: 9aae 463d 7a06 78bd 0bd8 2a2c 2f0f 03bd
00000120: a470 32bd eb3a bdbc b547 94bc ca5b 82bc
00000130: fa54 303d 74a5 9a2c 6d1c bb3c b1cc b4bd
00000140: 5158 cf22 7504 ef3c dd95 823d 0c33 abbd
00000150: efd6 923d c324 babb cfa7 a7a6 1cfb c6bb
00000160: 52a0 6cbd 887a 6680 70d4 0c3b a1d8 0c3d
00000170: 5e9b 293d 9667 823d 73dc c7bb 2171 50bd
00000180: 6da8 133d 1f45 973d 415c 04b1 9038 91b5
00000190: f90e 543d 9c00 0b3d e670 deaa 6bb3 9cbd
000001a0: 47e1 a0bc 164f 993d e64a 7dbc 1d42 c63b
000001b0: 861a faae 5a25 003c 39d8 bdb2 540f 58b4
000001c0: 6088 10b7 7f34 05b4 1a59 18b7 a29b 27a4
000001d0: 7a2b df3c 9cd3 cc36 2ea9 86bc 9f70 cfb6
000001e0: 623b ad8b 0845 91bc f3f2 a33d f4a2 ba27
000001f0: df92 9cbd 2890 803d 5c66 443d 0359 383d
00000200: 3c21 03b7 ee2e 163d e6d2 9d3d 2a1f f432
00000210: 3d81 f6b7 4156 0037 ddbd 1cb6 aa31 97b6
00000220: ef4f 243d 9f11 f53c b0c9 323d ddba e83c
00000230: b3d3 e8bc e9b2 f235 7d0f c13c 4925 0bbd
00000240: f7a2 113d 3b79 c6b1 2ec8 373d 9835 e13b
00000250: eeeb 6a9f 8c06 27b9 b7c0 763c a80a a9bd
00000260: ecf0 883b ec6a 8f2e 1fd9 a8bc ce93 9d3d
00000270: fb9e 4a3d 8988 923c fadf 39a0 cd97 0438
00000280: f3a0 c93c 4857 8c3c 6198 343d 9cad 89bd
00000290: 8ad2 8abd 6895 1b39 9066 7fb8 c69e 043d
000002a0: a7c9 e4bb bb06 c63c 8dea bab5 e219 4a3d
000002b0: 2ef3 363d 0256 93bd baf0 a4bc cd46 7a3d
000002c0: 59d4 a43d 9994 0abd bd5e 843d a9b8 8e30
000002d0: d94a 1cbc f97b 993c ae92 573d e5c5 0daa
000002e0: 63d9 4d3c 12d5 4abd 6374 2d9e 8acf 26bd
000002f0: ef5f 4f3d 0d79 d0bc 3490 cabd 994c b53c
00000300: 1a47 5abb 7b8a 07bc b64d 75b6 0648 8abd
00000310: 3972 2dbd 6c50 db3c e6ca 37bc c2dd 992c
00000320: cf27 26b9 bb3b 66b5 edfb d837 0788 d73c
00000330: c460 c83c 5e7e e332 54a9 9d34 7e01 8b3d
00000340: a202 92bd 9414 2e3d 955c 0ebd 532b 9ebc
00000350: 32b3 883a 7d4d 20bd 5ba1 32bd 81e0 3aae
00000360: 5532 3db8 fa32 03bd 3382 04bd abbf 563c
00000370: 8d33 ec3c fbad 063d d601 a7bd b32c 01bd
00000380: bc8d 1b3d 3c89 553c e870 1ab3 b0d9 8a12
00000390: 9a99 803b 91e3 933b 3982 323d ac7d d73c
000003a0: a9ab 2f3d 77bb 803c e83f 8b38 e35f abbc
000003b0: c28d 0310 6662 ad3d 80fb 80bd c503 83bc
000003c0: a1ae 0d3d c59a f53c 47a6 da3c a8de 86b7
000003d0: 15ce 1636 1445 6f3d 2207 08bb a1f1 88bd
000003e0: a058 94b7 35cd 9d3d 8d9c b23c 4b42 5e3c
000003f0: 6cc1 fc38 154c b03d 5bd9 15bd 8d71 11bd

fc2.bias f4 [2]
-0.0036466848 -0.022902727
00000000: 38fd 6ebb 809e bbbc

norm3.weight f4 [20]
1.0676138 0.99801105 1.0207579 1.0382798 1.0289946 -0.2897394 1.0381371 1.0357685
1.0126917 1.1157694 1.0361627 1.0193688 1.138323 1.033973 1.1670827 0.9795506
0.99643695 1.0434779 1.0189778 1.0131649
00000000: 92a7 883f a77d 7f3f 32a8 823f 5ae6 843f
00000010: 18b6 833f b958 94be ade1 843f 1094 843f
00000020: e29f 813f 88d1 8e3f fba0 843f ad7a 823f
00000030: 91b4 913f 3a59 843f f762 953f d4c3 7a3f
00000040: 7e16 7f3f af90 853f dd6d 823f 63af 813f

norm3.bias f4 [20]
-0.020104382 0.1009787 0.019769222 0.029936014 0.016253026 0.03561847 0.032320622 -0.012425973
0.012257191 0.03985602 -0.0014459331 0.00706258 0.0072786203 -0.0073115877 0.02048356 0.0152575895
-0.0032927925 0.029358039 -0.027680283 0.025909673
00000000: f2b1 a4bc eccd ce3d 10f3 a13c 5f3c f53c
00000010: 1125 853c ace4 113d a162 043d 4f96 4bbc
00000020: 63d2 483c 1140 233d 7785 bdba 376d e73b
00000030: 7e81 ee3b 0b96 efbb 24cd a73c f8fa 793c
00000040: e4cb 57bb 4580 f03c c3c1 e2bc 8640 d43c

norm3.running_mean f4 [20]
14.838107 5.039017 16.6155 28.194033 14.63368 0.0013731583 10.330225 33.94403
27.290525 19.0779 2.2785091 6.807241 2.2564578 13.950885 1.22452 8.213883
19.091286 37.156094 9.673888 28.65251
00000000: e368 6d41 a13f a140 8bec 8441 618d e141
00000010: 8e23 6a41 8cfb b33a 9a48 2541 b0c6 0742
00000020: ff52 da41 8a9f 9841 18d3 1140 ebd4 d940
00000030: ce69 1040 d336 5f41 12bd 9c3f 116c 0341
00000040: f4ba 9841 d79f 1442 3fc8 1a41 5738 e541

norm3.running_var f4 [20]
128.07117 27.989874 277.96588 446.55685 73.630394 1.7710388e-05 113.91855 1348.075
1109.6342 33.377365 12.684139 88.93669 7.621822 102.7503 1.318041 106.01819
58.31102 1412.7275 149.8311 583.1171
00000000: 3812 0043 43eb df41 a2fb 8a43 4747 df43
00000010: c342 9342 c590 9437 4cd6 e342 6682 a844
00000020: 4bb4 8a44 6c82 0542 3cf2 4a41 96df b142
00000030: f7e5 f340 2780 cd42 91b5 a83f 5009 d442
00000040: 7c3e 6942 4897 b044 c3d4 1543 7fc7 1144

norm4.weight f4 [20]
1.0031235 1.0214541 1.02758 0.95376265 1.0989497 1.0252506 1.0104054 1.0294842
1.0494049 0.98881936 0.9728078 0.9900471 1.0856186 0.9303072 1.0534775 1.0145713
1.0624003 1.0226756 1.0118195 1.0155677
00000000: 5a66 803f 02bf 823f be87 833f ca29 743f
00000010: 62aa 8c3f 693b 833f f754 813f 23c6 833f
00000020: e652 863f 4423 7d3f ef09 793f ba73 7d3f
00000030: 8df5 8a3f 9d28 6e3f 5ad8 863f 79dd 813f
00000040: bcfc 873f 09e7 823f 4d83 813f 1ffe 813f

norm4.bias f4 [20]
-0.065478824 -0.054930944 -0.058830723 0.0010533967 -0.03890934 -0.039412487 -0.06839919 -0.0543744
-0.093341716 -0.06952578 -0.068920225 -0.0447024 0.012416516 0.042171467 -0.06595321 0.013642068
-0.0779469 -0.109437466 -0.09160049 -0.07313899
00000000: c319 86bd 45ff 60bd 7cf8 70bd 2112 8a3a
00000010: 665f 1fbd fd6e 21bd e014 8cbd b1b7 5ebd
00000020: f129 bfbd 8863 8ebd 0c26 8dbd dd19 37bd
00000030: a56e 4b3c fdbb 2c3d 7a12 87bd fb82 5f3c
00000040: a0a2 9fbd c020 e0bd 0a99 bbbd e5c9 95bd

norm4.running_mean f4 [20]
12.04671 4.189138 13.201313 21.390442 11.745535 0.0010299385 10.285729 25.734797
21.155655 15.970654 1.94055 5.183732 1.8919613 10.931106 1.1476531 7.2882624
14.6669855 28.389973 7.2995543 21.925852
00000000: 53bf 4041 6b0d 8640 9438 5341 a01f ab41
00000010: b6ed 3b41 00ff 863a 5992 2441 dde0 cd41
00000020: c83e a941 cc87 7f41 f163 f83f 22e1 a540
00000030: ca2b f23f cfe5 2e41 4ce6 923f 7239 e940
00000040: f9ab 6a41 aa1e e341 f395 e940 2568 af41

norm4.running_var f4 [20]
156.11275 26.91701 240.93999 132.33496 9.411779 6.134347e-06 44.66653 894.3977
581.93835 27.375252 6.055651 26.542126 1.8621618 28.082924 0.7110122 45.481266
45.03779 912.025 47.882782 472.02808
00000000: dd1c 1c43 0956 d741 a3f0 7043 c055 0443
00000010: a696 1641 a4d5 cd36 87aa 3242 7499 5f44
00000020: 0e7c 1144 8400 db41 e5c7 c140 4656 d441
00000030: 515b ee3f d4a9 e041 e504 363f d1ec 3542
00000040: b226 3442 9a01 6444 f887 3f42 9803 ec43

norm5.weight f4 [20]
0.9982747 1.0360186 0.9951294 1.0011872 0.95936996 0.98262876 1.0250242 0.92529
0.9891059 1.0560102 1.0161629 0.9985456 0.9778691 0.97652745 0.95062804 1.0242679
1.0188619 0.98214304 0.9841827 0.9994995
00000000: ee8e 7f3f 429c 843f cdc0 7e3f e726 803f
00000010: 4599 753f 8f8d 7b3f fe33 833f cedf 6c3f
00000020: 0b36 7d3f 582b 873f a011 823f afa0 7f3f
00000030: a155 7a3f b4fd 793f 5c5c 733f 361b 833f
00000040: 116a 823f ba6d 7b3f 66f3 7b3f 33df 7f3f

norm5.bias f4 [20]
-0.023030326 -0.024288168 -0.023492748 0.0023975477 -0.013788324 -0.022629384 -0.007448224 -0.016478864
0.0076318756 0.01858273 0.022352189 -0.022813858 0.034017373 -0.021666264 -0.022143535 -0.021061778
-0.011957274 -0.022627272 0.022474907 -0.021003807
00000000: 18aa bcbc fbf7 c6bc dd73 c0bc 2d20 1d3b
00000010: 6ce8 61bc 4261 b9bc 3b10 f4bb affe 86bc
00000020: d014 fa3b cf3a 983c f01b b73c 21e4 babc
00000030: cd55 0b3d 737d b1bc 5c66 b5bc c089 acbc
00000040: 71e8 43bc d45c b9bc 4c1d b83c 2d10 acbc

norm5.running_mean f4 [20]
6.064641 2.4174314 7.2819304 10.885472 6.864401 0.12702589 6.8756576 13.028605
10.751841 8.512762 1.22674 2.6879067 1.4522164 5.6221204 1.0482763 3.9888954
7.6132765 14.588376 3.9640288 11.448235
00000000: 8a11 c240 32b7 1a40 9305 e940 e52a 2e41
00000010: 2ca9 db40 1313 023e 6305 dc40 2b75 5041
00000020: 8a07 2c41 4634 0841 d105 9d3f aa06 2c40
00000030: 3ae2 b93f 69e8 b340 eb2d 863f 104a 7f40
00000040: f69f f340 fd69 6941 a6b2 7d40 f82b 3741

norm5.running_var f4 [20]
38.54064 5.760685 68.68169 32.687386 1.3620797 0.04114593 4.2683425 227.59196
147.99634 4.770364 2.0966961 7.132474 0.8402924 7.145209 0.5319814 13.387992
10.991565 233.72263 13.747516 110.054436
00000000: 9e29 1a42 8857 b840 065d 8942 e2bf 0242
00000010: a158 ae3f a288 283d 4396 8840 8b97 6343
00000020: 10ff 1343 d2a6 9840 4530 0640 3a3d e440
00000030: 671d 573f 8da5 e440 ef2f 083f 3735 5641
00000040: 73dd 2f41 feb8 6943 d3f5 5b41 df1b dc42
